checkpoint_critic.pth (torch, 551698 bytes, 9 tensors)

fcs1.weight f4 [400, 33]
-0.036270875 -0.50341904 -0.009157103 0.08189586 0.38298416 0.35845616 -0.1315371 -0.3533287
0.20827326 -0.104473144 -0.010967011 -0.068940386 0.036790673 -0.3401982 -0.74770373 0.4451954
-0.18089314 0.16302201 -0.31819484 -0.22673923 0.2921671 0.0049205157 -0.23415096 0.3577388
0.0401733 0.19912644 -0.048206463 0.026472965 0.7214015 0.018859608 -0.034644242 0.015230149
2.0847304 0.16127194 0.63879734 -1.0771234 0.102499254 -0.16282935 0.25676486 -0.4357012
-0.10194915 -0.35890114 -0.31361523 0.0009519979 -0.3068682 0.09580913 -0.29640254 -0.71117043
0.71213263 -0.82926595 -0.121495046 0.54207236 -0.042142186 -0.10199167 0.38692147 -0.119613454
-0.029538583 -0.13323697 0.1078161 0.37970364 -0.01230476 -0.41893834 -0.022063881 -0.016024224
0.04709514 -0.70028454 -0.16577096 0.51245725 0.3553619 -0.32919532 0.1793253 -0.3268821
-0.5012665 0.14684048 -0.28982982 -0.13405539 -0.026617194 0.07213945 0.061127 0.017735606
0.079185806 -0.529198 0.12607907 0.36613348 -0.35984054 -0.09804453 -0.050641384 -0.16335757
-0.007389786 -0.07820887 0.27526206 -0.051404547 -0.13270496 0.014567925 0.40300617 0.009961343
0.027575852 -0.03622645 3.403142 -0.5943609 -0.20089519 -0.22845918 0.5554333 -0.29021415
-0.5176892 0.13737543 0.26139873 0.0483085 -0.16066997 -0.34844744 -0.14911065 -0.01034935
-0.77587175 -0.52326244 -0.18020624 -0.12105645 -0.046349306 -0.12553473 -0.28827408 -0.03333318
-0.035572268 1.577126e-05 -0.08841905 0.16820495 -0.26074523 -0.34181148 0.021143839 0.49015945
-0.016846752 0.04655651 -0.011744643 -0.9859162 0.99755013 0.076485395 -0.11031714 0.2651507
1.339996 -0.2771398 -0.11189669 -0.11838822 0.5542276 -0.19969635 0.44693103 0.020016117
0.34398708 0.69986326 -0.31549713 0.092749394 -0.69420606 -0.23521085 -0.33382648 -0.3454745
0.28775468 -0.4473509 0.47419283 -0.24628425 0.45355183 0.3460119 0.6764013 -0.028795978
0.29420042 0.008769435 -0.010199174 -0.017129147 -0.05737302 -0.12482989 -0.15536988 -0.11906744
0.43568343 -0.07587127 0.8097329 0.18086298 -0.007163537 0.08429985 0.034345474 -0.0044617266
-0.06177689 0.04626488 0.15337524 0.01558578 0.12923655 0.18186088 0.333765 -0.014684629
-0.22906388 0.007187024 -0.065599285 -0.049485788 -0.02790394 0.07343782 0.12750909 -0.2757116
0.038703665 0.2508221 0.038334835 -0.0041853497 0.03429221 -4.6555123 -0.03423201 -0.071705125
-0.07750608 0.06686349 0.0010954575 0.4353365 0.8498531 0.038150743 -0.4129166 -0.2118712
0.20770422 0.15696038 -0.24035685 0.1691608 0.4697107 0.21057528 -0.0059305015 -0.40272474
0.19400017 0.05995279 -0.19682297 0.18186107 0.23440392 -0.40232384 0.32661608 -0.39403173
0.019648599 0.048323315 0.5096289 0.014820427 0.02240384 -0.027319385 0.07517053 0.63632596
0.5114984 0.1424142 0.041154098 1.2709335 -0.08997877 0.3090633 -0.36952 0.18897882
-0.25024685 0.14107703 -0.1642553 0.05094265 0.611227 0.31850377 -0.054882098 0.14552495
-0.7478717 -0.6963875 0.5318633 -0.3307399 -0.47970015 0.17836165 -0.101112664 0.054895908
00000000: c590 14bd 12e0 00bf ac07 16bc 04b9 a73d
00000010: 8016 c43e 9187 b73e a9b1 06be 80e7 b4be
00000020: 9645 553e 04f6 d5bd faae 33bc 9e30 8dbd
00000030: d1b1 163d 752e aebe 8369 3fbf a7f0 e33e
00000040: 0d3c 39be 3eef 263e 6fea a2be 542e 68be
00000050: ed96 953e 473c a13b 45c5 6fbe 8a29 b73e
00000060: c28c 243d cde7 4b3e 2474 45bd d5dd d83c
00000070: c5ad 383f 777f 9a3c 1fe7 0dbd e087 793c
00000080: 396c 0540 7924 253e 3988 233f 2edf 89bf
00000090: 21eb d13d bdbc 26be af76 833e 3a14 dfbe
000000a0: b7ca d0bd e4c1 b7be 2d92 a0be 7f8f 793a
000000b0: d41d 9dbe 9437 c43d 13c2 97be 440f 36bf
000000c0: 534e 363f c64a 54bf 65d2 f8bd 41c5 0a3f
000000d0: 499d 2cbd 02e1 d0bd 921a c63e e6f7 f4bd
000000e0: e6fa f1bc 466f 08be b0ce dc3d 8468 c23e
000000f0: e799 49bc 167f d6be 50bf b4bc 3c45 83bc
00000100: d5e6 403d d945 33bf ddbf 29be 6630 033f
00000110: fff1 b53e 4a8c a8be 0da1 373e 175d a7be
00000120: 0053 00bf 5a5d 163e 9364 94be d145 09be
00000130: 4d0c dabc d9bd 933d 4e60 7a3d 434a 913c
00000140: 2b2c a23d 8579 07bf df1a 013e d975 bb3e
00000150: 053d b8be 92cb c8bd 576d 4fbd 3547 27be
00000160: 0526 f2bb f92b a0bd 26ef 8c3e 938d 52bd
00000170: cfe3 07be 4eae 6e3c d356 ce3e e734 233c
00000180: c1e6 e13c 3062 14bd 14cd 5940 0928 18bf
00000190: 78b7 4dbe 34f1 69be e030 0e3f f396 94be
000001a0: 4887 04bf 25ac 0c3e 0ed6 853e 22df 453d
000001b0: ab86 24be b467 b2be 76b0 18be 5290 29bc
000001c0: 889f 46bf 87f4 05bf fc87 38be 72ec f7bd
000001d0: c5d8 3dbd 2d8c 00be a998 93be 5f88 08bd
000001e0: 3ab4 11bd 864c 8437 0c15 b5bd eb3d 2c3e
000001f0: 6680 85be ea01 afbe d835 ad3c 2ef6 fa3e
00000200: 3302 8abc 0ab2 3e3d 9a6c 40bc 0165 7cbf
00000210: 725f 7f3f 60a4 9c3d f4ed e1bd d5c1 873e
00000220: fd84 ab3f 45e5 8dbe 182a e5bd 8675 f2bd
00000230: dce1 0d3f 337d 4cbe 25d4 e43e d7f8 a33c
00000240: 131f b03e 3d2a 333f d788 a1be 65f3 bd3d
00000250: 7db7 31bf 1ddb 70be 4eeb aabe 09e2 b0be
00000260: 9554 933e 2d0b e5be 67c9 f23e f031 7cbe
00000270: f237 e83e 7928 b13e a328 2d3f 8be5 ebbc
00000280: 70a1 963e adad 0f3c 701a 27bc 6d52 8cbc
00000290: f9ff 6abd d0a6 ffbd 4819 1fbe a1d9 f3bd
000002a0: e611 df3e 6562 9bbd a84a 4f3f 2534 393e
000002b0: 1bbc eabb 66a5 ac3d d7ad 0c3d ad33 92bb
000002c0: c409 7dbd 3e80 3d3d 660e 1d3e 805b 7f3c
000002d0: 9656 043e bd39 3a3e 3fe3 aa3e cc97 70bc
000002e0: b98f 6abe 2181 eb3b eb58 86bd 9cb1 4abd
000002f0: ce96 e4bc 9166 963d be91 023e 122a 8dbe
00000300: bc87 1e3d c16b 803e fd04 1d3d 4225 89bb
00000310: fd75 0c3d f5f9 94c0 dd36 0cbd 23da 92bd
00000320: 82bb 9ebd baef 883d 7495 8f3a 6de4 de3e
00000330: f98f 593f f443 1c3d ce69 d3be c4f4 58be
00000340: 6ab0 543e 39ba 203e 1b20 76be 7d38 2d3e
00000350: ec7d f03e 0ca1 573e a754 c2bb f031 cebe
00000360: fba7 463e 0f91 753d f68b 49be ca39 3a3e
00000370: 9507 703e 64fd cdbe 393a a73e 87be c9be
00000380: 19f6 a03c abee 453d 0a77 023f 60d1 723c
00000390: 4288 b73c e7cc dfbc 02f3 993d 42e6 223f
000003a0: 8ff1 023f 07d5 113e 3391 283d f3ad a23f
000003b0: ca46 b8bd 8b3d 9e3e ba31 bdbe aa83 413e
000003c0: 5b20 80be 7f76 103e 8b32 28be 3da9 503d
000003d0: 5f79 1c3f ed12 a33e 0dcc 60bd 7e04 153e
000003e0: 8574 3fbf 7446 32bf 3128 083f bd56 a9be
000003f0: 429b f5be 70a4 363e 2814 cfbd 88da 603d

fcs1.bias f4 [400]
-0.08037542 -0.071787894 0.16831627 0.027790112 -0.14797413 -0.15310733 -0.14975917 -0.12604478
-0.10507181 -0.092745624 0.12983534 -0.07148756 0.16010422 -0.03859899 -0.14070728 -0.062098727
-0.07626581 -0.119751826 -0.16403134 0.007825031 -0.13527694 -0.05013636 -0.04559315 -0.100444235
-0.0063971197 -0.13499586 -0.056553114 0.15365455 0.16096002 0.014111551 0.04054699 0.15711989
0.16719438 -0.08209329 0.0275293 -0.03452533 -0.119348794 0.15454441 0.13965024 0.007516766
0.14352062 0.046039082 0.114760034 0.07378716 0.08232748 0.06208806 0.087493986 0.15311186
0.06806445 -0.11103328 0.06411764 0.17385353 0.14420627 0.10976984 -0.06765178 0.17184736
0.033503413 -0.09373589 -0.0065080374 0.12636532 -0.15970032 -0.039874937 0.12973495 -0.047934774
-0.070255645 -0.046668373 0.056872427 -0.1341396 0.021968203 0.0447002 0.045820538 -0.0037486572
0.08584607 -0.011578445 0.13425258 0.11526909 -0.12028918 -0.033974517 0.13550393 -0.017829766
-0.055994824 -0.010988485 -0.04016047 -0.060847282 0.03842049 0.1470629 0.028196016 0.09758902
0.13421926 -0.11207688 -0.12384605 -0.025624435 0.051850293 -0.021020377 -0.082102045 -0.12000152
0.0054367497 0.12934591 0.006704336 0.16576348 -0.08242494 0.16041388 -0.111552656 0.13816379
0.01910687 0.17325431 0.16564232 -0.059461657 -0.012726988 -0.046706893 0.03966747 -0.08582917
-0.040726386 -0.10551259 0.1060743 0.13739307 0.018484697 -0.005339554 -0.13068591 -0.15871416
-0.13439976 -0.12890305 -0.14317004 0.08149876 -0.13360363 0.08338426 0.11582239 -0.00085188955
0.04159672 0.10864174 -0.15786766 0.1502008 0.17165232 0.16612814 -0.068002276 0.10683738
-0.06381142 0.027137972 0.14527869 0.036433816 0.06322412 -0.04607808 -0.0824754 0.14203264
-0.15718232 0.030390967 -0.016825074 -0.049382392 -0.17161965 -0.10271326 -0.09949822 0.025979752
0.06788355 -0.15869664 -0.066998504 -0.16613305 0.11891848 -0.16001673 -0.023458607 -0.024844386
-0.095378354 0.124252416 0.0745103 0.090822145 0.12259582 -0.08705429 0.08426661 0.1404241
-0.04124478 -0.014577736 0.016382303 -0.1709174 -0.018656988 -0.02059422 -0.12621178 0.12745796
-0.15306897 -0.069587745 0.102120236 0.027194172 0.07058444 0.00688012 -0.16205397 -0.12382613
-0.05912958 -0.11756688 -0.108390346 -0.056927692 0.15287168 0.13478887 0.034828003 -0.111709096
-0.1041123 0.17043664 0.021248667 0.019580027 -0.09875047 -0.08843002 0.08565587 -0.014948314
-0.018304003 -0.085923605 -0.12876987 -0.11315792 -0.16784607 0.15935689 0.025721148 0.02443404
0.13085055 0.08746756 -0.02533826 0.107776366 0.0017991477 -0.16766518 0.14093891 -0.10261281
-0.1314141 -0.0402323 0.041805618 0.13731836 -0.1723215 -0.16320261 -0.11592741 -0.10172804
0.17111535 -0.0023816861 0.12634498 0.04907848 0.10158065 -0.091038324 0.07568758 0.06320569
0.061362512 -0.13059887 -0.060314167 0.14783104 -0.038051613 -0.12627648 -0.14735974 -0.035310466
0.08060435 -0.051561553 0.12415477 0.07512196 -0.1386757 0.0018365002 0.15951577 0.1082937
-0.062353846 -0.12920134 0.04526367 0.08401902 -0.035623323 -0.14889985 0.16797164 0.08366578
00000000: de9b a4bd 8805 93bd 1a5b 2c3e 17a8 e33c
00000010: 8886 17be 2bc8 1cbe 785a 19be e211 01be
00000020: e42f d7bd 6bf1 bdbd 8ef3 043e 1268 92bd
00000030: 5cf2 233e f919 1ebd 9215 10be 3c5b 7ebd
00000040: 4031 9cbd 7240 f5bd d5f7 27be 8f34 003c
00000050: 0a86 0abe c95b 4dbd e2bf 3abd b5b5 cdbd
00000060: ee9e d1bb 5b3c 0abe 3da4 67bd 9e57 1d3e
00000070: b4d2 243e 2334 673c 9a14 263d 09e4 203e
00000080: 0135 2b3e 8720 a8bd 2085 e13c 6f6a 0dbd
00000090: 246d f4bd e440 1e3e 7900 0f3e 344f f63b
000000a0: 12f7 123e 7a93 3c3d 4f07 eb3d b91d 973d
000000b0: 4f9b a83d 0d50 7e3d 0c30 b33d 5bc9 1c3e
000000c0: 6065 8b3d 6b65 e3bd 1c50 833d a906 323e
000000d0: cfaa 133e 03cf e03d 048d 8abd c1f8 2f3e
000000e0: e03a 093d 9af8 bfbd 6041 d5bb e965 013e
000000f0: 7b88 23be e753 23bd 3dd9 043e 4157 44bd
00000100: 31e2 8fbd 5627 3fbd 10f3 683d e45b 09be
00000110: a9f6 b33c 8f17 373d 51ae 3b3d 08ac 75bb
00000120: 10d0 af3d 85b3 3dbc 8279 093e 3312 ec3d
00000130: 2c5a f6bd dd28 0bbd 8bc1 0a3e bb0f 92bc
00000140: d45a 65bd 0c09 34bc 4e7f 24bd 003b 79bd
00000150: ce5e 1d3d a897 163e 55fb e63c c1dc c73d
00000160: c670 093e 9088 e5bd ffa2 fdbd 56ea d1bc
00000170: f960 543d ed32 acbc 1e25 a8bd 5bc3 f5bd
00000180: c326 b23b 4173 043e 0cb0 db3b e7bd 293e
00000190: 68ce a8bd 8943 243e b875 e4bd cf7a 0d3e
000001a0: 0386 9c3c 9469 313e 249e 293e 118e 73bd
000001b0: db84 50bc ba4f 3fbd 5b7a 223d 34c7 afbd
000001c0: b6d0 26bd fc16 d8bd 7c3d d93d c5b0 0c3e
000001d0: 386d 973c 6df7 aebb 87d2 05be f785 22be
000001e0: 17a0 09be 29ff 03be 2b9b 12be d2e8 a63d
000001f0: 64cf 08be 5ec5 aa3d 4a34 ed3d 5751 5fba
00000200: 5361 2a3d 907f de3d 0fa8 21be 3dce 193e
00000210: a0c5 2f3e 7f1d 2a3e c744 8bbd 8ecd da3d
00000220: 90af 82bd 7450 de3c f0c3 143e a03b 153d
00000230: a67b 813d 5ebc 3cbd dde8 a8bd 0171 113e
00000240: 67f4 20be 7af6 f83c bdd4 89bc 3145 4abd
00000250: 10bd 2fbe 545b d2bd b9c5 cbbd 7dd3 d43c
00000260: 8806 8b3d 5f81 22be 8336 89bd c81e 2abe
00000270: 888b f33d 6ddb 23be 442c c0bc 7486 cbbc
00000280: ba55 c3bd 0d78 fe3d db98 983d f600 ba3d
00000290: 8413 fb3d 8549 b2bd f993 ac3d 56cb 0f3e
000002a0: 49f0 28bd 75d7 6ebc 2e34 863c f904 2fbe
000002b0: 8ad6 98bc 36b5 a8bc a93d 01be 5784 023e
000002c0: 1dbe 1cbe 0584 8ebd 6a24 d13d 50c6 de3c
000002d0: 938e 903d a172 e13b 7af1 25be 8e98 fdbd
000002e0: dc31 72bd e8c6 f0bd c2fb ddbd 032d 69bd
000002f0: 658a 1c3e 1806 0a3e cfa7 0e3d bdc7 e4bd
00000300: d438 d5bd f186 2e3e af11 ae3c 4b66 a03c
00000310: b03d cabd cc1a b5bd 586c af3d c6e9 74bc
00000320: 47f2 95bc b7f8 afbd 40dc 03be 57bf e7bd
00000330: d7df 2bbe 742e 233e 28b5 d23c e529 c83c
00000340: b0fd 053e 3122 b33d 2f92 cfbc dbb9 dc3d
00000350: 61d1 eb3a 6cb0 2bbe 4a52 103e aa26 d2bd
00000360: 6b91 06be a0ca 24bd 5e3c 2b3d 2f9d 0c3e
00000370: 0c75 30be 961e 27be 5a6b edbd ca56 d0bd
00000380: dd38 2f3e 1016 1cbb 9460 013e 8406 493d
00000390: 8409 d03d 4d72 babd 1702 9b3d fc71 813d
000003a0: 4257 7b3d b6bb 05be fd0b 77bd 0561 173e
000003b0: 02dc 1bbd 9f4e 01be 79e5 16be b5a1 10bd
000003c0: e513 a53d 3532 53bd db44 fe3d 8bd9 993d
000003d0: 0101 0ebe b9b6 f03a 1a58 233e 16c9 dd3d
000003e0: bf66 7fbd 5b4d 04be 6666 393d 2a12 ac3d
000003f0: c3e9 11bd 3479 18be c200 2c3e f758 ab3d

bns1.weight f4 [400]
0.5051597 0.52193385 0.6198761 0.32861918 0.3691263 0.986709 0.25279507 0.51510763
0.5349904 0.16491726 0.85094064 0.40209398 0.43595207 1.3265077 0.5829988 0.4784081
0.6492733 0.4396941 0.88040435 1.0114641 0.33382145 0.20391276 0.37890714 0.5291406
0.31481883 0.26812997 0.5114661 0.9457469 0.41813484 0.27674294 0.4192073 1.3386517
0.38864997 0.4416098 0.42933354 0.74236083 0.26660332 0.5627452 0.28250507 0.28013593
0.08579974 0.36989963 0.4459624 0.6522274 0.24840955 0.36893585 0.53356135 0.5299464
0.20741118 0.41823024 0.38585317 0.4525966 0.25443158 0.33065346 0.5583399 0.48176914
0.8873283 0.45278355 0.5161041 0.45890057 0.4701332 0.8044519 0.54917955 0.19018598
0.060595375 0.3313673 0.35045475 0.17931463 0.64158875 0.59688157 0.48731473 0.64514905
0.5797147 0.54666203 0.4171997 0.26316833 0.47391388 0.4685643 0.42945728 1.2457467
0.8783806 0.23470059 0.34949425 0.33644775 0.52723587 0.6087777 0.5808972 0.38403937
0.34142384 0.9467322 0.24046803 0.2756695 0.34672165 0.5395006 1.1108446 0.4051828
0.47113067 0.40558416 0.926756 0.33298963 0.5325802 0.47766593 0.5011222 0.43517235
0.4229406 0.49572873 0.39066768 0.5528027 0.34092414 0.6431035 0.67094475 0.19234
0.30841658 0.2010402 0.1319986 0.41809225 1.0805167 0.38402352 0.41544607 0.47877514
0.2720268 0.4358207 0.37949362 0.39538038 0.38954008 0.34507796 0.3317962 0.47196436
0.45512107 0.5233653 0.30633697 0.42697546 0.5533346 0.3201461 0.36212158 0.54162854
0.49256295 0.089092135 0.29994878 0.3720612 0.28514087 0.66076803 0.20520468 0.5538578
0.6360126 0.25615132 0.42371702 0.8923994 0.8604792 0.68257105 0.4256798 0.13704132
0.4724411 0.63768053 0.26147363 0.45825776 0.8889674 0.3114751 0.4553988 0.6024509
0.18044932 0.7293246 0.30948377 0.2941025 0.8047118 0.5947229 0.18527152 0.31146002
1.1103919 0.6130988 0.19617371 0.4017948 0.28526035 0.57563084 0.38504246 0.23200826
0.44685093 0.4584211 0.46685812 0.5716389 0.46139172 0.27142578 0.39628357 1.4626468
0.45911214 0.30436185 0.30972618 0.5680328 1.0696312 0.5850754 0.45576137 0.2580506
0.5502367 0.32729506 0.495112 0.47049618 0.68087053 0.3848981 0.52254796 0.3957264
0.51339555 0.7465963 0.65322 0.8057476 0.9080493 0.7164111 0.5939096 0.5056452
0.4046152 0.4264496 0.4034585 0.9330477 0.37513682 0.6129223 0.56350654 0.30486956
0.17197074 0.4486249 0.47277418 1.1687922 0.2330312 0.6580189 0.4318678 0.45356536
0.39875856 0.3600595 0.4660848 0.32254416 0.1954375 0.7001118 0.56366366 0.3824057
0.8023486 0.080374025 0.40368515 0.763496 0.013836205 0.4537149 0.2783909 0.40685314
0.50972664 0.5966232 0.56377035 0.6344632 0.53886986 0.3948624 0.65426993 0.55751765
0.4371212 0.7734181 0.37734726 0.70538825 0.6147628 0.47785544 0.45166537 0.5732204
00000000: 2552 013f 759d 053f 33b0 1e3f c640 a83e
00000010: 1ffe bc3e f698 7c3f 5b6e 813e 18de 033f
00000020: 21f5 083f 12e0 283e 3fd7 593f 43df cd3e
00000030: 1c35 df3e 01cb a93f 693f 153f e8f1 f43e
00000040: c636 263f 961f e13e 2e62 613f a877 813f
00000050: a5ea aa3e 82ce 503e 1e00 c23e c275 073f
00000060: ef2f a13e 5548 893e 71ef 023f 781c 723f
00000070: c515 d63e 40b1 8d3e 57a2 d63e f058 ab3f
00000080: 21fd c63e ae1a e23e 9bd1 db3e 5c0b 3e3f
00000090: 3b80 883e 1210 103f 81a4 903e fa6d 8f3e
000000a0: c6b7 af3d 7c63 bd3e 2f55 e43e 60f8 263f
000000b0: 135f 7e3e 29e5 bc3e 7a97 083f 91aa 073f
000000c0: 9963 543e 4622 d63e 8c8e c53e beba e73e
000000d0: db44 823e 694b a93e 5def 0e3f 72aa f63e
000000e0: f327 633f 3fd3 e73e 661f 043f 04f5 ea3e
000000f0: 4cb5 f03e 8ff0 4d3f 0897 0c3f 1dc0 423e
00000100: db32 783d faa8 a93e ce6e b33e 419e 373e
00000110: 293f 243f 3bcd 183f 5181 f93e 7d28 253f
00000120: 2f68 143f 0bf2 0b3f 339b d53e 00be 863e
00000130: d7a4 f23e a9e7 ef3e d3e1 db3e a174 9f3f
00000140: 8ddd 603f 5a55 703e e9f0 b23e e142 ac3e
00000150: eef8 063f dbd8 1b3f aeb5 143f cfa0 c43e
00000160: 1bcf ae3e 0b5d 723f 403d 763e 8d24 8d3e
00000170: 8085 b13e b61c 0a3f 2830 8e3f 1f74 cf3e
00000180: 0a38 f13e baa8 cf3e e23f 6d3f 9e7d aa3e
00000190: 2d57 083f a190 f43e 8b49 003f e9ce de3e
000001a0: ac8b d83e 28d0 fd3e 9805 c83e 7a84 0d3f
000001b0: 9c8d ae3e 6ea2 243f 09c3 2b3f c7f4 443e
000001c0: c7e8 9d3e 7bdd 4d3e a42a 073e 3010 d63e
000001d0: 5f4e 8a3f bb9e c43e 59b5 d43e 0422 f53e
000001e0: 1947 8b3e e423 df3e fd4c c23e 4c6f ca3e
000001f0: cc71 c73e 0fae b03e 31e1 a93e 50a5 f13e
00000200: a105 e93e 45fb 053f 33d8 9c3e 879c da3e
00000210: 56a7 0d3f 31ea a33e 0068 b93e 2ba8 0a3f
00000220: 3631 fc3e f075 b63d e392 993e ce7e be3e
00000230: fcfd 913e 1828 293f 2d21 523e a0c9 0d3f
00000240: b9d1 223f 4426 833e 70f1 d83e 4974 643f
00000250: 5d48 5c3f fabc 2e3f b4f2 d93e 8f54 0c3e
00000260: cde3 f13e 083f 233f dfdf 853e c3a0 ea3e
00000270: 5e93 633f aa79 9f3e 082a e93e 393a 1a3f
00000280: b5c7 383e 04b5 3a3f a874 9e3e 9a94 963e
00000290: 9801 4e3f c33f 183f d1b7 3d3e b077 9f3e
000002a0: 5221 8e3f 0bf4 1c3f c3e1 483e 0cb8 cd3e
000002b0: a50d 923e 8b5c 133f 4924 c53e 9393 6d3e
000002c0: a5c9 e43e 2cb6 ea3e 0708 ef3e ed56 123f
000002d0: 893b ec3e 52f8 8a3e aee5 ca3e 0338 bb3f
000002e0: bf10 eb3e 51d5 9b3e 6e94 9e3e 996a 113f
000002f0: ade9 883f 80c7 153f 8e59 e93e 351f 843e
00000300: 50dc 0c3f 3893 a73e 527f fd3e e0e4 f03e
00000310: 884d 2e3f 5d11 c53e b4c5 053f a79c ca3e
00000320: e46d 033f ef20 3f3f 6d39 273f 7a45 4e3f
00000330: eb75 683f b866 373f 760a 183f f771 013f
00000340: b929 cf3e 9a57 da3e 1d92 ce3e 37dc 6e3f
00000350: ef11 c03e 7ae8 1c3f f741 103f dd17 9c3e
00000360: 1919 303e 2ab2 e53e 750f f23e fc9a 953f
00000370: bb9f 6e3e ed73 283f c71d dd3e b839 e83e
00000380: 152a cc3e b859 b83e aba2 ee3e 8224 a53e
00000390: c520 483e 873a 333f 434c 103f aeca c33e
000003a0: b866 4d3f 239b a43d d2af ce3e 7974 433f
000003b0: 40b1 623c 524d e83e 4189 8e3e 0e4f d03e
000003c0: 727d 023f 4cbc 183f 4153 103f 2e6c 223f
000003d0: 60f3 093f 682b ca3e 3c7e 273f 7ab9 0e3f
000003e0: 5ace df3e bbfe 453f a933 c13e 5394 343f
000003f0: 1861 1d3f 78a9 f43e af40 e73e 92be 123f

bns1.bias f4 [400]
-0.6889684 -0.7769061 -0.8345188 -0.98389393 -0.6668345 -0.35526028 -1.1040457 -0.8744649
-0.97419065 -0.6608706 -1.0251448 -0.5509667 -0.90774184 -0.8016482 -0.49294338 -0.93381566
-0.9292715 -0.86513525 -0.85994464 -0.48366725 -0.58890116 -1.008036 -0.64265805 -0.5486089
-0.38313487 -0.9533219 -0.8565643 -0.8442113 -0.7363962 0.672228 -0.5706355 -0.9146618
-0.77413565 -0.9211528 -1.0747913 -0.034482375 -0.6392131 -0.9397144 -0.23610124 -0.52649736
-0.33812046 -0.8760229 -0.7322509 -0.4816637 -0.097789936 -0.72242147 -0.7379165 -0.85328376
-0.8429265 -0.34816557 -0.77648026 -1.2353094 -0.63619053 -0.8711067 -0.7877508 -0.7984272
-0.65435964 -0.75023955 -0.7582512 -0.65529597 -0.6687534 -0.9343812 -0.7762647 -0.52732676
-0.5110657 -0.88855 -0.99884623 -0.75635415 -0.5907618 -0.8767822 -0.8849323 -0.73953444
-0.019117422 -0.09627342 -0.0070594884 -0.8170735 -1.0147724 -0.81323 -0.7521188 -0.9259732
-0.7294126 -0.18182302 -1.1698803 -0.7795718 -0.83882535 -0.8671361 -0.74155134 -0.4939342
-1.3318664 -0.59679353 -0.9997549 -1.1889621 -0.6455678 -0.75245255 -0.31147572 -1.1055454
-0.65661246 -0.9595126 -0.1710076 -0.6200955 -0.88238317 -0.75243 -0.96325964 0.021467745
-0.5312558 -0.56899786 -0.7072953 -0.61853623 -1.0842525 0.5420704 -0.94765633 -0.6434162
-1.3568679 -0.94697106 -0.71433717 -0.81328815 -0.7642532 -0.792099 -0.88478506 -0.26677048
-1.0880755 -0.8495962 -1.0381157 -0.50389796 -0.36832243 -0.80859685 -0.6276507 -0.45094472
-0.61835754 -0.8148815 -1.0321406 -0.7650045 -0.4821511 -0.96673876 -1.0463288 -0.8041513
-1.1017745 -0.27286017 -0.029233126 -0.45371523 0.44848287 -0.9853495 -0.7939592 -0.6866719
-0.44277275 -0.8394828 -0.6340946 -0.594987 -0.74907917 -0.8146119 -0.9878293 -0.3511106
-0.5923544 -0.45293194 -1.2116357 -0.8735804 -0.64994526 -0.783617 -0.7443887 -0.6863832
-0.31648368 -0.9836032 -0.27463496 -0.49542284 -0.73344165 -0.78568447 0.6086874 -0.17999147
-0.7682654 -0.98926353 -1.1683254 -0.99290156 -0.46632904 -0.87896496 -0.38022265 -0.61352456
-0.30581284 -0.28975475 -0.828121 0.07323182 -0.7064748 -0.80353475 -0.4288127 -0.33793014
-0.26362854 -0.7687027 -0.6861285 -0.5941466 -0.8612272 -0.7100464 -0.57943416 -0.68019694
-0.25215822 -1.2168463 -0.47220096 -0.6186235 -0.9617293 -0.71610206 -1.0218468 -0.27199325
-1.0615941 -1.0742812 -0.34740856 -0.90137047 -0.48565513 -0.61189973 0.44030064 -0.66584635
-0.73612267 -0.8543916 -0.8880125 -1.0899719 -0.44174683 -0.94081914 -1.0801406 -0.8767779
-0.91174656 -0.7040145 -0.78248173 -1.2139027 -0.8300046 -0.6750996 -0.8880365 -0.6255589
-1.0222857 -0.9698611 -0.9086358 -0.3942171 -0.7292328 -0.9949388 -0.77286315 -0.53742033
-0.8592274 -0.4148011 -0.8600318 -0.8111884 -0.10569512 -1.0240585 -0.44800496 -0.9402002
-0.365744 -0.8473909 -0.7737483 -0.7357487 -0.7154106 -0.8297023 -0.8311036 -1.0428056
-0.51234376 -0.82256347 -0.7498213 -0.7806436 -0.8884744 -0.45035997 -0.60396546 -0.88752985
00000000: 3c60 30bf 51e3 46bf 06a3 55bf 79e0 7bbf
00000010: aab5 2abf ade4 b5be 5f51 8dbf efdc 5fbf
00000020: 8f64 79bf d12e 29bf f237 83bf 270c 0dbf
00000030: c561 68bf d138 4dbf 1363 fcbe 8b0e 6fbf
00000040: bde4 6dbf 8179 5dbf 5525 5cbf 3ca3 f7be
00000050: 3ac2 16bf 5307 81bf 3d85 24bf a271 0cbf
00000060: 412a c4be e70c 74bf cc47 5bbf 3b1e 58bf
00000070: 7684 3cbf 2217 2c3f 2b15 12bf 4727 6abf
00000080: c12d 46bf abd0 6bbf c392 89bf 643d 0dbd
00000090: 78a3 23bf 1f91 70bf 86c4 71be 88c8 06bf
000000a0: 201e adbe 0943 60bf cc74 3bbf a09c f6be
000000b0: 1746 c8bd 9df0 38bf 19e8 3cbf ce70 5abf
000000c0: 08ca 57bf c242 b2be 69c7 46bf 9e1e 9ebf
000000d0: 62dd 22bf d900 5fbf 09aa 49bf ba65 4cbf
000000e0: 1d84 27bf b30f 40bf c01c 42bf 7ac1 27bf
000000f0: 6c33 2bbf 9b33 6fbf 49b9 46bf e3fe 06bf
00000100: 34d5 02bf 0378 63bf 63b4 7fbf 6da0 41bf
00000110: 2a3c 17bf cc74 60bf ec8a 62bf 2152 3dbf
00000120: 249c 9cbc 002b c5bd 4853 e7bb bb2b 51bf
00000130: 10e4 81bf d72f 50bf dc8a 40bf 940c 6dbf
00000140: c9ba 3abf d02f 3abe a3be 95bf 0492 47bf
00000150: 42bd 56bf a2fc 5dbf 4fd6 3dbf f2e4 fcbe
00000160: 997a aabf 76c7 18bf f0ef 7fbf e92f 98bf
00000170: ee43 25bf bba0 40bf bf79 9fbe 8382 8dbf
00000180: c117 28bf 9ea2 75bf 9e1c 2fbe 94be 1ebf
00000190: dde3 61bf 419f 40bf 2f98 76bf 20dd af3c
000001a0: 6100 08bf d8a9 11bf 4e11 35bf 6458 1ebf
000001b0: c9c8 8abf 20c5 0a3f 9b99 72bf edb6 24bf
000001c0: d9ad adbf b26c 72bf cdde 36bf a733 50bf
000001d0: 19a6 43bf 00c7 4abf 4681 62bf 2496 88be
000001e0: 0f46 8bbf 237f 59bf fae0 84bf 75ff 00bf
000001f0: c294 bcbe 3400 4fbf b7ad 20bf 3ae2 e6be
00000200: ae4c 1ebf 139c 50bf 2f1d 84bf 56d7 43bf
00000210: 82dc f6be 317c 77bf 1aee 85bf dcdc 4dbf
00000220: f206 8dbf 54b4 8bbe 4f7a efbc 5d4d e8be
00000230: 8c9f e53e dd3f 7cbf e940 4bbf bbc9 2fbf
00000240: 1cb3 e2be 58e8 56bf 0654 22bf 1151 18bf
00000250: a7c3 3fbf 688a 50bf 62e2 7cbf c5c4 b3be
00000260: 8aa4 17bf b2e6 e7be e116 9bbf f7a2 5fbf
00000270: d062 26bf 209b 48bf 4290 3ebf cfb6 2fbf
00000280: 260a a2be 6bcd 7bbf f49c 8cbe 10a8 fdbe
00000290: d5c2 3bbf 9e22 49bf f0d2 1b3f af4f 38be
000002a0: 0bad 44bf 6040 7dbf b08b 95bf cc2e 7ebf
000002b0: aec2 eebe d903 61bf 8bac c2be f20f 1dbf
000002c0: 8093 9cbe bc5a 94be bdff 53bf 90fa 953d
000002d0: 88db 34bf 74b4 4dbf 578d dbbe 2e05 adbe
000002e0: 52fa 86be b3c9 44bf 1ea6 2fbf fe19 18bf
000002f0: 6379 5cbf 9ac5 35bf cc55 14bf 6321 2ebf
00000300: e21a 81be 9fc1 9bbf 53c4 f1be 1c5e 1ebf
00000310: e433 76bf 7752 37bf e0cb 82bf b342 8bbe
00000320: 51e2 87bf 0c82 89bf 89df b1be 37c0 66bf
00000330: caa7 f8be 76a5 1cbf 166f e13e e874 2abf
00000340: 8972 3cbf 68b9 5abf ca54 63bf 3384 8bbf
00000350: a42c e2be 86d9 70bf 0c42 8abf 8474 60bf
00000360: 3968 69bf 4b3a 34bf b950 48bf 2a61 9bbf
00000370: 2e7b 54bf 54d3 2cbf 5c56 63bf a124 20bf
00000380: 42da 82bf d148 78bf 5b9c 68bf d3d6 c9be
00000390: 00af 3abf 4fb4 7ebf 5cda 45bf 6194 09bf
000003a0: 54f6 5bbf cf60 d4be 0b2b 5cbf 0baa 4fbf
000003b0: af76 d8bd 5914 83bf e860 e5be f6b0 70bf
000003c0: cc42 bbbe 9cee 58bf 5e14 46bf 075a 3cbf
000003d0: 2625 37bf 5f67 54bf 35c3 54bf a77a 85bf
000003e0: f628 03bf 8593 52bf 4af4 3fbf 42d8 47bf
000003f0: 0f73 63bf 9595 e6be 7b9d 1abf 2835 63bf

bns1.running_mean f4 [400]
4.3420606 0.47663832 -1.8589503 2.8604956 1.060718 0.5125154 -1.4263201 -2.8910584
-2.4306028 -3.7168047 0.8703078 -1.6156228 3.0620093 0.4258983 -0.34644198 -3.904673
0.879832 3.2979302 -0.19997267 -0.689897 1.0220848 -2.0103803 -1.3040315 -1.9497685
5.9935045 -0.7959691 -2.0897899 0.33652163 -5.1235785 -0.07634085 4.4781027 0.75084364
-2.8295054 7.958333 0.56870395 0.67544806 1.0832428 0.63355815 -3.6379094 1.6511568
1.2881753 0.8517955 -3.8876507 0.26831293 2.2985075 2.6973057 0.48073766 0.21741691
4.1807656 3.7399302 -2.565407 -0.72901934 0.2618262 2.7855213 -4.466535 -1.3646008
-1.2876409 -0.073325954 1.085166 1.8277762 -2.109581 -0.17867422 1.5856066 4.4270277
-2.7070372 -4.5143967 3.476196 -6.810235 5.444966 3.7765758 -3.5846887 0.4187244
1.1547861 0.9823277 0.992871 0.20979752 -0.6717772 5.2997785 4.986535 -1.0768268
1.3475014 2.5469635 -2.4558027 -5.2377195 0.016058424 2.0660164 -2.5432189 -1.8228827
0.01159913 0.4050433 -2.104882 -1.3504118 2.2882657 0.018898325 -0.8673799 0.13438043
1.7216275 -3.3897328 -0.15100835 1.5740426 -0.2505337 -2.3223221 -0.13774548 1.7016187
6.4270954 0.3252063 -1.6960894 0.75600314 -0.7385791 0.3303098 1.7917047 -0.6257329
0.12934338 1.9775028 3.7004468 -1.9376293 1.5406613 4.6559887 2.378813 0.97866446
-2.4998114 3.4419296 -2.681627 -1.6235005 0.10492625 -0.4919005 -1.140591 -1.3839769
-1.434767 -1.8415283 1.6935469 -6.11352 0.7104913 2.1964672 -1.6455432 -2.7856545
-10.349356 1.9989461 0.4145797 -2.4102564 0.33792904 -0.5718304 1.888489 1.7999406
5.7280526 -2.100777 1.030055 0.9078398 -1.8854613 -1.4788158 -2.4075718 6.084099
2.8493128 -0.42231283 -2.64129 -0.52560306 1.298404 0.058129642 1.3919474 6.2965035
2.5308442 -0.80276144 -0.84636563 -4.589854 -0.26988274 0.34315932 0.69819623 4.4791036
-0.20540196 -1.550254 -1.5664406 1.1896929 -1.9900134 1.006704 -0.63805443 -3.9373548
1.1209954 0.07490015 1.1022087 1.3619636 0.53689784 -2.9471424 2.3526134 -0.831976
-1.5864549 4.5510526 2.8542902 -0.9808688 1.1762617 -2.2838833 -3.6784 3.9470446
-1.3935654 -4.4246044 -1.4690138 -0.15156864 -2.0314925 -1.4457606 1.2750652 -3.6553957
-2.2407951 -1.9808753 2.8315237 -0.7081225 -2.0576608 -0.4539385 0.529444 2.9013605
-3.3893507 -1.9242723 0.32837236 -0.45008788 -12.515424 -7.8877788 2.9093373 -0.8990623
-0.9101078 2.4124303 0.98629016 -0.7685222 0.23420694 3.6599867 -1.8443205 -3.6331344
1.8003043 5.2420983 4.715814 0.2959572 1.9376745 -2.6596615 0.15222925 -7.7278576
-0.48398578 0.067278236 -6.5040174 1.9318904 -0.5477616 1.7440236 -6.497478 -4.468516
-0.83216673 0.59363854 -2.9451413 -1.6500418 -0.4754297 3.3178809 -2.0336947 -1.3063382
-4.446049 0.43875673 1.669537 -0.80165666 -7.204256 -2.5400329 -0.8694032 -1.5874838
00000000: 29f2 8a40 f009 f43e 15f2 edbf 5c12 3740
00000010: 9cc5 873f 3634 033f a891 b6bf 1a07 39c0
00000020: ff8e 1bc0 21e0 6dc0 7ecc 5e3f bacc cebf
00000030: f6f7 4340 580f da3e d860 b1be 2ae6 79c0
00000040: ac3c 613f 4a11 5340 a3c5 4cbe 179d 30bf
00000050: add3 823f 12aa 00c0 81ea a6bf 0492 f9bf
00000060: caca bf40 a2c4 4bbf 1ebf 05c0 904c ac3e
00000070: 5bf4 a3c0 9758 9cbd 9e4c 8f40 4a37 403f
00000080: 9e16 35c0 aaaa fe40 9596 113f 2aea 2c3f
00000090: b3a7 8a3f de30 223f 82d3 68c0 1b59 d33f
000000a0: eee2 a43f 450f 5a3f 45cf 78c0 5060 893e
000000b0: bf1a 1340 a8a0 2c40 3f23 f63e 8aa2 5e3e
000000c0: d5c8 8540 045b 6f40 a12f 24c0 03a1 3abf
000000d0: 150e 863e fb45 3240 dbed 8ec0 3dab aebf
000000e0: 6bd1 a4bf eb2b 96bd b8e6 8a3f 92f4 e93f
000000f0: 6003 07c0 60f6 36be 28f5 ca3f 36aa 8d40
00000100: 1940 2dc0 f075 90c0 ff79 5e40 72ed d9c0
00000110: 293d ae40 6bb3 7140 8a6b 65c0 0b63 d63e
00000120: 08d0 933f d479 7b3f cb2c 7e3f 29d5 563e
00000130: 97f9 2bbf c997 a940 b291 9f40 76d5 89bf
00000140: ed7a ac3f 7301 2340 df2b 1dc0 669b a7c0
00000150: f58c 833c 9d39 0440 19c4 22c0 3854 e9bf
00000160: 470a 3e3c d661 cf3e 63b6 06c0 4bda acbf
00000170: f272 1240 a9d0 9a3c 9c0c 5ebf 069b 093e
00000180: 4a5e dc3f 62f1 58c0 efa1 1abe 3a7a c93f
00000190: f445 80be eda0 14c0 270d 0dbe a4ce d93f
000001a0: c4aa cd40 7181 a63e 7519 d9bf 6c89 413f
000001b0: 8513 3dbf 5e1e a93e 9456 e53f 0830 20bf
000001c0: 9772 043e d01e fd3f 1fd4 6c40 3d04 f8bf
000001d0: 6434 c53f dcfd 9440 793e 1840 c189 7a3f
000001e0: e9fc 1fc0 9348 5c40 c79f 2bc0 ddce cfbf
000001f0: 93e3 d63d 62da fbbe e3fe 91bf 2826 b1bf
00000200: 72a6 b7bf 33b7 ebbf 25c6 d83f f5a1 c3c0
00000210: c2e2 353f eb92 0c40 29a1 d2bf 2a48 32c0
00000220: f696 25c1 77dd ff3f ca43 d43e a441 1ac0
00000230: 0905 ad3e 7a63 12bf 02ba f13f 7464 e63f
00000240: 354c b740 2173 06c0 d8d8 833f 3068 683f
00000250: cc56 f1bf d649 bdbf a815 1ac0 f0b0 c240
00000260: 245b 3640 6339 d8be e50a 29c0 ec8d 06bf
00000270: 1a32 a63f 5919 6e3d 552b b23f f57c c940
00000280: 5af9 2140 c681 4dbf 6bab 58bf 15e0 92c0
00000290: 122e 8abe 94b2 af3e fdbc 323f d154 8f40
000002a0: e454 52be b96e c6bf 2081 c8bf db47 983f
000002b0: c2b8 febf addb 803f 8957 23bf 9ffd 7bc0
000002c0: c77c 8f3f 4065 993d 2d15 8d3f d354 ae3f
000002d0: 2372 093f fb9d 3cc0 3891 1640 61fc 54bf
000002e0: f410 cbbf 39a2 9140 b1ac 3640 381a 7bbf
000002f0: be8f 963f 252b 12c0 e86a 6bc0 619c 7c40
00000300: 5a60 b2bf 5c96 8dc0 a508 bcbf cf34 1bbe
00000310: f903 02c0 af0e b9bf 5635 a33f 01f2 69c0
00000320: 3069 0fc0 528d fdbf af37 3540 8447 35bf
00000330: b7b0 03c0 a16a e8be a489 073f e4af 3940
00000340: 1feb 58c0 8e4e f6bf 6c20 a83e eb71 e6be
00000350: 2d3f 48c1 af68 fcc0 9532 3a40 f228 66bf
00000360: d3fc 68bf 4265 1a40 837d 7c3f dfbd 44bf
00000370: f2d3 6f3e 393d 6a40 b212 ecbf 4685 68c0
00000380: 5f70 e63f 45bf a740 f3e7 9640 b487 973e
00000390: b805 f83f e537 2ac0 fce1 1b3e 9c4a f7c0
000003a0: fccc f7be 2cc9 893d e920 d0c0 2f48 f73f
000003b0: 1b3a 0cbf 2a3c df3f 57eb cfc0 15fe 8ec0
000003c0: e108 55bf b2f8 173f 327d 3cc0 9234 d3bf
000003d0: 866b f3be 2958 5440 0e28 02c0 1736 a7bf
000003e0: 0946 8ec0 b9a4 e03e 63b3 d53f 5f39 4dbf
000003f0: 4489 e6c0 e68f 22c0 3591 5ebf ab32 cbbf

bns1.running_var f4 [400]
44.531372 4.344295 5.5530777 43.792564 77.036545 12.217334 19.571245 30.47234
15.532164 47.853977 6.8270407 14.447415 17.975206 8.363446 17.999489 5.7600284
4.0633574 13.761198 11.232612 9.439143 8.891939 19.538464 16.17019 13.593939
5.308455 18.022572 13.221777 9.455969 19.822243 82.36421 20.175556 8.728548
44.50804 19.680891 20.066875 9.143548 12.930352 14.573182 1.6844803 17.725105
49.271046 16.021431 28.742579 9.148417 11.671001 23.065006 21.1605 12.225728
17.454998 27.089119 41.744045 15.066778 34.52713 47.097725 2.9914172 23.131668
12.017145 20.614681 17.972353 25.864925 28.431002 7.7473607 7.065706 36.5797
10.363375 13.582737 30.16468 10.483911 19.385899 19.391035 14.924214 12.395887
18.204168 8.745884 2.9254673 27.124048 13.27335 16.227083 10.537358 9.6346035
4.6395936 15.34215 16.336426 44.376038 10.694921 22.08939 1.2201071 25.221638
22.43277 11.839767 16.545992 52.58691 22.882103 4.2411017 7.101495 32.24628
21.272804 22.216196 7.174855 34.828037 11.235168 15.278403 16.358103 7.2978134
13.254638 34.88624 18.291794 42.705357 28.846556 94.904724 10.9154825 44.66174
18.569374 31.621418 8.417471 71.45076 10.163564 26.014675 5.7449045 41.401512
28.843443 38.22377 19.019537 34.26015 2.3347878 78.247696 27.878712 21.984629
16.781733 44.507168 24.68049 23.950315 12.287319 29.310968 33.906174 23.393559
8.61989 44.20572 22.98252 7.1630793 51.55886 41.486248 22.9775 13.618627
71.799416 55.882378 21.533384 11.445345 15.116601 10.999731 19.051315 13.487339
39.174324 8.999288 11.774374 49.230038 25.218105 21.380507 22.586359 37.751045
14.376614 10.762233 37.916653 31.249876 9.788676 24.009428 71.39992 8.731651
8.610623 6.5789657 23.132412 15.464311 29.765392 20.386616 8.448629 8.200547
152.30475 29.765402 4.2036586 9.484226 12.022641 19.412128 82.08801 8.632485
5.7122912 33.873432 4.84459 3.4981837 9.904417 17.325027 16.661148 14.0718565
2.7952058 33.42429 35.672764 49.837395 3.8137481 14.651207 37.556503 4.839646
14.390326 15.030699 28.895575 5.415213 8.522344 32.462204 132.30835 9.435457
19.762417 24.662928 31.877438 12.456635 13.296536 14.062896 8.962839 42.90317
18.651735 7.5420794 2.3615963 8.999688 27.223183 45.418293 55.821217 38.046947
24.21378 8.115787 30.40129 17.368631 36.323215 2.53437 49.67175 11.018055
1.6316323 19.03417 11.678436 15.7857895 3.5785532 11.195177 10.726521 29.198597
20.175432 8.224058 42.38415 9.252211 4.241405 18.47638 7.525443 16.427061
28.97273 16.580992 42.813477 1.6512811 10.808426 14.333462 50.83218 6.523992
00000000: 2020 3242 7704 8b40 d0b2 b140 962b 2f42
00000010: b612 9a42 337a 4341 e991 9c41 5ac7 f341
00000020: be83 7841 796a 3f42 1e77 da40 9d28 6741
00000030: 39cd 8f41 add0 0541 f4fe 8f41 2752 b840
00000040: 0607 8240 de2d 5c41 c7b8 3341 bb06 1741
00000050: 6245 0e41 c64e 9c41 8d5c 8141 c680 5941
00000060: ddde a940 3a2e 9041 668c 5341 a64b 1741
00000070: f493 9e41 7aba a442 8a67 a141 22a8 0b41
00000080: 3c08 3242 7772 9d41 f688 a041 f94b 1241
00000090: b9e2 4e41 c12b 6941 0d9d d73f 04cd 8d41
000000a0: 8d15 4542 e42b 8041 cdf0 e541 eb5f 1241
000000b0: 6cbc 3a41 2285 b841 b448 a941 959c 4341
000000c0: d6a3 8b41 84b6 d841 e7f9 2642 8611 7141
000000d0: c81b 0a42 1264 3c42 6173 3f40 a80d b941
000000e0: 3a46 4041 deea a441 61c7 8f41 5eeb ce41
000000f0: b172 e341 61ea f740 431a e240 9d51 1242
00000100: 62d0 2541 e452 5941 4451 f141 19be 2741
00000110: 5216 9b41 d720 9b41 95c9 6e41 8e55 4641
00000120: 23a2 9141 24ef 0b41 db3a 3b40 0dfe d841
00000130: a45f 5441 11d1 8141 0599 2841 5627 1a41
00000140: 8d77 9440 7279 7541 00b1 8241 1081 3142
00000150: 651e 2b41 12b7 b041 782c 9c3f eac5 c941
00000160: 5076 b341 b06f 3d41 315e 8441 ff58 5242
00000170: 8c0e b741 1bb7 8740 723f e340 31fc 0042
00000180: b42e aa41 c5ba b141 6a98 e540 e94f 0b42
00000190: 40c3 3341 5774 7441 65dd 8241 b087 e940
000001a0: ff12 5441 828b 0b42 9855 9241 49d2 2a42
000001b0: bfc5 e641 38cf bd42 d1a5 2e41 9fa5 3242
000001c0: 148e 9441 aaf8 fc41 f6ad 0641 cae6 8e42
000001d0: f59d 2241 0e1e d041 42d6 b740 269b 2542
000001e0: 5fbf e641 24e5 1842 0328 9841 650a 0942
000001f0: 2a6d 1540 d27e 9c42 9a07 df41 85e0 af41
00000200: fd40 8641 5707 3242 a571 c541 3f9a bf41
00000210: dc98 4441 dd7c ea41 ec9f 0742 0226 bb41
00000220: 12eb 0941 a8d2 3042 33dc b741 f237 e540
00000230: 463c 4e42 ebf1 2542 ecd1 b741 e5e5 5941
00000240: 4d99 8f42 8e87 5f42 5f44 ac41 2220 3741
00000250: 99dd 7141 e6fe 2f41 1869 9841 24cc 5741
00000260: 82b2 1c42 15fd 0f41 d663 3c41 8feb 4442
00000270: aebe c941 470b ab41 ddb0 b441 1201 1742
00000280: 9c06 6641 1b32 2c41 a7aa 1742 bfff f941
00000290: 6b9e 1c41 4f13 c041 c2cc 8e42 d8b4 0b41
000002a0: 1dc5 0941 e386 d240 2e0f b941 d16d 7741
000002b0: 861f ee41 ca17 a341 962d 0741 7135 0341
000002c0: 044e 1843 8b1f ee41 5f84 8640 64bf 1741
000002d0: bd5c 4041 0a4c 9b41 102d a442 a91e 0a41
000002e0: 17cb b640 657e 0742 e206 9b40 3ee2 5f40
000002f0: 7e78 1e41 a899 8a41 084a 8541 5326 6141
00000300: a7e4 3240 79b2 0542 e9b0 0e42 7e59 4742
00000310: 7314 7440 586b 6a41 dc39 1642 61de 9a40
00000320: c63e 6641 be7d 7041 232a e741 6d49 ad40
00000330: 855b 0841 4cd9 0142 f04e 0443 a2f7 1641
00000340: 6e19 9e41 ad4d c541 fe04 ff41 614e 4741
00000350: 9dbe 5441 9f01 6141 ca67 0f41 d99c 2b42
00000360: c136 9541 b758 f140 6524 1740 b9fe 0f41
00000370: 14c9 d941 55ac 3542 ed48 5f42 1330 1842
00000380: d2b5 c141 43da 0141 d835 f341 f5f2 8a41
00000390: f94a 1142 1e33 2240 dfaf 4642 f449 3041
000003a0: 54d9 d03f fb45 9841 e0da 3a41 9892 7c41
000003b0: 0407 6540 721f 3341 d49f 2b41 ba96 e941
000003c0: 4967 a141 be95 0341 5f89 2942 0e09 1441
000003d0: 97b9 8740 a0cf 9341 6ed0 f040 9f6a 8341
000003e0: 27c8 e741 dfa5 8441 0041 2b42 2e5d d33f
000003f0: 50ef 2c41 dc55 6541 2754 4b42 8bc4 d040

fc2.weight f4 [300, 404]
0.10308861 -0.1316009 -0.09345314 -0.36618757 -0.08952947 0.10828127 -0.013811986 -0.27678773
-0.24312156 -0.028204693 -0.38190767 -0.34580246 -0.1669739 -0.09522975 0.019626455 -0.22139852
0.04203147 0.036161292 -0.3825047 -0.1838708 -0.11288481 -0.040596947 -0.11628474 -0.18314683
-0.23306529 -0.029185696 -0.24932571 -0.30311528 0.1376991 -0.24302565 -0.10696472 -0.17509696
-0.15779173 0.13185088 -0.20080777 -0.21237108 -0.040489275 0.04347592 -0.28524622 0.25026375
-0.34374267 -0.10374236 -0.37326425 -0.14914383 -0.49299157 -0.35085836 -0.3044931 0.13741432
-0.053920664 -0.047522254 -0.043798413 -0.21123846 0.07745251 -0.020190902 0.26233453 -0.12381019
0.08026066 0.22351566 -0.042544898 -0.047185402 -0.046867225 -0.24671352 0.36664775 -0.0013814326
0.0039219493 0.07343671 -0.19113944 0.25889364 0.4529488 -0.22198163 -0.094893165 -0.21496397
-0.0556432 -0.20949528 -0.14091215 -0.022523938 -0.114341155 -0.13358858 -0.23990133 -0.15694375
0.13904846 0.12600063 0.04846726 -0.39922547 -0.2752905 0.07296334 -0.107007965 -0.1114792
0.016930087 -0.23539823 -0.06706881 0.0460826 -0.13558619 -0.15256296 -0.14253514 0.08230879
-0.17136863 -0.046925474 -0.074287005 -0.19096817 0.18021764 0.055514265 -0.022894787 0.08461259
-0.05398678 -0.23565023 -0.28532726 -0.12750447 -0.03220984 -0.1345572 0.16541982 0.02623243
-0.17670862 0.066545635 -0.22047772 0.09106247 -0.007856022 0.1276803 0.13878429 -0.18442705
0.076997876 -0.15847875 -0.0682386 -0.3496417 -0.05004188 -0.0733404 -0.3251701 -0.105877206
0.15842876 -0.15595676 0.0015123949 -0.11205292 0.044508003 0.0009338202 0.06321542 0.20516565
-0.12744154 -0.22511205 -0.4677491 -0.0075689666 -0.2467365 0.18562905 -0.009721184 -0.0056379107
0.19164869 0.41407454 -0.048093826 -0.13307497 0.081390254 -0.22354028 0.06904017 -0.18028913
-0.28455687 -0.10543126 0.027643014 -0.14456132 0.13920656 -0.028505554 -0.49698964 0.22482052
-0.56904656 0.21334834 -0.24144486 0.20864458 -0.021800235 -0.16338764 -0.14448054 0.09999709
-0.093032636 -0.00850393 0.2061979 -0.16535251 -0.13234514 -0.15270749 -0.044648234 -0.035981566
0.028072963 -0.0836306 -0.10205268 -0.09442521 0.0012734425 0.38107085 0.037880924 -0.0034295504
-0.1715556 -0.14026332 0.12389168 -0.21775614 0.024302129 0.19066823 0.010877938 0.17018577
-0.25172228 -0.053117745 -0.050748758 -0.354521 -0.084974125 0.20493275 -0.07014868 0.013419728
-0.16079369 -0.5948236 -0.21560316 -0.047852427 -0.04677815 0.023136172 -0.1767548 0.05052338
-0.09172308 -0.10671568 -0.21043813 -0.29292226 -0.060463183 -0.3138931 0.26074457 0.098104715
-0.022288166 0.23274383 -0.2804695 -0.123533025 0.068154 -0.33955863 -0.4022032 -0.16043667
0.050824646 -0.26641792 -0.0024402342 0.18951067 -0.058766577 -0.10079392 0.108255535 0.08670104
0.13527788 0.032646336 0.06790726 -0.110232465 0.007497546 -0.75656253 -0.018818377 -0.075747654
-0.15222178 -0.0010489244 -0.19403039 0.19338472 -0.10004972 -0.13122354 -0.6803109 -0.15355766
0.11146922 0.048237517 -0.08054347 -0.1600634 -0.20291643 0.035503197 0.029647743 -0.3510013
00000000: 1f20 d33d 63c2 06be 5c64 bfbd f07c bbbe
00000010: 3a5b b7bd 92c2 dd3d ab4b 62bc 1fb7 8dbe
00000020: dcf4 78be 870d e7bc 6789 c3be 050d b1be
00000030: 35fb 2abe d107 c3bd a9c7 a03c 4bb6 62be
00000040: 3129 2c3d dd1d 143d a8d7 c3be a148 3cbe
00000050: 2730 e7bd fc48 26bd b226 eebd d88a 3bbe
00000060: aba8 6ebe d716 efbc 3d4f 7fbe ed31 9bbe
00000070: fe00 0d3e b7db 78be 5210 dbbd 9e4c 33be
00000080: 2894 21be eb03 073e 8da0 4dbe ce77 59be
00000090: 15d8 25bd ce13 323d cb0b 92be 9222 803e
000000a0: 0aff afbe e076 d4bd 7e1c bfbe 29b9 18be
000000b0: 6469 fcbe b5a3 b3be 85e6 9bbe 57b6 0c3e
000000c0: eadb 5cbd b2a6 42bd f765 33bd e54e 58be
000000d0: 6c9f 9e3d 6467 a5bc b650 863e 3290 fdbd
000000e0: b35f a43d 4ae1 643e 8f43 2ebd 7b45 41bd
000000f0: d9f7 3fbd 78a2 7cbe 41b9 bb3e 3011 b5ba
00000100: b283 803b fc65 963d 0fba 43be b58d 843e
00000110: e8e8 e73e 274f 63be 5957 c2bd 841f 5cbe
00000120: 20ea 63bd ee85 56be 464b 10be 1f84 b8bc
00000130: b22b eabd 72cb 08be b2a8 75be ddb5 20be
00000140: b862 0e3e 4f06 013e 9b85 463d 4867 ccbe
00000150: e0f2 8cbe ce6d 953d fe26 dbbd 354f e4bd
00000160: f7b0 8a3c 3c0c 71be 5f5b 89bd 1cc1 3c3d
00000170: 1bd7 0abe 7739 1cbe bbf4 11be 8391 a83d
00000180: 427b 2fbe ed34 40bd c923 98bd 298d 43be
00000190: f98a 383e ed62 633d d98d bbbc 5e49 ad3d
000001a0: 3e21 5dbd 4b4e 71be 6a16 92be 8890 02be
000001b0: 77ee 03bd 5dc9 09be d063 293e 65e5 d63c
000001c0: 1bf3 34be 1449 883d e9c4 61be f67e ba3d
000001d0: 8bb6 00bc a0be 023e 781d 0e3e 72da 3cbe
000001e0: 10b1 9d3d 4148 22be aec0 8bbd 3d04 b3be
000001f0: b7f8 4cbd 7e33 96bd b27c a6be 26d6 d8bd
00000200: 263b 223e 21b3 1fbe 8d3b c63a 007c e5bd
00000210: 064e 363d 9dcb 743a 1677 813d f216 523e
00000220: 0980 02be c683 66be cf7c efbe 1805 f8bb
00000230: 7ea8 7cbe 8b15 3e3e 9a45 1fbc 39be b8bb
00000240: 8e3f 443e 9401 d43e 08fe 44bd ce44 08be
00000250: efaf a63d bee7 64be ef64 8d3d b79d 38be
00000260: 70b1 91be 58ec d7bd 9a73 e23c e207 14be
00000270: 2a8c 0e3e 7b84 e9bc 6d75 febe 5a37 663e
00000280: 09ad 11bf fd77 5a3e 523d 77be eda6 553e
00000290: 6896 b2bc 174f 27be b5f2 13be 46cb cc3d
000002a0: e587 bebd 1154 0bbc 8b25 533e 2b52 29be
000002b0: 7c85 07be 5a5f 1cbe 11e1 36bd 6861 13bd
000002c0: 45f9 e53c 8546 abbd ff00 d1bd 0162 c1bd
000002d0: a4e9 a63a b81b c33e 0729 1b3d 4fc2 60bb
000002e0: 45ac 2fbe 30a1 0fbe ecba fd3d 77fb 5ebe
000002f0: 4215 c73c 883e 433e 6139 323c 2e45 2e3e
00000300: bee1 80be fe91 59bd eedd 4fbd c783 b5be
00000310: ea06 aebd e4d9 513e 1caa 8fbd 6bde 5b3c
00000320: 1aa7 24be 5c46 18bf 13c7 5cbe e800 44bd
00000330: 729a 3fbd 1288 bd3c 36ff 34be 9bf1 4e3d
00000340: 4fd9 bbbd c08d dabd 187d 57be e8f9 95be
00000350: 3ea8 77bd 99b6 a0be 5080 853e 20eb c83d
00000360: ac95 b6bc 6654 6e3e b399 8fbe e2fe fcbd
00000370: 5394 8b3d a1da adbe 94ed cdbe 8349 24be
00000380: 812d 503d ee67 88be 56ec 1fbb 160f 423e
00000390: 39b5 70bd 0b6d cebd 14b5 dd3d 5190 b13d
000003a0: 4986 0a3e 2ab8 053d f612 8b3d 8fc1 e1bd
000003b0: f9ad f53b 15ae 41bf ff28 9abc 9621 9bbd
000003c0: 07e0 1bbe 107c 89ba e7af 46be a506 463e
000003d0: dee6 ccbd 775f 06be db28 2ebf 383e 1dbe
000003e0: f949 e43d b494 453d faf3 a4bd a9e7 23be
000003f0: 53c9 4fbe cd6b 113d d3df f23c 71b6 b3be

fc2.bias f4 [300]
-0.29784724 -0.00058759993 -0.10535259 0.8173975 -0.03579128 -0.06429225 -0.025479011 -0.10086637
-0.03706748 0.8474974 -0.010552881 -0.015489261 -0.054918345 1.3338414 -0.069950856 -0.056846265
-0.061690286 -0.10671141 -0.11025439 -0.041248504 -0.008544943 -0.045651916 -0.030156404 -0.089927636
-0.04029855 0.3513304 -0.08306775 0.91859967 -0.06692898 -0.025192287 -0.053510156 -0.091063716
-0.068129994 -0.0792836 -0.057930164 -0.120956324 -0.017977836 -0.070980825 -0.08069612 -0.03318718
-0.078318715 -0.092926025 -0.030370908 -0.07242603 -0.12136 -0.083941646 -0.12953654 -0.033866562
-0.030626182 -0.095730685 -0.013573077 -0.0773697 1.4083639 -0.0697514 -0.063962445 -0.03924746
-0.013265121 -0.10884485 -0.08633484 -0.02443478 -0.05322399 -0.01258134 -0.051929623 -0.032421917
1.1172438 -0.017849555 -0.020034892 -0.09495663 -0.061233133 -0.09063806 0.7360181 -0.081213
-0.07615636 -0.035803996 -0.06489641 -0.08893731 -0.06609223 -0.08724027 -0.08423485 -0.021703662
-0.0069434466 0.021243893 -0.06447456 -0.017773896 -0.11705995 -0.098001264 -0.104430266 -0.03206257
-0.01876621 -0.06863975 -0.04105091 -0.067019686 -0.06193491 -0.061133776 -0.0342163 -0.09288331
-0.010728376 -0.07628941 -0.10095416 0.3765351 -0.060169183 -0.06895017 -0.04707533 -0.06490874
-0.05735762 -0.12482911 -0.02056991 -0.068591915 -0.035959806 -0.05534582 -0.019003274 -0.023295553
-0.081715316 -0.066727065 -0.036299568 -0.09125337 -0.096660495 -0.02094055 -0.04237814 -0.054231994
-0.08667185 -0.015235654 -0.17078222 -0.022940475 -0.051648073 -0.030736312 -0.09027979 -0.048049156
-0.022252928 -0.07606939 0.90591735 -0.09827662 -0.037295584 -0.06150735 -0.0675074 -0.11653954
-0.10029495 -0.04118504 -0.07364012 -0.05211177 -0.029850036 -0.04729163 -0.11430725 -0.12723196
-0.01596828 -0.10527883 -0.036883146 -0.03674448 -0.07963773 -0.10121477 -0.10115116 -0.04528185
-0.04025067 -0.0675973 -0.06765191 -0.073393874 -0.05790692 -0.02608806 -0.11314207 -0.047074854
-0.1071338 0.66190517 -0.04974432 -0.069320515 -0.09363192 -0.031597137 -0.078042276 -0.044969343
-0.111553654 -0.0697488 -0.078942694 -0.047325533 0.010454204 -0.13794509 -0.09465906 -0.099532455
-0.10198471 -0.014506323 -0.066191345 -0.06218707 -0.110327 -0.083534926 -0.057117898 -0.07931662
-0.3274365 0.0053522894 0.013720757 -0.080582395 -0.055963304 -0.2245228 0.016819162 -0.07181273
-0.028237214 -0.036966793 -0.08017805 -0.013949152 -0.038344137 -0.07975964 -0.09048535 -0.040053423
-0.037837017 0.08355892 -0.03483885 -0.024466224 -0.04937394 -0.059633743 -0.024412166 -0.029554212
-0.051330768 -0.069660835 -0.114586905 -0.048545774 0.027208142 -0.042857964 -0.09173215 -0.093978524
-0.09635704 -0.07403641 -0.054335184 -0.055096447 -0.061597884 -0.10650914 -0.4653292 -0.0823972
-0.06490618 -0.03202086 -0.036560763 -0.0648716 -0.08955875 0.026274206 -0.06329803 -0.04556849
-0.030878449 -0.0398029 -0.045488954 -0.10040865 -0.08816346 -0.022257397 -0.07323771 -0.09557369
0.2658156 -0.039862443 -0.004952116 -0.040899463 -0.06096665 -0.092401765 -0.072856314 0.870352
-0.048187073 -0.04353353 -0.08378576 0.0827046 -0.034682337 -0.03892884 -0.072397985 -0.038704053
00000000: 6f7f 98be 2a09 1aba 19c3 d7bd f640 513f
00000010: e199 12bd a8ab 83bd 5cb9 d0bc 0793 cebd
00000020: 12d4 17bd 97f5 583f fee5 2cbc abc6 7dbc
00000030: 0ff2 60bd 51bb aa3f 6542 8fbd a1d7 68bd
00000040: f4ae 7cbd 838b dabd 0ecd e1bd 31f4 28bd
00000050: 1700 0cbc 81fd 3abd 900a f7bc fb2b b8bd
00000060: 1810 25bd 94e1 b33e 6d1f aabd 5929 6b3f
00000070: 1012 89bd 0e60 cebc 772d 5bbd 9d7f babd
00000080: bd87 8bbd 715f a2bd 2e48 6dbd f3b7 f7bd
00000090: 4146 93bc 655e 91bd 0244 a5bd 48ef 07bd
000000a0: 9065 a0bd 0050 bebd 69cc f8bc 1954 94bd
000000b0: 978b f8bd 99e9 abbd 3aa5 04be aab7 0abd
000000c0: c2e3 fabc 730e c4bd 9c61 5ebc 0174 9ebd
000000d0: 4545 b43f d2d9 8ebd befe 82bd f2c1 20bd
000000e0: f355 59bc 0cea debd 52d0 b0bd 732b c8bc
000000f0: 6601 5abd f721 4ebc 28b4 54bd d8cc 04bd
00000100: d801 8f3f 3b39 92bc 3720 a4bc 9f78 c2bd
00000110: 98cf 7abd 72a0 b9bd af6b 3c3f 0053 a6bd
00000120: def7 9bbd 36a7 12bd 69e8 84bd c424 b6bd
00000130: 5d5b 87bd 07ab b2bd 5283 acbd e1cb b1bc
00000140: da85 e3bb ac07 ae3c 3d0b 84bd 909a 91bc
00000150: 21bd efbd e3b4 c8bd 89df d5bd 0b54 03bd
00000160: 98bb 99bc ff92 8cbd 0025 28bd 9e41 89bd
00000170: 76af 7dbd 6967 7abd 6426 0cbd 9b39 bebd
00000180: 12c6 2fbc 9f3d 9cbd 0ec1 cebd 35c9 c03e
00000190: f673 76bd bf35 8dbd 10d2 40bd e0ee 84bd
000001a0: d3ef 6abd 68a6 ffbd 3a82 a8bc eb79 8cbd
000001b0: 974a 13bd 4cb2 62bd c1ac 9bbc 51d6 bebc
000001c0: 5c5a a7bd 33a8 88bd dbae 14bd 0ce3 babd
000001d0: f0f5 c5bd 848b abbc b394 2dbd 5e22 5ebd
000001e0: 0381 b1bd f79e 79bc 89e1 2ebe aaed bbbc
000001f0: ee8c 53bd b8ca fbbc 9ce4 b8bd 31cf 44bd
00000200: c64b b6bc 45ca 9bbd 33ea 673f 4145 c9bd
00000210: 41c3 18bd 22ef 7bbd 5241 8abd 48ac eebd
00000220: 7067 cdbd a5b1 28bd a2d0 96bd 2773 55bd
00000230: 1088 f4bc deb4 41bd eb19 eabd 1849 02be
00000240: e9cf 82bc 6d9c d7bd c812 17bd 6181 16bd
00000250: 1b19 a3bd b049 cfbd 5728 cfbd 7679 39bd
00000260: e3dd 24bd 7470 8abd 168d 8abd 874f 96bd
00000270: ce2f 6dbd a1b6 d5bc 08b7 e7bd 90d1 40bd
00000280: f768 dbbd 9e72 293f b3c0 4bbd eaf7 8dbd
00000290: 18c2 bfbd 006c 01bd a1d4 9fbd c631 38bd
000002a0: 3e76 e4bd 75d8 8ebd b5ac a1bd 6bd8 41bd
000002b0: 1c48 2b3c 7a41 0dbe 9cdc c1bd acd7 cbbd
000002c0: 5cdd d0bd eeab 6dbc 548f 87bd deb7 7ebd
000002d0: 1ff3 e1bd 5c14 abbd 75f4 69bd c170 a2bd
000002e0: c2a5 a7be 4262 af3b 07cd 603c 6208 a5bd
000002f0: c739 65bd 4ee9 65be 57c8 893c 8d12 93bd
00000300: bb51 e7bc 7e6a 17bd 6434 a4bd fc8a 64bc
00000310: be0e 1dbd 0659 a3bd 6250 b9bd 0f0f 24bd
00000320: fdfa 1abd f020 ab3d 2fb3 0ebd 646d c8bc
00000330: 543c 4abd 8342 74bd 06fc c7bc ad1b f2bc
00000340: 3640 52bd 57aa 8ebd 8aac eabd efd7 46bd
00000350: 9ce3 de3c d58b 2fbd 11de bbbd d077 c0bd
00000360: d756 c5bd 67a0 97bd 928e 5ebd d0ac 61bd
00000370: 104e 7cbd 7721 dabd a13f eebe ddbf a8bd
00000380: 88ed 84bd 4e28 03bd bdc0 15bd 67db 84bd
00000390: 946a b7bd 013d d73c 66a2 81bd 06a6 3abd
000003a0: cdf4 fcbc 5e08 23bd a052 3abd 0da3 cdbd
000003b0: 0b8f b4bd 2555 b6bc a7fd 95bd 24bc c3bd
000003c0: fb18 883e cd46 23bd 5c45 a2bb 3286 27bd
000003d0: 2ab8 79bd 233d bdbd b135 95bd 64cf 5e3f
000003e0: cf5f 45bd 3750 32bd de97 abbd 0861 a93d
000003f0: 110f 0ebd d973 1fbd 6545 94bd 2488 1ebd
