checkpoint_critic.pth (torch, 176850 bytes, 9 tensors)

fc1.weight f4 [256, 33]
000000 94 b7 21 be 2e ce 11 3f a0 73 11 3f a2 9d 96 3d
       -0.15792686 0.5695523 0.56817055 0.07354285
000010 88 57 02 bf 6d 3c 89 3f 65 6a 33 be 82 3b d7 be
       -0.5091481 1.0721565 -0.17521055 -0.42037588
000020 b0 a6 81 be f2 2d 38 3c 3e 63 b9 bd 03 bf 96 3b
       -0.25322485 0.011241423 -0.09052132 0.004600407
000030 ac d7 c0 be f4 7b 0c 3f 1c cf 89 bf 79 ac 6e bf
       -0.37664545 0.5487664 -1.076633 -0.9323192
000040 b6 bb b3 be f0 9f 4c be dc 73 31 3f b7 c6 31 3e
       -0.3510415 -0.19982886 0.6931741 0.1736096
000050 bb 86 c2 bd 1b aa fb bd 0c b0 9c 3d d3 7b c8 3d
       -0.09498354 -0.122883044 0.07650766 0.097892426
000060 3f ea 4e be f0 1a 28 be 5a 93 fb 3d cb 76 59 bd
       -0.20206545 -0.16416526 0.122839645 -0.053091805
000070 69 0b 07 3e 80 6a 4e bd 69 06 05 bc be 99 25 3d
       0.13187946 -0.050394535 -0.008119204 0.040429823
000080 f6 f3 b7 3e b2 41 87 3d 15 c8 be 3e 79 be 50 3e
       0.35928315 0.06604327 0.37262025 0.2038516
000090 49 0d 83 bd 53 12 a6 3d d2 29 19 3f 9d b4 07 3d
       -0.06399018 0.08108964 0.5982944 0.03313123
0000a0 d4 10 5e bd d8 98 d8 3d 82 7e 09 be 17 32 1b 3c
       -0.054215267 0.10576028 -0.13427165 0.009472392
0000b0 90 21 c8 3e 3f 7e e1 bd b9 16 01 bf 4a 21 11 40
       0.39088106 -0.11010408 -0.504253 2.2676568
0000c0 f1 65 bb be 12 e9 86 3e 39 c7 d4 bd 5d 82 19 bf
       -0.36601213 0.26349694 -0.10389561 -0.59964544
0000d0 72 ce 8a 3e a9 78 11 be 24 a1 f3 3c d2 93 d1 ba
       0.2711063 -0.14206184 0.029739924 -0.0015989488
0000e0 d6 31 ae 3d 5b bd 0a 3f 0a 89 1c bb f7 f3 97 3e
       0.08505599 0.54195184 -0.0023885393 0.29678318
0000f0 85 b3 5a bd 2c 12 35 3e 30 f6 a3 3c 15 23 21 3d
       -0.05339386 0.17682713 0.020014852 0.039340097
000100 a0 9a 9d 3b 37 35 86 be d8 91 8e bd 53 ce 33 bf
       0.0048096925 -0.26212475 -0.06961411 -0.702367
000110 a4 d0 01 be eb c8 18 3f b8 b3 48 3e c1 2b 46 be
       -0.12677246 0.59681576 0.19599807 -0.19352628
000120 d0 13 ff bd e6 c9 34 3b 2d c4 85 3c be 82 9e 3d
       -0.12454951 0.002758616 0.016328895 0.07739781
000130 6a 51 39 3d 31 7d 2c be ec e8 5b bd c3 28 ff be
       0.045243658 -0.16844632 -0.05368893 -0.49835786
000140 57 47 ad 3e 0f 34 e5 bb ed b8 52 bb 98 29 c3 3d
       0.3384349 -0.0069947313 -0.0032153681 0.09529418
000150 69 c3 87 3e ef d7 bf 3e e3 95 0f 3e 6e 70 0b 3e
       0.26516274 0.37469432 0.14022021 0.13617107
000160 46 8a 3f be 2f 9d ab 3e 7d c9 ea 3b b2 8a f1 bd
       -0.18705091 0.3351836 0.0071651326 -0.11794032
000170 f2 2e 5b 3f bb 53 25 3d d8 bb 90 bc 40 2e 51 bb
       0.8561851 0.040363055 -0.017667696 -0.0031918436
000180 8f 89 db 3c 1e 99 5e bd 4e 04 12 40 b9 45 ae 3c
       0.026798991 -0.054345243 2.2815127 0.02127348
000190 8d 79 2c bf 20 ca 95 3e ad a3 79 3f 81 33 af 3d
       -0.6737297 0.29255772 0.97515374 0.085547455
0001a0 cb bc 21 be b4 cc a7 bd b5 04 c0 be 9c cb 0b 3e
       -0.15794675 -0.08193341 -0.3750359 0.1365189
0001b0 fa 27 51 3d 06 61 ad be 88 24 ca bd 93 83 21 3d
       0.051063515 -0.33863086 -0.09870249 0.03943212
0001c0 ea fa cc be 4d ad bd 3e 5d 1c 2f 3f d8 e7 f1 3e
       -0.40035182 0.3704628 0.68402654 0.47247195
0001d0 a2 6b ab be 80 24 e3 bd f5 ff 97 be 44 2c 8b bb
       -0.33480555 -0.11090946 -0.29687467 -0.0042472202
0001e0 2c ce 49 3e 66 82 ca 3e bc 48 0f be 62 a4 4e 3b
       0.19707555 0.3955261 -0.1399259 0.0031531085
0001f0 30 67 fe 3d 43 8f f1 3e d9 00 54 3d ab b6 34 be
       0.12422025 0.47179613 0.05175862 -0.17647807
000200 b8 a0 ca bc e1 63 51 3d 80 c6 33 bc 11 60 0a 40
       -0.02473484 0.051120643 -0.010972619 2.1621134
000210 ca 2d 27 3e 45 c1 ae 3e 07 39 66 3e 28 47 a3 be
       0.16326061 0.34131828 0.22482692 -0.31890225
000220 e4 9f 9e be ed f7 ce be f6 bb 0c 3f 82 3e 08 bf
       -0.30981362 -0.40423527 0.54974306 -0.5322038
000230 42 b7 4b be 15 d4 7f be d1 21 45 bd ab a4 e5 be
       -0.19894126 -0.24983247 -0.048127953 -0.44852194
000240 be 94 89 bc ab 3c 92 be 5b 99 7b 3e 2b a6 b5 3e
       -0.016794559 -0.2856191 0.24570219 0.3547834
000250 39 e2 b9 be 73 d6 11 3f e6 85 e2 3d 70 9f b9 3e
       -0.36305407 0.5696785 0.11060695 0.36254454
000260 e4 ca cc be 52 77 0c be 04 c4 bc bc 34 ff c1 bc
       -0.39998543 -0.13717392 -0.023042686 -0.02368126
000270 06 0a f2 be 1d 45 71 bd 92 0c 22 3f 82 10 f4 3c
       -0.47273272 -0.058903802 0.6330043 0.029793028
000280 d8 61 0c 3f 58 d9 92 3c de dc 18 bd 94 a1 88 3c
       0.548368 0.017925903 -0.03732001 0.016678609
000290 57 7f e0 3f f7 79 54 bf ef 9e 90 3e 7c 55 36 3e
       1.7538861 -0.82998604 0.28246257 0.17806047
0002a0 c1 3f 8a bd 3f cc a6 be ca 2b e3 bd fd a6 e4 3d
       -0.06750441 -0.32577702 -0.110923365 0.11164663
0002b0 67 f0 ad 3e 06 de e3 3e 34 e9 bf be cf 96 32 3c
       0.33972475 0.44505328 -0.37482607 0.010900213
0002c0 92 75 41 3b e4 0a e7 39 47 ba 51 3f 27 11 49 be
       0.002951954 0.00044067868 0.8192486 -0.1963545
0002d0 eb be e2 be f1 6d 1a bf c0 86 80 3c 23 36 08 be
       -0.44286284 -0.6032401 0.015689254 -0.13301902
0002e0 0c 40 07 be 60 11 2a bb d3 ce 0d 3d 94 60 62 3e
       -0.13208026 -0.0025950298 0.03462107 0.22107154
0002f0 4a 4b 2e 3e d1 55 1f 3d 7a 18 81 be a9 8c 19 bf
       0.17020908 0.0389002 -0.25213987 -0.59980255
000300 e9 8c 91 3c 24 89 25 3d a4 1a 44 3d 0f 4b 61 bc
       0.017767387 0.04041399 0.04787697 -0.0137508055
000310 c8 80 19 3c 78 3b a8 3f 85 d1 f0 3d ce 52 d5 3e
       0.009369083 1.3143148 0.11758713 0.41664737
000320 a9 f9 df be 4d 59 10 be 8f e8 eb 3e c4 c2 b5 bc
       -0.43745163 -0.14096566 0.46075866 -0.022187598
000330 af 79 05 be 82 6d 91 3e 79 19 8a 3d 94 d0 15 3e
       -0.130347 0.2840386 0.0674314 0.14630347
000340 d2 5f 84 3d 6c 0b 09 3f 96 f4 15 be e0 c5 a1 3f
       0.06463589 0.53533053 -0.14644083 1.2638512
000350 45 4e 44 3e 70 da 96 be 83 c8 33 be d9 7a 12 be
       0.19170482 -0.2946353 -0.17556958 -0.14304675
000360 e6 ee 92 be dd 34 1e 3d d3 a8 db bd ce 82 9e 3e
       -0.2869789 0.038624633 -0.1072556 0.3095917
000370 e2 74 82 3e 2c d3 96 3e f3 81 a2 3e 33 5a 46 bc
       0.254798 0.29457986 0.31739768 -0.012106466
000380 73 f5 e2 3d 2a dc 03 3d f9 16 41 3e 64 81 43 bd
       0.11081972 0.032192387 0.1885642 -0.04773082
000390 c0 b7 6e bd 80 9d be 3a 5b bb 43 bf 0c b0 55 bf
       -0.058280706 0.0014542788 -0.76457757 -0.8347175
0003a0 01 76 5a 3e 53 87 3a 3f de c5 bf be e4 1e e3 bd
       0.21334077 0.7286274 -0.37455648 -0.11089876
0003b0 04 17 2d 3d 99 8a 77 3f a8 16 29 bf 0e 9a 07 bf
       0.042258278 0.9669586 -0.66050196 -0.52969444
0003c0 e8 3c a0 be cd bb 11 bf 3f 11 8b 3d cb d6 18 3e
       -0.31296468 -0.56927186 0.06790399 0.14925687
0003d0 d6 4e 12 be df 9a 2d 3f 19 40 ad 3d 0c f0 31 3e
       -0.14287886 0.6781444 0.08459491 0.17376727
0003e0 ec a6 9a 3d 9e 40 4f 3f c0 05 aa be 68 68 a3 bd
       0.07551369 0.80957973 -0.33207512 -0.07978898
0003f0 46 75 73 bc 35 1f d7 3e 89 91 a3 be 57 e4 f9 3d
       -0.014859503 0.42015997 -0.31946972 0.122017555

fc1.bias f4 [256]
000000 d7 50 b4 3d e8 1a 21 3e 04 92 36 bd 0b 14 15 3e
       0.088044815 0.1573292 -0.044572845 0.14558427
000010 18 22 64 bb b9 76 23 be 3f 19 26 be b3 96 a5 bd
       -0.003481036 -0.15963258 -0.16220568 -0.08085384
000020 d7 3c 7c ba 0a 53 11 3e 32 4a 98 bd 96 00 d5 bc
       -0.0009622103 0.14191833 -0.07436027 -0.026001256
000030 e2 c9 f3 3d 65 d6 34 bd 94 40 9a 3d 06 d0 6d bc
       0.119037405 -0.044149775 0.075318485 -0.014514929
000040 a8 ce 8a bd 43 e4 e6 bd b4 1c 2f 3e f2 92 bf bd
       -0.06777698 -0.11274006 0.17100793 -0.093541995
000050 34 0b 93 3c 8e e4 7a 3d d0 4a 03 3d 83 7d 63 bc
       0.017949678 0.061253123 0.03205377 -0.013884905
000060 2f 47 09 bd 82 f9 95 bd 9d f3 76 3d 51 3d 4f bd
       -0.03351515 -0.073229805 0.06029092 -0.050595585
000070 d5 c7 84 3d 42 5c b7 3d d1 b0 7c 3d 3d ad a7 bd
       0.064834274 0.08953144 0.061692063 -0.081873395
000080 6f 1b f5 bd ad 45 41 bd 00 d7 63 3d 23 c4 96 3c
       -0.11968123 -0.04718559 0.05562496 0.018404072
000090 43 16 2e 3e c7 85 f1 3d dc 39 a5 bd 06 de ff 3d
       0.1700068 0.11793094 -0.080676764 0.124935195
0000a0 d0 b7 cb bd 08 8d 6e bd 03 4a 04 3e e1 eb 02 be
       -0.09947169 -0.058239967 0.12918858 -0.12785293
0000b0 52 fe 42 bd 1f 94 12 be 83 cc a5 3d b2 07 ff 3d
       -0.04760582 -0.14314316 0.08095648 0.1245264
0000c0 4c 35 1c 3e f6 87 79 bd ac 04 04 be 17 c4 bc 3d
       0.15254706 -0.060920678 -0.12892407 0.09217089
0000d0 4b 95 e6 bd 0e 8c 75 bd f6 a4 12 be 98 0a 0b 3e
       -0.11258944 -0.05994802 -0.1432074 0.1357826
0000e0 d2 0e 8d bc b4 29 c1 3c 74 a1 24 3c 88 65 c6 3c
       -0.017218981 0.023579456 0.010048259 0.024218336
0000f0 28 e0 9b bd 08 9f 2e 3e 2a c2 21 be 0b 36 bd bc
       -0.07611114 0.17052853 -0.15796724 -0.023097059
000100 f1 89 cf bd bb 21 f2 bd 82 8a be 3d 4c e7 02 3e
       -0.10133732 -0.1182284 0.09303762 0.12783545
000110 3e 1c a9 3d 40 e9 55 3d 07 dc ed 3d b3 31 bf 3d
       0.0825734 0.052224398 0.116142325 0.09335651
000120 19 8f 50 bd 6c 95 96 bd ae 1c 53 3d f9 b0 df 3d
       -0.05091772 -0.07352719 0.051541023 0.10922427
000130 35 0f ee 3d 3d f4 2c 3a 31 e0 31 3e 78 a9 00 be
       0.11623994 0.00065976736 0.17370678 -0.12564647
000140 22 d2 94 3d ca af 18 3e ba 41 30 3c 17 87 d7 3d
       0.07266642 0.14910808 0.010757858 0.10523813
000150 3f 71 1d 3e 38 47 0a be cb dd e7 3d 1a 04 a5 3d
       0.15375231 -0.1350373 0.113216005 0.08057423
000160 42 97 bb 3d 30 c0 b2 3d 20 f4 d4 3d 03 90 64 3d
       0.091597095 0.08728063 0.10398126 0.055801403
000170 54 be c5 3d 25 76 22 be fe 84 31 be 8a cc c3 3d
       0.09655443 -0.15865381 -0.17335889 0.09560497
000180 69 57 31 3e 8f 8f 54 bd 42 06 09 3e ea fe 9b bc
       0.173185 -0.05189472 0.13381293 -0.019042451
000190 1a b3 b2 3d 53 e2 67 bc 88 5c ad 3d 5a ef 9a bd
       0.08725567 -0.014153081 0.084649146 -0.07565184
0001a0 26 99 12 be 6a 7d be 3d 14 47 96 bd 37 03 05 3e
       -0.14316234 0.093012646 -0.07337776 0.12989508
0001b0 86 1e b8 3c b6 53 91 bd 6c 7f 2b 3e 5a 62 2a 3e
       0.022475492 -0.07096045 0.16747826 0.1663908
0001c0 fe 1d b9 bd 63 a2 9e 3d d7 43 42 3d 93 ab db bd
       -0.09038924 0.077458166 0.04742798 -0.107260846
0001d0 3a ce b3 3c 07 2d 1c be 92 a1 60 3c 95 f2 1a be
       0.021948922 -0.15251552 0.013710396 -0.151316
0001e0 32 68 18 3e 1b ca b2 3d 52 04 0d 3e d4 99 0a 3d
       0.14883497 0.08729955 0.1377118 0.03383811
0001f0 73 8e 97 bd fc 0a b6 3d c3 d4 9c 3d a0 b4 c3 3d
       -0.07400217 0.08888814 0.076577686 0.09555936
000200 58 77 db bc b0 0a 33 3e 5e 55 de bd 15 f4 1e be
       -0.026790306 0.17484546 -0.10856126 -0.15522797
000210 04 b1 3e 3d 83 1f 21 3e e9 87 dc 3c f5 03 4e bd
       0.046555534 0.15734677 0.026920276 -0.050296742
000220 12 39 18 be cc 12 f0 3d 48 d4 2e be a2 40 88 bd
       -0.1486552 0.11722335 -0.17073166 -0.06652953
000230 a4 9d c4 3d 0e a6 c9 bd ec e9 e8 bd ad 88 b5 bd
       0.0960038 -0.098461255 -0.11372742 -0.088639595
000240 05 83 a9 3d a8 44 97 bd 4f 9a 1e bd b3 4c 2b bd
       0.08276943 -0.07386142 -0.03872138 -0.041821193
000250 fe 7f c0 3d 00 91 1c 3e 45 fc 05 3c 2a 67 18 38
       0.093994126 0.15289688 0.0081778215 3.6335703e-05
000260 18 5f 92 bc 40 5f aa 3d 8a f8 00 3e 6b 0d 28 3d
       -0.01786761 0.08318949 0.1259481 0.04102842
000270 c4 86 dc 3d a1 c4 5f bd 2b 20 04 bc 5d 7c 14 be
       0.10767892 -0.05463088 -0.00806431 -0.14500566
000280 13 4e 9b 3d 57 87 b7 bd 7e a1 b0 bc cc 4f 2e be
       0.07583251 -0.08961361 -0.02156138 -0.17022628
000290 e5 9d 76 3c fa 94 60 3d 04 25 d8 3d b2 7f 1e bd
       0.015052293 0.054829575 0.10553935 -0.038696
0002a0 e5 3b 03 3c da 6f 27 3e 42 cb 15 3b 75 e0 ff 3d
       0.008009885 0.16351262 0.0022856747 0.12493984
0002b0 85 a4 2e 3e 42 db 17 3e fc 6e a1 3d 78 bc e3 3d
       0.17054947 0.14829734 0.07882497 0.11119932
0002c0 91 61 23 3e a2 fd 88 bc ff a4 0e 3e 97 81 91 bd
       0.15955187 -0.016722504 0.13930129 -0.071047954
0002d0 df 67 61 bd 96 e2 9e 3d 2f 08 d7 bd 06 c6 88 bd
       -0.0550307 0.077580616 -0.10499608 -0.06678395
0002e0 d3 e5 19 3c b6 34 69 3c 98 03 10 3c 51 6f bc bc
       0.009393173 0.014233759 0.008789919 -0.023002299
0002f0 bd f7 60 3d 4c 2e 2c 3e 90 f0 6e bd 46 32 c4 3d
       0.05492376 0.16814536 -0.058334887 0.095799014
000300 5d ac 2d 3d 85 a5 e4 3d 64 61 11 3e 21 92 89 bc
       0.042400707 0.11164383 0.14197308 -0.016793313
000310 d2 4e 15 bd 2a cd 8a bd 97 50 44 bd 64 ef 96 bd
       -0.036452122 -0.06777413 -0.04792842 -0.07369879
000320 26 ed 31 bd a1 47 d0 3d 81 e0 55 3d ed 38 a8 bd
       -0.043439053 0.10169912 0.052216057 -0.08213983
000330 48 65 cd 3d 50 01 81 3c e6 50 e3 3b 3e b7 89 3d
       0.100290835 0.015747696 0.006937134 0.06724404
000340 6a 8d c7 bd 84 1d 95 bc 95 0b 08 3e 34 c9 e6 3d
       -0.097437695 -0.01820255 0.13285668 0.11268845
000350 a4 d3 c8 3d ba 0d c8 bc 02 7f 71 3c 8e 9a e8 3d
       0.09805992 -0.024420608 0.014739754 0.11357604
000360 54 65 f7 3c 4d c0 c3 3d c5 da b4 3d 4f 60 9c 3d
       0.030199684 0.09558163 0.088307895 0.07635557
000370 7f 00 a8 3d 74 da ee bd 5c 9c 1c be 88 72 30 be
       0.082032196 -0.116627604 -0.15294021 -0.1723119
000380 e1 05 0c 3e 0c 7c c6 bd 2e 5a 0c be 0e 58 b5 3c
       0.13674118 -0.09691629 -0.13706276 0.022136714
000390 af 30 09 bd fe ea 63 3d 64 a0 39 bd b0 71 0e 3e
       -0.033493694 0.055644028 -0.045318976 0.13910556
0003a0 3d 02 29 be 23 97 2f be b8 d8 1a 3e 97 8d 9a bd
       -0.1650476 -0.17147498 0.15121734 -0.07546537
0003b0 36 15 33 3d 41 77 82 3d 2c 94 db 3c 23 ca e0 bd
       0.0437214 0.06370402 0.026804052 -0.109760545
0003c0 e9 8c 9b 3c 42 cf e9 bd bf 63 16 3e e4 31 dc 3c
       0.01898809 -0.114164844 0.14686488 0.026879258
0003d0 5d 63 00 3e 34 82 f9 3d c5 a9 97 3d c6 42 7c 3d
       0.12537904 0.121830374 0.07405428 0.061587118
0003e0 0c a2 c8 3d 7d 72 e4 bd 05 22 07 3e 5c 13 16 bd
       0.09796533 -0.111546494 0.13196571 -0.036639556
0003f0 be cb 09 3e fc 0d 3d bc de 79 a5 3d 45 b3 05 3e
       0.13456628 -0.011538979 0.08079885 0.13056667

bn1.weight f4 [256]
000000 19 fb d7 3e 3b ec f5 3e 0f 58 e2 3e 4f 50 14 3f
       0.4218376 0.48031792 0.44207808 0.5793504
000010 c5 90 b9 3e 68 6f 4b 3f f2 fc b1 3e af 4f 1a 3f
       0.36243263 0.7946687 0.34763294 0.6027784
000020 3e 87 b2 3e b7 d8 1f 3f c4 e3 86 3e 5b 56 f2 3e
       0.34868807 0.62440056 0.26345646 0.4733151
000030 07 7c 7b 3e 33 75 20 3f e6 a5 44 3f 40 bb e4 3e
       0.24559031 0.6267883 0.7681564 0.4467411
000040 10 5d cc 3e d7 e5 94 3e e9 07 ac 3e 2f 5d 61 3f
       0.3991475 0.29081604 0.33599785 0.8803281
000050 0f 84 0b 3f fe d4 8b 3f 8a 68 dc 3e 58 3e b0 3e
       0.5449838 1.0924375 0.43048507 0.34422565
000060 c8 c3 6e 3e 9e 76 85 3e f3 96 d9 3e 44 4d 3a 3f
       0.23316872 0.2606706 0.42497978 0.7277415
000070 ab f3 09 3f 6e 4e fc 3e 73 fc bc 3e 2c f1 eb 3e
       0.5388743 0.49278587 0.36911353 0.46082437
000080 35 2b 17 3f 50 b2 11 3f e7 ea e1 3e 20 df e9 3e
       0.59050304 0.5691271 0.4412453 0.45678043
000090 eb 89 df 3e d2 3b 1e 3f 35 3f 5e 3f b5 41 59 3e
       0.4365991 0.6181003 0.86815196 0.21216471
0000a0 61 78 0d 3f 23 e4 14 3f 13 52 09 3f 49 4e b8 3e
       0.5526181 0.5816061 0.5364086 0.35997227
0000b0 6e 5f 7a 3f cf 41 0a 3f c8 73 13 3f 61 89 cf 3e
       0.97801864 0.54006666 0.57598543 0.405345
0000c0 98 44 25 3f 98 78 ae 3e 11 bb 80 3e fc 2a fb 3e
       0.6455779 0.3407638 0.2514272 0.49056232
0000d0 aa ef b6 3e 52 4e 38 3f d2 fc 2b 3e 1d 02 53 3e
       0.35729724 0.7199451 0.16795662 0.20606275
0000e0 b3 58 1d 3f 6f b4 8c 3e c0 86 d4 3e ba 54 79 3f
       0.6146347 0.2748141 0.41509056 0.9739491
0000f0 d2 99 23 3e f0 2a 28 3e 84 89 2f 3f fb b4 a4 3e
       0.15976647 0.1642263 0.6856921 0.32169327
000100 1e f7 11 3f 6c d4 57 3f a7 c1 cb 3e 7d fd 7b 3e
       0.57017696 0.84308505 0.39796183 0.24608417
000110 cd d0 e7 3e e9 be 54 3e c8 b6 11 3f 59 07 88 3e
       0.4527649 0.20775951 0.5691953 0.26568106
000120 4b 65 1c 3f 1e 32 ea 3e b1 55 2a 3f 41 e3 a9 3e
       0.6109206 0.4574136 0.66537005 0.33181193
000130 1a 4d c6 3e 7b a0 ba 3e 31 06 ea 3e 8f 63 4a 3f
       0.387307 0.36450562 0.4570785 0.79058164
000140 1d 33 01 3f 96 36 d3 3e d5 0b dc 3e 7e fd 10 3f
       0.5046862 0.41252583 0.42977777 0.566368
000150 cf f3 9f 3f 99 ed a2 3e d5 8f 95 3e d5 a8 dc 3e
       1.249628 0.31821898 0.29211298 0.4309756
000160 72 2b fb 3e 6d 72 be 3e c7 c7 e2 3e 96 10 cf 3f
       0.49056584 0.37196675 0.44293043 1.6176937
000170 12 ba c0 3e fb d3 d0 3d 5c 07 ce 3e b0 84 8e 3f
       0.3764196 0.10196682 0.4023999 1.1134243
000180 96 b9 8e 3c 13 82 bd 3e 8d 59 aa 3e eb 4e 80 3e
       0.017422479 0.370133 0.33271447 0.2506021
000190 6b e8 34 3e 93 d9 c3 3e 01 f6 b8 3e 27 2c 07 3f
       0.17666785 0.38251933 0.36125186 0.52801746
0001a0 13 c3 c8 3e dc d1 8f 3e ee cc b3 3e b3 5f b3 3e
       0.3921133 0.28089797 0.35117286 0.3503395
0001b0 38 8a 30 3f c8 eb e0 3e c8 8f 93 3e a1 d0 08 3f
       0.68960905 0.43929887 0.28820634 0.5344334
0001c0 b3 5b 0a 3f f3 b5 13 3f 27 d5 b2 3f 94 7d 1e 3e
       0.5404617 0.5769951 1.3971299 0.15477592
0001d0 6f 83 d2 3e 2f 6a 90 3e 75 33 0a 3f c6 d0 c4 3e
       0.411159 0.28206012 0.5398477 0.38440531
0001e0 f9 34 7e 3e 21 b8 d5 3e 6f 8d 0e 3f 0b ac 11 3f
       0.24824895 0.41742042 0.5568456 0.5690314
0001f0 1d 36 83 3e 5b 8b 24 3f 4c de f4 3e 7f 77 ff 3e
       0.25627223 0.6427514 0.4782585 0.49895856
000200 ce 96 90 3e 14 c5 56 3f ca ca 20 3f 40 e1 05 3f
       0.28240055 0.8389447 0.6280943 0.5229683
000210 2e c0 e9 3e 32 c9 b0 3e 56 f5 8a 3e 57 61 06 3f
       0.45654434 0.345285 0.271403 0.5249228
000220 2a d9 0b 3f c6 4e d8 3e 0c 86 37 3f 87 d0 1f 3f
       0.5462824 0.422476 0.71688914 0.6242756
000230 c1 77 b7 3e d9 05 60 3e af 55 a9 3f 48 f0 8a 3f
       0.35833552 0.2187723 1.3229274 1.0854578
000240 74 70 0e 3f 36 32 ab 3e 28 f1 00 3f 58 33 d7 3e
       0.5564034 0.33436745 0.50367975 0.4203136
000250 d1 fd ff 3e 9e 67 90 3e 7b f4 8f 3f 3f 46 9b 3f
       0.49998334 0.28204054 1.1246485 1.2130812
000260 1c 11 bd 3e 7e 64 1c 3f 6f eb 23 3f 2c 52 0a 3f
       0.36927116 0.6109084 0.6403112 0.54031634
000270 cd 9e e2 3e 4d 71 1b 3f 05 e3 93 3e 6c fe 77 3e
       0.4426178 0.6071976 0.2888414 0.24218148
000280 5c 92 53 3f ae e2 13 3f 27 56 25 3f ba 42 17 3f
       0.826452 0.5776776 0.64584583 0.5908619
000290 aa 02 e1 3e 8a 24 f2 3e 9b 3c 93 3e b8 b8 06 3f
       0.43947345 0.47293502 0.28757176 0.5262561
0002a0 b5 c5 60 3e df f6 02 3f af a4 0d 3f f7 4b bc 3e
       0.21950419 0.51157945 0.5532941 0.36776707
0002b0 d4 76 04 3f c2 b2 1a 3f 5d 7c e6 3e 1a 24 50 3e
       0.5174382 0.6042901 0.45016757 0.20326272
0002c0 d4 86 0e 3f 4c 27 d0 3e d8 1b 0b 3f 45 ea 38 3f
       0.5567448 0.4065498 0.5433936 0.72232467
0002d0 47 64 cb 3e 20 7d 17 3f 29 f5 0f 3f 21 0d 4f 3e
       0.39724943 0.591753 0.5623346 0.20219852
0002e0 c2 da e6 3e 57 09 a7 3e a1 47 b0 3e 66 2c 29 3f
       0.45088774 0.32624313 0.3442965 0.6608337
0002f0 71 30 cf 3e 2d 31 9a 3e 0c 92 f7 3e 6b ff e8 3e
       0.40466645 0.30115643 0.48353612 0.45507368
000300 c7 b4 19 3f 67 80 45 3f 80 9d 3a 3f c0 5e ff 3e
       0.6004147 0.7714905 0.72896576 0.49876976
000310 e2 e4 f0 3e 5e a5 1c 3f ba 61 c5 3e b7 94 2d 3f
       0.47049624 0.6118983 0.38551122 0.67805046
000320 67 29 93 3e 45 f0 31 3f 4d 81 d0 3d ae 7e 81 3e
       0.28742525 0.6950725 0.10180912 0.2529196
000330 31 62 b1 3f 26 2f f5 3d b8 78 9b 3e cc 4d fc 3e
       1.3858091 0.119718835 0.3036554 0.49278104
000340 be 77 7b 3e 84 97 e1 3e 13 1e ca 3e 90 b3 c2 3e
       0.24557397 0.4406091 0.3947607 0.3802762
000350 c5 46 cd 3e 6d 85 25 3e be 02 01 3f 6f fe d2 3e
       0.40093055 0.16164179 0.5039481 0.41209742
000360 ab 37 d3 3d c7 25 37 3f 92 48 d2 3e 9f 57 0d 3f
       0.10313352 0.7154202 0.41070992 0.55211824
000370 84 d4 c1 3e 51 c6 83 3e 99 70 13 3f 8c 86 0d 3f
       0.3785745 0.2573724 0.57593685 0.5528343
000380 13 7c 3c 3f c8 8b 0c 3f f9 f0 e6 3e 12 33 76 3e
       0.7362682 0.5490079 0.45105723 0.2404292
000390 57 2f d9 3e 9b 10 0b 3f 6f c5 bb 3e 72 a3 6d 3f
       0.4241893 0.5432221 0.36674067 0.9282752
0003a0 19 9f ef 3e 16 6f c5 3e 82 47 a1 3f 36 28 7b 3e
       0.4680107 0.38561314 1.2599947 0.24527058
0003b0 1d da 2d 3f 79 05 9f 3f 24 df 80 3f ef 55 52 3f
       0.6791094 1.2423545 1.0068097 0.82162374
0003c0 5c cb 12 3f e8 96 a1 3e 21 c2 14 3f 90 7e ed 3e
       0.5734155 0.31560445 0.5810872 0.46385622
0003d0 f7 fd fd 3e 17 55 cf 3e ef ef 81 3e ba 9e cb 3e
       0.49607822 0.40494606 0.25378367 0.39769536
0003e0 71 d2 a3 3e 68 ab 8e 3f 57 ff 2b 3f ac 47 46 3f
       0.31996492 1.1146059 0.6718649 0.7745311
0003f0 9e d5 c6 3e 66 9d 01 3f 0e 3a 0c 3f 76 b2 34 3f
       0.38834852 0.50630796 0.54776084 0.7058481

bn1.bias f4 [256]
000000 5a 4e f1 be f3 00 48 bf 0a cd 1d 3e 0d b0 3d bf
       -0.4713009 -0.7812645 0.15410247 -0.7409676
000010 be c7 40 bf 02 9e 72 bf 75 4a 75 bf 70 ef 1a bf
       -0.7530478 -0.9477235 -0.9581674 -0.605216
000020 fb a0 60 bf c3 f7 df be 7d c1 7f bf e8 04 15 bf
       -0.87745637 -0.43743715 -0.99904615 -0.5821061
000030 9c 44 c6 be 72 95 57 bf 4a 05 ee 3d 32 c1 15 bf
       -0.3872422 -0.8421241 0.116221026 -0.5849792
000040 56 f1 7f bf c6 0d 42 bf bf 5a 62 bf 8c a1 5d be
       -0.99977624 -0.75802267 -0.8841972 -0.21643656
000050 f1 78 4e bf c0 14 5d bf b7 cf d6 3e 46 fc 2b bf
       -0.8065329 -0.86359787 0.4195535 -0.67181814
000060 8a b2 05 be ab 67 39 be 2e fe 5b bf e3 d6 63 bf
       -0.13056388 -0.18105952 -0.8593472 -0.88999766
000070 a5 b1 3d bf 10 e4 1a bf 2f f2 88 bf 63 61 b1 be
       -0.7409919 -0.60504246 -1.0698909 -0.34644613
000080 f2 60 39 bf 8e 87 38 bf f4 c3 22 bf c3 68 2e bf
       -0.7241355 -0.7208184 -0.6358025 -0.68128604
000090 30 9f fd be e7 9a 89 bf 30 47 24 bf 38 29 46 bf
       -0.49535513 -1.0750397 -0.64171124 -0.77406645
0000a0 ff 8b 03 bf 46 5e 33 bf cb 62 22 bf 0c a5 d4 be
       -0.5138549 -0.70065725 -0.63431996 -0.4153217
0000b0 d6 a0 0b bf f0 bc 24 bf 8b 88 26 bf 01 28 0d bf
       -0.5454229 -0.64350796 -0.650521 -0.55139166
0000c0 43 07 01 bf e1 48 f8 be b9 a1 53 bf 99 ca 46 bf
       -0.50401706 -0.48493102 -0.82668644 -0.7765289
0000d0 d3 ef 0e bf 66 6f 8e bf e6 0f 29 bf dc 2e 92 bd
       -0.5583469 -1.1127746 -0.66039884 -0.07137844
0000e0 b5 de c4 be 25 40 9f 3a 19 c9 20 bf 2f 4a 21 bf
       -0.38451162 0.0012149854 -0.6280685 -0.6300382
0000f0 a9 d2 28 bf b8 58 a0 be fa 67 cb be 49 c2 86 be
       -0.6594644 -0.31317687 -0.39727765 -0.26320103
000100 8a b4 4d bf b6 a0 81 bf 6f 18 3d bf 4b 26 50 bf
       -0.80353606 -1.012717 -0.7386541 -0.8130843
000110 9e 8f 80 be b5 d1 bb be 81 ac 4d bf bf 92 88 3d
       -0.2510957 -0.3668343 -0.80341345 0.066686146
000120 eb 5b 13 bf c3 aa 4d bf ae 85 58 bf 6d a5 7f bf
       -0.5756213 -0.80338687 -0.8457898 -0.99861795
000130 b8 9d 43 bf 75 8d 73 bf 5e 38 0f bf 11 09 45 bf
       -0.76412535 -0.9513772 -0.55945385 -0.7696696
000140 8c f1 59 bf 17 df d1 be 09 8f 46 bf 93 93 d6 be
       -0.85134196 -0.40990517 -0.77562004 -0.41909465
000150 10 cf 33 bf a6 82 55 be 36 0f 72 3d 33 d7 0a bf
       -0.7023783 -0.2085062 0.059096538 -0.5423462
000160 bf 1b 38 bf 91 8c 61 bf 99 43 06 bf 32 2a 26 bf
       -0.7191734 -0.8810511 -0.52446896 -0.64908135
000170 e9 a5 5d bf 3c 0c b6 be 92 e8 68 bf ba e8 81 bf
       -0.86581284 -0.3555621 -0.90979874 -1.0149148
000180 bf c0 23 3f 10 32 5f 3e d2 7b 3e bf a0 ae 3c bf
       0.6396598 0.21796441 -0.74407685 -0.73703957
000190 6c 41 4d bf 61 ed 44 bf d3 2a 82 be ac b7 ac be
       -0.8017795 -0.7692471 -0.25423297 -0.3373388
0001a0 0b e8 83 bf c4 b6 17 bf fb 62 cd be d3 b1 3e bf
       -1.0305189 -0.59263253 -0.4011458 -0.7449009
0001b0 c5 ba 4d bf 9e 3c 95 bf c5 bd 83 3d 30 13 28 3f
       -0.8036311 -1.1659124 0.0643268 0.6565428
0001c0 7d 83 73 bf e0 c1 54 bf 01 5c aa be fb 54 a9 be
       -0.9512251 -0.8310833 -0.33273318 -0.33072647
0001d0 60 78 f0 be 93 ee b1 bf 10 f5 4d bf 20 d0 8f be
       -0.4696684 -1.3900932 -0.8045206 -0.28088474
0001e0 99 0f 85 bf 9b dd 53 bf 1e 37 b1 be 66 2f 35 bf
       -1.0395385 -0.8276002 -0.34612364 -0.7077545
0001f0 61 20 d1 be e6 6a 3a bf 41 86 43 bf 4a be 64 bf
       -0.40845016 -0.72819364 -0.7637673 -0.8935286
000200 f2 a6 68 3d e7 47 56 bf 47 b0 c7 be b8 75 56 bf
       0.056799836 -0.83703464 -0.39001676 -0.83773375
000210 bc 81 14 bf e6 26 3f bf 42 42 8b bf 99 15 37 bf
       -0.5801046 -0.7466873 -1.0879595 -0.7151733
000220 8d bb 7e bf cd f2 56 be 4b d2 0c bf 2f 7c 2a bf
       -0.9950493 -0.20991059 -0.5500838 -0.6659574
000230 03 5d 66 3f 1f e8 d0 bd 41 db 7a be 01 7f 3c bf
       0.89985675 -0.102005236 -0.24497701 -0.7363129
000240 a5 b6 21 bf dc a1 86 bf f2 3d 8f be 68 11 46 bf
       -0.6316932 -1.0518146 -0.27976948 -0.7737031
000250 a9 7f 2f bf 62 66 66 bf 4c 9e 55 bf 5e 50 5e bf
       -0.6855417 -0.89999974 -0.83444667 -0.8684138
000260 a1 82 92 bf 12 de 12 bf e6 ef 17 bc ab 43 da bd
       -1.1446115 -0.573701 -0.009273505 -0.10657438
000270 41 d6 12 bf 6c 02 37 bf 13 6e 68 be 84 b4 60 bf
       -0.57358176 -0.7148807 -0.2269824 -0.87775445
000280 43 43 87 bf da c1 6d bf 71 ab 16 bf 6f d1 12 bf
       -1.0567402 -0.9287392 -0.5885535 -0.5735082
000290 0a 22 f7 be d1 92 4c bf 01 e1 eb be de 78 00 3f
       -0.48268157 -0.79911524 -0.46070102 0.5018443
0002a0 d5 0d 54 bf e0 72 45 bf ff b5 25 bf 0b 1d e2 be
       -0.82833606 -0.7712841 -0.6473083 -0.44162783
0002b0 42 6c 36 bf 09 87 4a 3e 6c 25 3a bf c9 5c 60 bf
       -0.7125894 0.19778074 -0.7271335 -0.8764158
0002c0 f1 97 4f bf c3 9f 0b bf 53 c5 1b 3c de a3 60 bf
       -0.8109122 -0.5454065 0.009507495 -0.8775004
0002d0 7f fe b1 be 9f a3 85 bf 78 44 87 bf 60 44 47 bf
       -0.34764478 -1.0440558 -1.056777 -0.77838707
0002e0 de 97 71 bf 72 30 74 bf aa 47 3d bf 26 55 63 bf
       -0.94372356 -0.9538642 -0.73937476 -0.888018
0002f0 77 54 55 bf 9d 4f 86 bf 6a f4 2b bf 1a a1 33 bf
       -0.8333201 -1.0493046 -0.6716982 -0.70167696
000300 22 c9 22 bf 7b b7 66 bd 8f 26 c0 be 12 d9 7c bf
       -0.63588154 -0.056327324 -0.37529418 -0.98768723
000310 bd 67 1a bf 24 4e 6a bf c7 ab 2f bf 88 54 1d bf
       -0.6031454 -0.91525483 -0.68621486 -0.6145711
000320 5a d8 f5 be bf 79 0b bf 47 c3 1a bf ce 36 82 bf
       -0.48016626 -0.54482645 -0.6045422 -1.0172975
000330 50 32 5b 3e f5 55 18 bf 92 b3 2f bf 4c 2a 47 bf
       0.21405911 -0.5950616 -0.6863338 -0.77798915
000340 9a 57 59 be 1e 3b 4e bf e7 94 26 bf f9 7a 8c bf
       -0.21224824 -0.80558956 -0.65070957 -1.0975028
000350 11 4a 31 bf 7f 14 c9 bd db 29 32 bf 34 a8 91 be
       -0.6925364 -0.098183624 -0.69595116 -0.2844864
000360 43 5b 25 bf 15 b0 48 bf a2 64 51 bf 8a 0e 69 bf
       -0.6459238 -0.7839368 -0.8179418 -0.9103781
000370 56 aa 0e bf 84 f6 9b be a8 69 e4 be 73 8c 2d bf
       -0.5572866 -0.30461514 -0.4461186 -0.67792434
000380 3b 77 10 bf b7 de 02 bf 72 28 43 bf a1 45 70 bf
       -0.5643193 -0.51121086 -0.7623359 -0.93856245
000390 36 4f 2f bf 48 5a 15 bf f4 01 07 3e 01 3e f4 be
       -0.6848024 -0.58340883 0.13184339 -0.47703555
0003a0 cb d4 30 bf fb 12 3a bf 14 7a c0 be 13 a2 f3 be
       -0.69074696 -0.7268521 -0.37593138 -0.4758459
0003b0 94 e1 e2 be 2b 17 e8 be ae c0 34 bf fd 56 11 bf
       -0.44312727 -0.45330176 -0.70606506 -0.5677336
0003c0 c3 fd 84 bf cd 76 1d bf 27 df 2e bf bf 14 6a bf
       -1.0389942 -0.615094 -0.68309253 -0.91437906
0003d0 99 ec a5 bd 01 fb 53 be dc d7 02 bf 63 45 87 bf
       -0.08101768 -0.20701219 -0.51110625 -1.056805
0003e0 f4 7d b2 bd 6b 2e d9 bd 8e d0 90 bf 90 dd 7a bf
       -0.0871543 -0.10604557 -1.1313646 -0.9799433
0003f0 1c 57 82 bf bc 3e 10 bf 60 c8 57 bf 59 4a 17 bf
       -1.0182834 -0.56345725 -0.84290123 -0.5909782

bn1.running_mean f4 [256]
000000 e8 94 d2 3f c4 db d8 c0 17 44 a7 3f 0f 24 d4 3f
       1.6451693 -6.776827 1.3067654 1.6573504
000010 7a a7 dd bf b3 95 33 bf f7 8b 42 bf 4b 3d 5d c0
       -1.7316735 -0.701503 -0.7599482 -3.456866
000020 61 20 a2 3f 65 2b 22 3e f7 0f b1 bf fc b7 37 3f
       1.2666131 0.15836866 -1.3832997 0.7176511
000030 fa da c6 bf cf 61 ed bf af ba 46 40 c1 9d 82 3f
       -1.5535576 -1.8545474 3.1051443 1.0204393
000040 8a 12 80 3e f9 13 17 3e 76 94 86 bf 8e 32 f4 3f
       0.25014144 0.14753713 -1.0514057 1.9077928
000050 72 b4 21 c0 54 38 0e 3f f1 b7 25 40 2d 16 db be
       -2.5266385 0.555547 2.589352 -0.42790356
000060 64 d5 2e c0 64 54 4a 3d b8 18 25 40 89 43 8d bf
       -2.7317743 0.049396887 2.5796337 -1.1036235
000070 f1 77 d5 3f bc e1 ad 3d 49 5d 0e c0 2d 68 81 40
       1.6677228 0.08490321 -2.2244437 4.043967
000080 ab 55 8f 3f 05 2e c8 bd f7 e7 4f 40 97 23 53 be
       1.1198019 -0.097744025 3.248533 -0.20619045
000090 31 83 2d 40 8a bc 18 bf 0a ba b1 be fd 98 0e c0
       2.7111323 -0.5966269 -0.3471225 -2.2280877
0000a0 28 f9 39 bf a7 19 df be 0e 5b 42 3f 58 1b 2b 40
       -0.7264581 -0.4357426 0.7592019 2.673544
0000b0 19 27 5b 3f 98 0e e3 3f 0e 8e 11 c0 ee 99 27 40
       0.85606533 1.7738829 -2.2742953 2.6187701
0000c0 1e 56 a8 bf 27 34 c6 bf 94 f4 ee bf e9 d4 89 bf
       -1.3151281 -1.5484666 -1.8668389 -1.07681
0000d0 61 f4 ed 3f e5 71 de bf 1b f7 13 bf 42 b3 02 3f
       1.8590204 -1.7378508 -0.5779893 0.51054776
0000e0 12 f9 b9 40 62 5d ad 3f 0f 01 a7 3f b0 53 36 bf
       5.811654 1.3544123 1.3047198 -0.71221447
0000f0 28 9e 3a 3f db d6 4b 40 47 27 c2 3f d4 48 65 40
       0.7289758 3.1849887 1.5168236 3.58257
000100 6e 56 00 bf 59 cf 6f 3f b8 2e 52 c0 2e e3 48 3f
       -0.5013188 0.9367576 -3.2841015 0.7847165
000110 0a 15 fe 3f f3 1d 1c 40 2f b6 5a c0 ec d8 4e 40
       1.9850171 2.439328 -3.4173696 3.2319899
000120 7b ce 2c c0 9a 2a 2b c0 86 56 df 3f 9f 02 b1 3f
       -2.7001026 -2.6744752 1.744828 1.3828925
000130 4b 8f c5 3f 55 6f b7 3e 52 df 54 bf 4f db bb be
       1.5434355 0.35827127 -0.8315326 -0.36690757
000140 9b f4 55 3e 03 42 de bf ee 63 9c bf 1a f5 31 3f
       0.20894091 -1.7363895 -1.2217996 0.6951462
000150 d1 ea 0f 3f f5 61 9d 3e e0 98 69 40 b7 59 1b 3f
       0.56217676 0.30738798 3.6499557 0.6068377
000160 83 08 a8 bb 11 b0 66 3f 74 b3 7c c0 7b a3 29 be
       -0.005127968 0.90112406 -3.948453 -0.16566269
000170 01 89 ff bf e9 00 0f bf 45 00 f5 3f ad 09 24 bf
       -1.9963685 -0.55860764 1.9140707 -0.64077264
000180 2a 25 29 40 c8 fc 52 40 43 90 87 3e 8d 49 c8 bf
       2.6428933 3.2966785 0.2647725 -1.5647446
000190 a2 4a e7 bf 63 92 77 3f 33 f3 d0 be af 1a 87 3f
       -1.8069651 0.96707743 -0.40810546 1.0555018
0001a0 61 65 59 40 d4 c4 d2 c0 ea 26 d2 3f 31 b2 72 bf
       3.3968127 -6.586527 1.6418126 -0.9480315
0001b0 25 98 c3 be 5f 49 3e c0 bd 5d 79 bf a7 ea 58 3c
       -0.38202015 -2.9732282 -0.9740866 0.013239539
0001c0 31 eb 25 3f f6 17 28 bf dc fa 47 bc 63 f0 91 40
       0.64812 -0.6566156 -0.012205806 4.560594
0001d0 9f 5c 8e c0 9a 3f ee bf 4d f3 16 c0 ab 49 8e c0
       -4.4488063 -1.861316 -2.3586 -4.4464927
0001e0 bd b1 11 40 69 5d 3d 40 33 ca 73 3f 75 99 09 40
       2.2764733 2.9588263 0.95230407 2.1499913
0001f0 f5 2d 32 bf a4 16 1d 3e a5 0f 4b 3f 46 18 8f 3f
       -0.69601375 0.15340668 0.79320747 1.1179283
000200 8d b5 bb 3f eb 01 62 3f 8d 02 9b bf 53 16 14 c0
       1.466478 0.88284177 -1.2110153 -2.3138626
000210 69 62 8a 40 fc b2 50 3f 87 1f 02 c0 f4 90 ae c0
       4.324513 0.8152311 -2.0331743 -5.4551945
000220 29 bf fa 3f 4b 2b dc 3f 90 f9 0b c0 76 f6 0a bf
       1.9589587 1.7200712 -2.187107 -0.5428232
000230 4d 99 c2 3f ae 10 56 bf 4a af 8d be c4 a4 45 3f
       1.5203034 -0.836192 -0.27672797 0.7720454
000240 ab 17 d9 bf 6e 74 13 3e 3b 36 02 c0 be c7 8c bf
       -1.6960348 0.14399883 -2.03456 -1.0998456
000250 33 f3 bc bf 26 0a 88 bf ec e3 79 3d 77 1a 1c 3f
       -1.4761719 -1.0628097 0.06100838 0.6097788
000260 aa 2f a0 bd 51 e3 b5 bf 2a 79 7a 3f 3a e2 16 40
       -0.07821591 -1.4209996 0.9784113 2.3575578
000270 d5 5c fc 3f 63 05 f2 bf 5f 1f 11 40 5e 2d 38 40
       1.971583 -1.8907894 2.2675397 2.877769
000280 0e 7a 1f bf 95 e3 52 c0 73 34 42 bf e0 0b bc 3f
       -0.62295616 -3.2951405 -0.7586128 1.4691124
000290 cb f3 3a c0 ab 14 b8 3f 86 26 3b 40 01 ef 01 3d
       -2.92113 1.4381307 2.9242263 0.031722073
0002a0 e6 62 89 c0 a5 57 24 bf 18 42 ba bf 7c 40 99 be
       -4.2933226 -0.64196235 -1.455142 -0.2993201
0002b0 16 b7 cb 3e e7 fe 82 3f 86 e0 dc be 4b 6e a7 3e
       0.3978812 1.023404 -0.43140048 0.32701334
0002c0 99 15 79 bf 6a de 22 bc 19 c9 92 bf c8 f4 74 bf
       -0.9729858 -0.009940723 -1.146762 -0.95686007
0002d0 18 7e 2d 3f d2 66 27 40 33 40 23 3f 94 a4 16 3f
       0.6777053 2.6156507 0.63769835 0.58844876
0002e0 49 0e 2c c0 8e 39 19 3f 23 ae 53 bf b4 60 09 3f
       -2.688372 0.59853446 -0.82687587 0.5366318
0002f0 4c db 82 3e 05 08 33 3d 75 60 04 bf e3 72 ec 3f
       0.25557935 0.04370882 -0.5170968 1.8472561
000300 55 79 29 40 26 18 6f 3f 84 90 6f bf e2 8d 22 c0
       2.6480305 0.9339622 -0.9357989 -2.5399098
000310 b9 67 36 40 d6 b7 5d bf c8 4e 9f c0 e0 f9 3c be
       2.8500807 -0.86608636 -4.978367 -0.18454695
000320 17 1a 43 c0 46 42 6f bf 7f 87 21 c0 0c 55 82 c0
       -3.0484674 -0.934605 -2.523895 -4.0728817
000330 00 2d 4f 3f 64 4a e0 3e ad e8 44 40 5a f9 34 bf
       0.8092804 0.43806756 3.0767014 -0.7069298
000340 9c de 72 bd 9a ea f5 bf a9 34 a5 40 dd 17 c2 be
       -0.059294328 -1.921222 5.1626782 -0.3790883
000350 e5 cd a0 3f 3c 6a 7a 40 52 10 f9 bf f6 d9 bb 3d
       1.2562834 3.912734 -1.9458106 0.09172432
000360 01 76 98 bf 31 d1 f1 3f 73 b2 80 40 2a a7 6a 40
       -1.1911012 1.8891965 4.0217834 3.666453
000370 8c e4 d9 3f 3d 0b 96 3f fd 9e a1 bf 1a 04 22 3f
       1.7022872 1.172218 -1.2626644 0.6328751
000380 87 5c 50 3f 49 67 a1 40 1c c5 88 c0 b0 be aa bf
       0.81391186 5.043858 -4.274061 -1.3339443
000390 69 d2 e4 3f 8a e5 90 3e d3 b2 2f 3e df 07 01 bf
       1.7876712 0.28300124 0.1715806 -0.50402635
0003a0 eb cf 56 40 7f 25 07 40 63 40 af 3f 3a e2 89 bf
       3.3564403 2.1116636 1.3691524 -1.0772164
0003b0 dc 08 1c 40 46 e9 3a 3e c1 ab c1 bf b1 7d dc 3e
       2.4380407 0.18253049 -1.513054 0.43064645
0003c0 1e cd 76 3f 66 dd 8b 3f 8f 44 13 bf b1 00 9e bf
       0.96406734 1.092694 -0.5752649 -1.2343961
0003d0 ae 18 8b be ca f2 23 3f ac eb 10 40 46 71 9d 3e
       -0.27167267 0.6404234 2.2643843 0.30750483
0003e0 71 85 a4 bf a0 c9 6b 3f e2 18 67 be c4 87 d5 bf
       -1.2853223 0.9210453 -0.22568086 -1.6682057
0003f0 a8 50 50 bf 90 00 e7 3f 02 c1 b8 3e ac f2 db bd
       -0.8137307 1.8047047 0.36084753 -0.10739645

bn1.running_var f4 [256]
000000 aa cf 46 41 cc 09 0d 41 19 cf 42 41 4a 02 2b 41
       12.425699 8.814892 12.175561 10.688059
000010 16 a3 0d 42 41 1c d5 40 c8 ca 4c 42 55 f1 4a 42
       35.409264 6.659699 51.19803 50.735676
000020 46 e7 a1 41 4e f8 1d 41 ea 42 5d 42 a9 d5 e3 40
       20.237926 9.873121 55.315346 7.1198316
000030 06 83 2a 41 78 8f 8a 40 52 80 03 41 53 a6 3c 42
       10.656988 4.3300133 8.218828 47.162426
000040 bf 57 40 42 98 42 68 42 d5 97 e0 41 ac 73 97 41
       48.08569 58.065033 28.074137 18.93148
000050 d1 32 83 41 60 f3 2a 41 2c b7 5e 42 74 00 8e 41
       16.399813 10.684418 55.67888 17.750221
000060 a9 af 92 41 e3 46 08 42 ad 39 89 41 1e 9b 0e 41
       18.335772 34.069225 17.153162 8.91287
000070 7c 73 63 41 3f 6a 20 41 88 40 b0 41 be b2 d0 41
       14.215694 10.025939 22.03151 26.087276
000080 5e 22 30 41 b1 72 d5 41 0d 74 db 41 a7 78 2c 41
       11.00839 26.681002 27.431665 10.779456
000090 52 20 f1 41 35 06 07 41 ff d6 fb 40 45 ce 26 42
       30.140781 8.439015 7.8699946 41.701435
0000a0 7e 0a 02 41 23 ba 7d 41 38 01 75 41 12 71 b9 41
       8.127562 15.857944 15.312798 23.18021
0000b0 97 57 02 41 43 57 73 42 e5 c8 60 41 d7 d0 d3 41
       8.146384 60.835217 14.0490465 26.476973
0000c0 18 5f 07 41 5e 58 bf 41 ba ff 9a 41 cb b3 4a 41
       8.460716 23.918148 19.374866 12.668895
0000d0 8b 64 7f 41 f7 78 ee 40 3f 9b ad 41 e8 f8 ac 40
       15.962047 7.452266 21.700804 5.405384
0000e0 d3 f8 4f 42 cd 6d a4 40 bb 72 2a 41 27 b4 1e 41
       51.992992 5.1384034 10.65301 9.9189825
0000f0 36 b4 f5 41 45 a6 9b 41 e9 34 1d 42 06 17 5f 41
       30.712994 19.456186 39.30167 13.943121
000100 bd c3 4c 42 99 41 08 41 19 b9 fd 40 2f f9 ee 41
       51.19115 8.516015 7.928845 29.871672
000110 76 82 de 41 a1 2b c9 41 58 3e b8 41 6a d8 6d 42
       27.813702 25.146303 23.030441 59.46134
000120 ac db 8f 40 bf a7 aa 41 6d 6c 99 41 da 10 de 41
       4.4955654 21.331907 19.177942 27.758228
000130 42 9d 66 41 47 ef f8 40 18 3b 9b 41 43 1e d1 40
       14.413393 7.7792087 19.403854 6.534944
000140 36 fa 03 41 51 5d db 41 31 38 c1 41 b1 f9 95 41
       8.248587 27.420565 24.152437 18.74692
000150 82 86 06 41 69 27 58 42 b8 92 e9 41 a2 c9 1d 41
       8.407839 54.038486 29.19664 9.861727
000160 96 24 3d 42 53 1b d1 40 32 59 80 41 d9 e0 04 41
       47.28573 6.5345855 16.043552 8.304894
000170 8d 85 30 41 14 b7 7c 41 bf be 99 41 17 a8 30 41
       11.032605 15.794697 19.218138 11.041038
000180 e4 66 08 42 13 db bd 42 2e 46 34 41 42 80 30 42
       34.10048 94.92788 11.267134 44.12525
000190 5a 26 bc 41 0b 82 7a 41 86 e9 57 41 5c 34 28 42
       23.518726 15.656749 13.494513 42.051132
0001a0 72 a1 bc 40 f9 ea 0a 42 35 c6 fd 40 3a 82 f5 40
       5.8947077 34.729465 7.930445 7.672147
0001b0 fb 94 16 41 47 e7 8d 42 d8 3f 57 41 8b 0d 93 42
       9.411372 70.95171 13.453087 73.52645
0001c0 ae 57 e3 40 98 00 62 41 84 e5 fd 40 10 11 7f 41
       7.104453 14.125145 7.934267 15.941666
0001d0 e0 36 8b 41 05 d6 db 41 36 f3 b4 40 88 0a e0 41
       17.401794 27.479502 5.654689 28.005142
0001e0 2c 48 8b 41 4b 08 fa 41 06 4e 7d 41 de 17 8d 41
       17.41024 31.25405 15.831549 17.636654
0001f0 d1 57 25 41 4d b9 00 41 db 3f 10 41 88 14 7e 41
       10.33394 8.045239 9.01559 15.8800125
000200 b4 71 cc 40 ce e7 fe 40 3c 63 4c 40 f0 c2 fa 40
       6.38888 7.9657965 3.1935568 7.836296
000210 da 4c 85 41 15 59 7c 41 a3 4c fd 41 07 c6 60 41
       16.662525 15.771749 31.66242 14.0483465
000220 6d 66 b5 41 12 31 35 41 87 a7 c3 40 ec 83 b8 3f
       22.675013 11.32448 6.1142 1.4415259
000230 6e bf c7 42 10 62 38 40 3a 0a f2 40 9e 7d bb 40
       99.873886 2.8809853 7.5637484 5.859084
000240 27 8b 2d 41 51 ef 40 41 a5 a6 4e 3f 62 47 2c 41
       10.846473 12.058427 0.8072303 10.767427
000250 9f fd ef 40 db 17 15 42 f0 ee 26 41 42 7f 10 41
       7.4997096 37.273296 10.433334 9.031069
000260 d1 6b 8b 42 50 1b 28 41 11 20 bf 41 72 68 52 42
       69.71058 10.506668 23.890657 52.601997
000270 0d 7b 56 42 1c a5 d8 41 17 46 1f 41 3e 12 dd 40
       53.620167 27.08062 9.954612 6.908477
000280 c7 92 09 41 5a af 8a 42 6e 07 38 3f 08 e0 a2 41
       8.598334 69.34248 0.71886337 20.35939
000290 43 82 a3 41 06 ef 2a 40 7a 92 c0 41 10 0d 8d 42
       20.438604 2.6708388 24.071522 70.52551
0002a0 ee 73 19 41 a7 0d 54 41 17 01 f5 40 83 b4 1e 41
       9.590803 13.253333 7.656383 9.91907
0002b0 6f 30 5f 40 1d 44 ee 42 35 47 a3 41 f1 62 85 41
       3.4873312 119.13303 20.40977 16.673311
0002c0 1f 14 86 41 d8 f0 b6 40 60 8a 9d 42 63 a5 6c 40
       16.759825 5.7169 78.77026 3.6975944
0002d0 85 3d c6 40 9d 7a 5f 41 e4 5f a5 41 59 82 9a 41
       6.1950097 13.967435 20.671822 19.313646
0002e0 58 b9 13 42 9b b0 5d 42 7a 33 80 42 46 04 07 41
       36.931 55.422466 64.10054 8.438543
0002f0 a0 8d 44 41 7d 8f 2d 42 d5 79 60 41 79 db 4a 41
       12.284576 43.390125 14.029744 12.678582
000300 32 6c 75 41 d6 25 c9 40 de bf 07 40 bb 76 82 41
       15.338915 6.2858686 2.1210856 16.307974
000310 94 b0 87 41 35 df 52 41 35 58 8a 40 5c bd bf 41
       16.96122 13.179494 4.3232675 23.96746
000320 4d 4c 5e 41 a7 8a 81 41 bc c0 ef 41 2f 7e 5f 41
       13.893628 16.192701 29.969109 13.968307
000330 34 6b f0 40 6f ff f8 41 bc 3e 42 42 76 ed 08 41
       7.5130863 31.124723 48.561264 8.557974
000340 3d 10 fb 41 86 e0 cd 40 49 5d 6b 41 d8 04 3d 42
       31.382929 6.4336576 14.710275 47.25473
000350 82 d1 b1 41 94 6a bd 41 e1 f3 f3 3f d5 65 5b 41
       22.227299 23.67704 1.9058801 13.712361
000360 53 53 82 41 79 48 f9 40 0b 22 d8 41 5b 9a ac 41
       16.290686 7.7900968 27.016623 21.575369
000370 f7 51 ae 41 1c bf a5 40 ef 75 06 42 b3 95 58 41
       21.790022 5.179579 33.61517 13.536548
000380 b9 61 3c 41 e7 37 cb 41 ef 34 07 42 29 54 b0 41
       11.773858 25.402296 33.801693 22.041094
000390 f8 ab 3d 41 f0 1d 11 41 71 a6 1c 42 fb d5 10 41
       11.854485 9.069809 39.16254 9.052241
0003a0 08 23 85 41 b3 21 47 41 a3 e0 d5 40 f5 e9 a5 41
       16.642105 12.445727 6.6836715 20.739237
0003b0 d2 51 1c 41 29 cc fb 40 20 de d2 40 60 14 39 41
       9.769976 7.868672 6.589615 11.567474
0003c0 bb d7 11 42 8f a9 b1 41 cd 02 88 42 10 5d 2c 42
       36.460674 22.207792 68.00547 43.09088
0003d0 1f 92 17 41 d0 7d 06 41 59 0e 04 42 06 bb 52 42
       9.473174 8.405716 33.01401 52.68264
0003e0 6a ae a6 42 a9 ac df 40 fe a8 38 41 79 bd be 40
       83.34065 6.9898267 11.541258 5.960629
0003f0 b1 e8 34 42 29 ce 4a 42 7b 3f 67 41 1f 3f 8e 3f
       45.227238 50.70133 14.452998 1.1113013

fc2.weight f4 [128, 260]
000000 75 34 49 bc f0 33 97 bd 3b 6c 91 bc 6d 5f 7f bd
       -0.012280573 -0.07382953 -0.017751804 -0.062346864
000010 3a 03 43 3d 5a 23 c1 bd 50 1d c6 bd 60 3d 31 3d
       0.0476105 -0.09430571 -0.0967356 0.043271422
000020 65 c5 0d be 7b f1 fc bd d7 2f 8f bb 86 f4 94 bd
       -0.13844831 -0.12350746 -0.0043697166 -0.07273202
000030 95 f7 d9 bc b3 a7 51 3d 1c e0 9b bd 4b c0 60 bd
       -0.026607314 0.05118532 -0.07611105 -0.054870885
000040 c8 bb 2f bd 5b 50 c7 bd 23 d3 c3 3c 6a 88 84 bc
       -0.04290369 -0.097321235 0.023904389 -0.016178329
000050 16 54 45 3d a9 dd a2 bd a6 c2 37 bd 99 9e e1 bd
       0.048175894 -0.079524346 -0.044863366 -0.11016578
000060 b2 5f f4 3b 70 e8 83 bd 96 58 62 3d 7a f9 06 be
       0.007457697 -0.06440818 0.055260263 -0.13181105
000070 5f f7 6f 3c 44 5f af bd fb 97 aa 3d b6 52 24 3d
       0.01464638 -0.08563092 0.08329769 0.04011794
000080 f8 af f4 bc 15 c6 d9 bc e6 f5 6f 3d d5 a7 5e bd
       -0.029869065 -0.02658371 0.058584116 -0.054359276
000090 54 53 e4 3c 54 f0 84 bd fc e4 f6 3b 65 ac ad bd
       0.027871765 -0.064911515 0.0075346213 -0.08480147
0000a0 09 c7 fb bd fd 14 92 bc 2f 59 0e be 93 5c 72 bc
       -0.12293822 -0.017832274 -0.13901208 -0.014792579
0000b0 e9 37 c4 bd 40 08 fc bc c0 63 51 3d f2 c8 06 be
       -0.095809765 -0.030765653 0.05112052 -0.13162592
0000c0 dc 8a b6 bd 39 a9 87 bc 38 6e 97 bc a1 98 ef bc
       -0.08913204 -0.016560184 -0.018485174 -0.029247584
0000d0 64 52 cb bb 06 c6 19 be e3 cb 23 3d 8c 7f 3c be
       -0.00620489 -0.15016946 0.039989363 -0.1840803
0000e0 8b db e7 bd ca 7b 9a bb 99 a9 12 be 1c d9 b9 bc
       -0.113211714 -0.004714464 -0.14322509 -0.022686534
0000f0 2f 27 09 bd 98 c9 18 3d 2a 2a 74 3d ca 31 ec bc
       -0.033484634 0.03730163 0.059610523 -0.028832335
000100 96 d6 d6 3c 88 92 8a 3a 13 da 8b bd 42 ae 1f bb
       0.02622537 0.0010572234 -0.06828704 -0.002436534
000110 92 60 bd bd e0 11 ca bd cd ee bb bd 33 30 05 be
       -0.09246935 -0.09866691 -0.09176407 -0.13006668
000120 71 0e 02 bc 83 41 a3 3c ae a8 20 be 62 39 c3 bc
       -0.007938013 0.0199287 -0.15689346 -0.023831073
000130 dd d2 30 bd 43 48 1f 3c 81 fb 0c 3c 05 94 79 bd
       -0.043169845 0.009721818 0.008604885 -0.060932178
000140 6d 13 b8 bc 8f 19 a1 bd b5 32 61 bd 9f 6a b3 bd
       -0.0224702 -0.07866203 -0.05498 -0.08760571
000150 14 ee 83 bd 36 aa 82 bc f1 54 20 3d ce bb 0d bd
       -0.06441894 -0.015950304 0.039143506 -0.034602933
000160 5b 2a b4 bd 96 b1 cc bd 83 5c f1 3c 6a bf b9 bd
       -0.08797141 -0.09994809 0.029463058 -0.090697125
000170 de 1b 8e bc 01 7d b8 bd 51 fe 21 3d 32 c7 4d bd
       -0.017347272 -0.090082176 0.039549176 -0.050238796
000180 e7 c9 9c bc 05 ca 16 be b2 0e a8 ba 1f 71 04 3c
       -0.019139243 -0.14725502 -0.0012821762 0.008083611
000190 d5 d5 4f bd f4 13 08 be 0a af 16 bd 5a 01 e2 bd
       -0.050741035 -0.13288862 -0.036788024 -0.11035414
0001a0 cb b7 da bd 4d c0 62 3c 62 22 44 3d 71 00 f1 bc
       -0.10679587 0.013839793 0.047884353 -0.029419156
0001b0 ba 2c 50 bb 81 ba 50 3c 34 11 d6 bc 3b 74 30 bd
       -0.003176494 0.0127397785 -0.02613125 -0.043079596
0001c0 3e 07 38 3d ee 23 a9 bd ce f4 e3 3b be 0d bf bd
       0.04492878 -0.08258806 0.006956673 -0.09328793
0001d0 b0 10 cb bc 36 8d e5 bd 03 92 3c bd 4a b5 83 bd
       -0.02478823 -0.112085745 -0.046037685 -0.064310625
0001e0 35 44 9e bd ab 58 91 bc a6 b3 f8 bd 3f 7a 91 bd
       -0.07727853 -0.017742475 -0.1214364 -0.07103395
0001f0 d5 88 f9 3c 44 f9 f0 bc 9c 1c 88 3d cb 65 83 bd
       0.030460754 -0.029415734 0.06646082 -0.064159
000200 1d 46 ec 3c 81 c7 26 3d 58 ee a0 bd 49 17 87 3d
       0.028842026 0.040717606 -0.078579605 0.06596238
000210 68 16 26 3d 81 25 05 be eb fb ab bd f8 cd 2b bd
       0.040548712 -0.13002588 -0.08397659 -0.041944474
000220 ae cc 26 3d f2 1a 25 3c 19 87 ba bd 98 ed 80 3d
       0.04072254 0.010077225 -0.09107799 0.062953174
000230 94 c6 04 be 48 57 8f bd 52 e1 c6 bd 77 35 20 3c
       -0.12966377 -0.069990695 -0.09710945 0.009778372
000240 d3 36 bf bc 5b 9a a4 bc b3 bd 83 bd 79 d0 aa bc
       -0.023341572 -0.020093134 -0.06432667 -0.02085136
000250 c5 c6 35 bd 9c a5 c6 bd ac 0d 06 be b4 36 20 3d
       -0.044379015 -0.09699556 -0.13091153 0.03911467
000260 88 b5 c3 bd 5d 2c c3 3b 6c 50 ca 3d 36 20 2c bc
       -0.09556109 0.0059562162 0.098786205 -0.010505727
000270 ac 21 e0 bc c8 00 11 3d 75 92 b7 3c c9 8b 5d 3b
       -0.027359806 0.035401136 0.022408703 0.0033805242
000280 14 46 80 bc 13 93 99 3d 33 e2 4b bd 7d a7 a2 bb
       -0.015658416 0.07498755 -0.049776267 -0.004963814
000290 1e bc b6 3c 4d b0 c5 bd 44 b3 2e 3d 44 a8 39 3c
       0.022306498 -0.09652767 0.04265143 0.011331622
0002a0 9c e8 04 3d 3d fc e8 bd b3 1e b5 3d 38 cd dc bd
       0.032448396 -0.11376236 0.08843746 -0.1078133
0002b0 46 29 ea bd 50 cd 3d bd 4d 9b c3 3c e3 ba b6 bd
       -0.114336535 -0.04633838 0.023877764 -0.089223646
0002c0 78 80 6e bd 54 e0 b4 bd 3e bc 63 bd f4 3f a8 3c
       -0.058227986 -0.0883185 -0.055599444 0.020538308
0002d0 bf 37 21 be b9 72 30 bc 61 a3 bb bd 63 cd 3f 3d
       -0.15743922 -0.0107695395 -0.091620214 0.04682673
0002e0 4d 9c d9 bd ac 59 9b bd 89 da c5 bc 45 f4 84 3c
       -0.10625515 -0.07585463 -0.024152057 0.016229758
0002f0 d7 ff 22 3d 86 c1 72 bb 66 33 c2 bd bd fa da bd
       0.03979477 -0.0037041618 -0.0948246 -0.10692356
000300 aa 2f 52 bd 65 23 d5 3b 72 b4 cf bd 9b d3 b3 bb
       -0.051314987 0.0065044635 -0.10141839 -0.005487872
000310 a7 50 07 3c e9 aa ef bd 78 39 2b 3d 34 33 ee bc
       0.008258975 -0.117025204 0.041802853 -0.02907715
000320 c7 bf 8d bd db 49 90 bc 08 80 7f bd db fd 43 bd
       -0.06921344 -0.017613342 -0.06237796 -0.047849517
000330 c6 87 ab bd 30 d7 84 bd be 2d c4 bc 59 3a 86 bd
       -0.08375506 -0.06486356 -0.023947593 -0.06554098
000340 11 97 83 bd 76 92 3a bd e4 3d c4 3b e7 6e 77 3b
       -0.06425298 -0.045549832 0.0059888232 0.0037755312
000350 51 a5 d8 3b db 5f 78 bd 36 6f 0d bd 1d 1e 77 bd
       0.006611504 -0.06063829 -0.034529887 -0.060331453
000360 fd 50 a1 bc 42 5b 53 bd d8 4b ef bc 34 93 2a bd
       -0.019691939 -0.051600702 -0.02921097 -0.04164429
000370 06 e8 e0 bc 1a fa fe bb ca 21 b9 bd 76 14 b3 bd
       -0.027454387 -0.0077812793 -0.09039648 -0.08744137
000380 03 81 1a bd b4 16 ed bd 3f 34 85 bd 71 12 89 3d
       -0.03772069 -0.11576596 -0.06504106 0.066929705
000390 47 41 a4 bd d5 fa 87 bd f4 db 85 3c c9 eb 3c 3d
       -0.08020263 -0.06639639 0.016340233 0.0461233
0003a0 da 01 f6 bd 28 c7 31 bd 33 de fe 3c a7 53 d4 bd
       -0.12012072 -0.04340282 0.031111812 -0.10367518
0003b0 36 19 75 3d da 7b d7 bd 0a d7 e5 bd fa 09 e6 3c
       0.059838496 -0.1052167 -0.11222656 0.02808093
0003c0 87 27 9e bd 3f 7b 5a 3d 68 7d ff bb 2e ed aa bd
       -0.07722383 0.053340193 -0.007796932 -0.0834602
0003d0 85 8e 0c 3d 32 e8 92 bd 66 0a d4 bd e4 94 bb bd
       0.034315605 -0.07173194 -0.10353546 -0.09159258
0003e0 8a 57 a1 bd 43 92 44 3d b1 f6 b3 bd 73 44 3f bc
       -0.07878025 0.04799105 -0.08787287 -0.011674034
0003f0 63 8c c0 3b ae 40 09 bd e9 09 4b bd d0 ac f7 bd
       0.0058761104 -0.03350895 -0.049569998 -0.12093508
