checkpoint_actor.pth (torch, 176338 bytes, 10 tensors)

fc1.weight f4 [256, 33]
00000000: 726d c3bd a5e9 a5bd a436 213e c76e 8d3c
00000010: b9df 3ebd 878f c23b 4ee4 e53d c3f9 35bd
00000020: 615e 71bc 0a67 2cbc 0d27 2cbd 4872 03bc
00000030: bbe9 9f3b 5789 d43c 3421 22bd 7843 a0bc
00000040: 0421 44bc 5410 883c 2c66 abbc 1554 4fbd
00000050: e42e 82bd 7e79 ebbb d17f 1d3d ac0a c33c
00000060: 6293 a5bd 0f9f d4bd 0c19 2c3c f82f fe3c
00000070: bba5 523d 702a 013d 3dd3 0a3b 7400 e93c
00000080: 227a 1b3a bab7 82bd aa40 64bd 750b cc3c
00000090: 63f0 123e 2cec abbc d75e f53c 61f9 5b3d
000000a0: bf2e a0bc cc57 8a3d 5acd c53d b876 55bc
000000b0: 8d09 14bd d698 15bc 370a 7b3d 105a 0bbd
000000c0: d98a eabc 61e3 85ba 7dc2 c2bb 36f6 43bc
000000d0: e1d7 8bbd d3de f9bc ab10 a5bc 02b3 cc3c
000000e0: 852a dd3d 50dd c43c deee 1d3c a279 05bd
000000f0: 7eb4 ea3c 371f a03c ca5b 71bd ce4e 8bbc
00000100: 1a4e 543d e9dd d7be d805 c7bc 27db ed3d
00000110: e635 b7bd 9288 26bd abee 993c 1e31 123e
00000120: f8d1 a1bd e7c9 833d 1cbd 193d 232d 413d
00000130: 5b83 4bbd 11bb 5c3d 803e afbd 7b6a 3abd
00000140: d276 2c3e 01a2 38bc 8faf f03c fea4 4ebd
00000150: 169f bebb 4521 323b ff58 47bd aa0e ffbc
00000160: d4a4 003c 66c7 ed3b 8279 bf3d 13c4 1abd
00000170: ba58 3a3d b943 f3bb caa7 81bd 2841 063d
00000180: 61b4 60bd 7ca1 12bd 3bf7 01bd 9da2 0bbe
00000190: 59ad fa3b a045 2e3b 5cd0 e0bc be5b 22bd
000001a0: 5486 34bc a8d2 1fbd 6180 94bd 04df 90bc
000001b0: 97cc 85bd 4c3e 35bb cc32 c7bb fb10 153d
000001c0: 720d e43b 2ca0 18be e4b9 41bd 9148 14bd
000001d0: 3eb2 acbc 6e44 953b c0f0 a5bc 7657 3d3d
000001e0: cac9 4bba 2c4a 9fbc 98ae ec3b 537e a9bd
000001f0: d4cb d6bc 2dd5 013e 92ca cdbb 1249 b73c
00000200: 8c51 63bd 47eb 123d 38cd 34bd 9c63 eb3d
00000210: 164e 8dba e3fe eb3d 0d1f 983d 1ed9 0ebd
00000220: c7b8 a23c 204c 94bd 07ec 023e 5a44 58bd
00000230: c54e 8b3d 109a 963d 113b d03b 5566 bebd
00000240: 31f5 063d 7221 c8bd b1e5 ebbd 31b4 bbbc
00000250: 820a 043d 5a32 1a3d 5847 09bd ebb4 73bd
00000260: 80cc b93d bf70 ecbc a688 c93b 3820 0fbd
00000270: 5d2f df3c 0c32 ebbc 2988 a63d be4a 20bd
00000280: 2710 d63c b84f 373c 16fb 4f3d 28a8 743d
00000290: a59e dcbd 22c6 163d 3f9d eabc 2b2c df3c
000002a0: 3460 5a3d 83fb b2bb a67e eb3d b8f9 8bbc
000002b0: 5858 d53c 94bf f93a f5bd e13c 5321 813b
000002c0: aa86 53bc d776 19bc 2e53 60bd 2e90 703d
000002d0: 7080 5c3b d4d3 cebc a84f 9f3c d3fa f4bb
000002e0: 41ee 083b ee18 9cbb b2c3 803b 4802 e63c
000002f0: 2c5d 57bd b520 a33c 2128 09bd 2b64 7a3d
00000300: 89cc 13bc d94a 6fbc e88c bf3c bf53 20b9
00000310: b44c 823c ffb6 05bf b5f2 febb cddd a8bd
00000320: 91e5 98bb d79b 1c3d 9e9d 0dbd 3b9b 173e
00000330: 40e9 813d a088 f7bc 31cf 42bd 4800 0d3c
00000340: 846d 37bc 607b 873c 49e0 c5bb 51bd cf3b
00000350: b895 b23d 0305 2fbd 647c 61bd d5d4 81bd
00000360: e17c 06be b65c 89bd 77c1 b7bd afcb 90bd
00000370: 1165 19bd 38e5 e23d f4ba cbbc 0609 213b
00000380: b1ac 583d 18e1 60ba 77cd 94bd 90ba 223d
00000390: c3ca 64bd 3880 463c 042c b23e 308c d6bd
000003a0: 428f 16be e868 ddbd e60d 9d3d dda0 cebb
000003b0: 5d1a 11be cb63 04be b871 773c 52a5 aabc
000003c0: ed18 69bd ca51 183b 65e1 8b3d 6b96 4bbd
000003d0: 08bc 703d 74f3 11bc 5cb4 aebd dbbb e73c
000003e0: b4ac 443d e341 0a3c e032 733d 6e6b 30bd
000003f0: 8b25 0ebd 91f0 ba3d 90d7 c83d b579 3a3d
-0.095423594 -0.08101205 0.157435 0.017264737 -0.046600077 0.00593752 0.11225186 -0.044427644
-0.014731974 -0.010522613 -0.04202943 -0.008022852 0.0048801578 0.025944395 -0.039582446 -0.019563422
-0.011970762 0.016609348 -0.020922743 -0.050617296 -0.063566 -0.007186114 0.038451973 0.0238088
-0.08084752 -0.103819005 0.0105040185 0.031028733 0.051427584 0.031534612 0.0021183037 0.028442599
0.000593098 -0.06382699 -0.05572573 0.024907807 0.14349513 -0.020986639 0.02995245 0.053704623
-0.01955354 0.06755027 0.09658308 -0.013028793 -0.03614192 -0.009130677 0.06128904 -0.034021437
-0.02863066 -0.0010214859 -0.005943595 -0.011960557 -0.06828285 -0.030501759 -0.02014955 0.024987701
0.107991256 0.024031311 0.00963947 -0.0325867 0.028650519 0.019546134 -0.058925427 -0.01700535
0.051832296 -0.42161492 -0.024294779 0.116140656 -0.08945827 -0.040657587 0.018790564 0.14276549
-0.079013765 0.06434994 0.037533864 0.047162186 -0.049685817 0.053889338 -0.08556843 -0.045511704
0.16842201 -0.0112690935 0.029380588 -0.050450318 -0.0058173044 0.0027180475 -0.048668858 -0.031134922
0.007851798 0.007256436 0.09349348 -0.037784647 0.045494772 -0.0074238447 -0.06330831 0.03277698
-0.054859523 -0.035798535 -0.031729918 -0.13636251 0.007650059 0.0026591793 -0.027443103 -0.039638273
-0.011018354 -0.039019257 -0.07251049 -0.017684467 -0.06533163 -0.002765554 -0.0060790535 0.036393147
0.0069596106 -0.1490485 -0.04729642 -0.036202017 -0.021081086 0.0045552766 -0.0202564 0.046225987
-0.00077739044 -0.019444548 0.0072229616 -0.082760476 -0.02622024 0.12678976 -0.006280252 0.02237371
-0.05549769 0.03586891 -0.044141024 0.11493608 -0.0010780718 0.11523225 0.074277975 -0.034875028
0.0198635 -0.07241082 0.1278535 -0.05279956 0.068021335 0.07353604 0.0063546975 -0.09296862
0.032948676 -0.09772004 -0.115184195 -0.02291307 0.032236584 0.037645675 -0.033515304 -0.05949871
0.090722084 -0.028862355 0.006150323 -0.034942836 0.027244264 -0.028710388 0.08131439 -0.03913378
0.026130749 0.01118844 0.050776564 0.05973068 -0.107724465 0.036810048 -0.028639434 0.02724274
0.053314403 -0.0054621114 0.11498766 -0.017086849 0.026043102 0.0019054287 0.027556399 0.00394074
-0.012910524 -0.0093667125 -0.054766826 0.05873125 0.003364589 -0.025247492 0.019447163 -0.0074761896
0.0020893964 -0.004763714 0.0039295787 0.02807726 -0.05257909 0.019913057 -0.033485536 0.061130684
-0.009020933 -0.014605247 0.023382619 -0.00015289987 0.015905716 -0.52232355 -0.007780398 -0.0824543
-0.0046660383 0.038234558 -0.034574144 0.1480531 0.06343317 -0.030216515 -0.047560874 0.008606024
-0.011195544 0.016538322 -0.0060386998 0.006339707 0.08719963 -0.04272939 -0.05505027 -0.063394226
-0.13133575 -0.06707136 -0.08972447 -0.070700996 -0.0374499 0.11078876 -0.02486942 0.0024572029
0.052899066 -0.00085784635 -0.07265752 0.0397287 -0.05585743 0.012115531 0.34799206 -0.104759574
-0.14703086 -0.10811025 0.076686665 -0.0063057975 -0.14170213 -0.12928693 0.015102796 -0.020830784
-0.056908537 0.002324211 0.068301 -0.049703997 0.05877307 -0.008908141 -0.085304946 0.028287819
0.048016265 0.00843856 0.05937469 -0.043071203 -0.034703773 0.09127916 0.0980674 0.045526225

fc1.bias f4 [256]
00000000: 25bf b43d f850 213e 6a30 3dbd 20bc 133e
00000010: 3966 6abb 13da 24be 6116 26be 94d6 a5bd
00000020: 0de5 87ba 0c84 103e e90b 98bd e5c8 ddbc
00000030: 98e3 f33d d37d 30bd 4862 9b3d 126c 6ebc
00000040: 5fd6 8abd 27be e7bd 8d20 2f3e afe0 bfbd
00000050: 81ed 863c e28c 773d 5581 043d 2780 60bc
00000060: 81fc 09bd 8e55 96bd 9089 763d 0081 4fbd
00000070: 35aa 843d 5816 b73d 7f0b 7f3d fac4 a7bd
00000080: 842b f4bd b250 42bd 5f95 643d cb15 9b3c
00000090: 6a33 2e3e bf6b f03d 1b8d a6bd 6873 003e
000000a0: 7a1e cbbd 67a0 70bd 3b3d 043e 8f13 03be
000000b0: 0407 47bd df84 12be 74a9 a53d 121b fe3d
000000c0: 8ab0 1c3e 09a9 78bd 0abf 03be bbf0 bb3d
000000d0: 7deb e6bd 3fdd 6dbd c3b4 12be b327 0b3e
000000e0: 5b2d 90bc f226 c03c 5716 283c 2b3c cd3c
000000f0: cd6d 9dbd 209d 2e3e 93ea 21be 3c4e bbbc
00000100: aebc cfbd 344e f2bd 6147 bf3d b6ea 023e
00000110: 3168 a83d a77c 553d af24 ee3d 8a1d bf3d
00000120: dc43 4fbd e873 96bd 30a8 523d 86fe df3d
00000130: 64e7 ed3d 661c 383a 231a 323e 0ced ffbd
00000140: 7ddb 933d d8ae 183e 72fe 2f3c b266 d63d
00000150: ef9f 1c3e 482e 0abe 468b e73d aeae a53d
00000160: a175 bb3d 10e0 b23d 94ea d33d 3f10 633d
00000170: 0f78 c33d 568f 21be f8d0 31be c3e1 bc3d
00000180: d40c 313e 9d56 54bd 7ca9 083e 4e6a 9bbc
00000190: 54f2 b23d 87e9 66bc b350 ad3d ef10 9bbd
000001a0: e208 13be 6844 be3d daac 95bd e016 053e
000001b0: b34f c43c a9db 91bd ad69 2b3e a008 2a3e
000001c0: 8e3b b9bd db34 9e3d 1371 4b3d 9630 dbbd
000001d0: a0fa b43c 2478 1cbe 44ae 593c fb66 1abe
000001e0: 0974 183e 06ec b23d 370b 0d3e acc2 093d
000001f0: 4e34 98bd 2725 b63d a8f3 9c3d 007b c33d
00000200: b214 dabc 1850 313e cf43 e4bd c127 1fbe
00000210: cccd 3f3d 9d21 213e d6c3 db3c 6fa6 4bbd
00000220: d941 18be 3525 ef3d cc2c 2fbe a702 93bd
00000230: f7fc c53d 36e5 c9bd 5600 eabd df10 b3bd
00000240: bb64 a93d 143f 98bd 94f1 21bd a863 2bbd
00000250: 30d6 c03d 9cb3 1c3e 9200 323c 1338 5b3a
00000260: 1dd4 91bc b820 aa3d 9a91 003e 67d7 273d
00000270: 3bc0 db3d 6950 60bd 57e9 0ebc 3889 14be
00000280: 984b 9b3d ae41 b7bd 2ba1 d8bc 0271 2ebe
00000290: e09a 6f3c bdda 603d a6fa d53d f40c 1cbd
000002a0: 7669 093c 54c1 273e 7084 0f3b c477 003e
000002b0: b12e 2e3e 50cf 173e bdf5 a13d 41f3 e33d
000002c0: 70bc 223e 7b5b 8abc 851b 0f3e a961 92bd
000002d0: 6446 60bd e79a a13d 9aba d6bd c8a5 88bd
000002e0: 0671 183c 508a 6a3c bde9 0f3c fee4 bebc
000002f0: 7100 633d 1810 2c3e 9927 70bd 54f8 c33d
00000300: 98b7 2e3d f68e e13d a9a5 113e 1a73 89bc
00000310: 8114 15bd b8d9 8cbd 6baa 45bd c200 98bd
00000320: 85b6 2fbd b00d d03d 361c 563d 520a a8bd
00000330: ba6e c93d 65f2 7f3c e4bf e63b 70ad 893d
00000340: 0ac9 c7bd 68c9 96bc 5740 083e 5a12 e73d
00000350: 0013 c93d a1a4 c6bc 5f41 8c3c 9e7b e73d
00000360: 7a4a ea3c dfdb c43d 54ad b43d 5429 9c3d
00000370: 7d2e a83d 00d9 eebd 66c5 1cbe 3798 30be
00000380: 8b99 0b3e a013 c6bd ce32 0cbe 0154 b63c
00000390: 3c71 09bd c4f3 633d 2ac2 39bd 4516 0a3e
000003a0: d1d9 28be f190 2fbe fb76 193e 079c 9bbd
000003b0: 599c 2c3d 6025 823d 7968 e13c ea1b e1bd
000003c0: 739c 9a3c 3eed e9bd 8a37 163e b4e4 d93c
000003d0: 5338 003e d703 fc3d 51f7 973d 49bb 7b3d
000003e0: d152 c93d 5912 e3bd 89a7 063e ace2 1abd
000003f0: dfa6 093e 7a04 3abc e042 a53d b2d8 033e
0.088255204 0.15753543 -0.04618875 0.14427233 -0.0035766496 -0.16098814 -0.16219474 -0.08097568
-0.0010367945 0.14112872 -0.07424147 -0.027073333 0.119086444 -0.043088745 0.07587105 -0.014552133
-0.06779169 -0.113155656 0.17102261 -0.09369027 0.016470673 0.06043709 0.032349903 -0.013702429
-0.033688072 -0.07340537 0.060189784 -0.050660133 0.06477777 0.089398086 0.062266823 -0.08191867
-0.119223624 -0.04744024 0.055806514 0.01893129 0.170118 0.11739301 -0.081323825 0.12544024
-0.09917922 -0.05874672 0.12913983 -0.1280043 -0.048590675 -0.14308499 0.08088961 0.12407507
0.1530172 -0.06070808 -0.12865844 0.09176775 -0.112753846 -0.058072325 -0.14326768 0.13589363
-0.017599752 0.02345607 0.0102592325 0.025053104 -0.076869585 0.17052126 -0.15812139 -0.022864453
-0.1014341 -0.11831322 0.09339786 0.12784848 0.08222998 0.05212083 0.116280906 0.09331806
-0.050601825 -0.07346326 0.051429927 0.10937218 0.116164 0.00070232747 0.17392783 -0.12496385
0.072195984 0.14910448 0.010741817 0.10468806 0.15295385 -0.13494217 0.11305861 0.08089958
0.09153295 0.08734143 0.103474766 0.055435415 0.09544384 -0.15777335 -0.17364872 0.09222748
0.1729005 -0.051840413 0.13345903 -0.018971588 0.08737627 -0.014093763 0.08462658 -0.07571589
-0.14358857 0.09290391 -0.073083594 0.12997007 0.023963785 -0.07121975 0.16739531 0.16604853
-0.09044562 0.07724925 0.049668383 -0.107026264 0.022092164 -0.15280205 0.013286177 -0.15078346
0.14888014 0.08736424 0.1377381 0.03363292 -0.07431851 0.08893805 0.07663661 0.09544945
-0.026621196 0.1731571 -0.11145746 -0.15542509 0.046827123 0.15735479 0.02682678 -0.04971927
-0.14868869 0.116770186 -0.17106932 -0.0717824 0.0966739 -0.09858172 -0.11425845 -0.08743452
0.08271166 -0.07433906 -0.039537027 -0.041843086 0.09415853 0.1530289 0.010864394 0.0008362543
-0.017801339 0.08307022 0.12555543 0.040976908 0.107300244 -0.054764185 -0.008722625 -0.1450547
0.07582778 -0.08948074 -0.026444038 -0.17035297 0.014624327 0.054896105 0.10448198 -0.03809829
0.00838696 0.16382343 0.0021899007 0.12545687 0.17009999 0.14825177 0.07908199 0.111303814
0.15892196 -0.016889324 0.13975342 -0.071475334 -0.05475463 0.078908734 -0.1048481 -0.06672245
0.009304291 0.014315203 0.008783755 -0.023302551 0.055420343 0.16803014 -0.058631513 0.09568849
0.042655557 0.11013596 0.1422335 -0.016778518 -0.036396507 -0.06877464 -0.048258226 -0.074220195
-0.042898674 0.10158861 0.052272998 -0.082050934 0.098355725 0.015621756 0.007041918 0.06722534
-0.09755142 -0.018406585 0.13305794 0.11282797 0.09818077 -0.024248423 0.017121015 0.11302875
0.028599966 0.096122496 0.08822122 0.0762507 0.08211992 -0.11662483 -0.15309677 -0.17245565
0.1363279 -0.09671712 -0.13691255 0.022256853 -0.033555254 0.055652395 -0.045351185 0.13485058
-0.1648934 -0.17145135 0.14986794 -0.07598119 0.042141292 0.06354785 0.027515637 -0.10991652
0.018873429 -0.114222035 0.14669624 0.026598312 0.12521486 0.1230542 0.07420219 0.061457906
0.09830249 -0.11087484 0.13149847 -0.037813827 0.13442563 -0.011353606 0.08069396 0.12875631

bn1.weight f4 [256]
00000000: 67ba 873f 17ba 9d3f 0a72 8d3f b32f 963f
00000010: df53 893f ae19 bb3f 7866 943f 3512 8b3f
00000020: a9d1 9a3f a7bf 8e3f 68a5 943f 52ca 9b3f
00000030: be80 883f 86b1 853f 4935 903f e492 993f
00000040: 2ac0 a93f f92d a23f ce8f a43f fee1 9b3f
00000050: dfe5 9e3f ec97 9d3f 4b5f 8c3f 2d79 a43f
00000060: cde0 903f 2258 833f 8168 863f c0da 9f3f
00000070: 174d 8b3f ecb4 943f af2c 9e3f dad3 833f
00000080: ef96 9d3f df39 923f 5ccd 8e3f a9cd 803f
00000090: 7dbe 813f 9e62 9b3f eb3c a73f 4849 903f
000000a0: 0dfb 993f 2ca6 903f 778e 9d3f fceb 8c3f
000000b0: 9549 903f accb 953f 536a 973f b9f9 993f
000000c0: 7a86 833f 9796 963f 3630 923f 3891 813f
000000d0: b0e3 993f 591a 8b3f 7b4c 8c3f 091b 9e3f
000000e0: 1857 933f 831c c03f 15f0 8f3f 91c0 883f
000000f0: 7213 983f 7f90 8b3f d082 a33f 4180 8b3f
00000100: f27f 9a3f 8b26 ab3f f405 a33f c719 8d3f
00000110: 59ae 843f f501 893f 7cd2 883f 4b35 843f
00000120: b742 903f 2d5a 963f 6b48 9a3f 7725 8d3f
00000130: f5e9 ab3f a376 8f3f fd59 943f 49e5 a03f
00000140: 9bd1 8d3f 4b5c 8e3f 4ae5 a53f 35b8 993f
00000150: 592d 853f fab1 8f3f f372 833f 44e6 893f
00000160: 32fe 933f 2b6a 8e3f ed52 b63f 9070 893f
00000170: d2fb a73f c4b9 8f3f f8f6 a23f d33d a03f
00000180: 97ce a73f 59fb 923f 6f0e 8e3f 60ea a03f
00000190: db96 8c3f b2c2 8f3f f850 903f 24a3 a43f
000001a0: c738 9b3f 77db aa3f 1747 6d3f f8d0 a83f
000001b0: 3554 9b3f 7034 933f 9572 983f 7239 993f
000001c0: fb3c 9e3f f373 903f f04e 9d3f 910b 973f
000001d0: 3507 a23f c4f5 993f 22d1 9f3f 4229 953f
000001e0: fd15 903f 3799 9b3f cef5 923f 2ae3 883f
000001f0: 0677 ba3f eb23 853f 3f37 9a3f 9c22 893f
00000200: 4924 883f 46bf 953f 9f96 903f b7c1 8d3f
00000210: 046a 9f3f 5e38 9f3f 0b46 953f 0850 b33f
00000220: 9df5 8e3f e4da 903f a40e 983f fdb3 8b3f
00000230: e91d a03f c97d 923f 3c44 9c3f 1a92 9a3f
00000240: f59e a13f 580e 7f3f 8612 8e3f 7f66 863f
00000250: cfbe a43f 7ce3 913f 6ca6 9b3f 23db 9e3f
00000260: 88c2 a63f eb88 973f f088 8a3f d4d5 973f
00000270: b64a 943f 0aec 973f d858 943f 73ca 843f
00000280: e2b6 8e3f 052d 983f b3b1 b43f 3f0c 8b3f
00000290: e7cf a93f 2bc8 963f 3ee4 a03f b91d 9e3f
000002a0: 8c66 8c3f 2c8a ac3f 5aa7 913f 15a1 9e3f
000002b0: d829 ae3f 6716 9a3f 927a ad3f fcf1 a53f
000002c0: 7cbb 843f 9b68 a43f aa23 893f 9b70 953f
000002d0: c924 973f 1afd a53f 2b1e 9e3f 7b7a 903f
000002e0: c206 8a3f 056f 943f 5445 a13f 4b59 9c3f
000002f0: 436c 873f cc1f 9b3f e991 a83f e2b2 903f
00000300: 853c 873f 9790 8e3f 45cb 8b3f a52b 8d3f
00000310: 63ef ad3f 3fc8 8b3f a378 a33f 9671 953f
00000320: 35e1 8f3f 23b7 993f 1803 903f 67dd 873f
00000330: 6f59 883f 50be 843f 32cd a63f e78e 8c3f
00000340: 1135 883f 00ec 9a3f 40f0 8c3f 76fc 8c3f
00000350: 5aca 923f 1d33 933f 333a 983f e3dc a43f
00000360: a01b a23f ec3e 8e3f f495 8e3f 217f 913f
00000370: 439d 813f b841 893f a361 8c3f 4c04 903f
00000380: 4cb1 953f 5cc7 913f 9049 8c3f 4743 973f
00000390: f33e 833f 142c a03f 4f80 9e3f d637 773f
000003a0: 4d76 883f dabe 933f c8c4 b93f 8257 993f
000003b0: 9e40 a23f 2df3 943f 841b 963f 6a24 943f
000003c0: 76ae 8e3f d04c 9b3f 0fa4 a23f cd14 923f
000003d0: b3a3 b53f 7d5f 8a3f 4eeb 9e3f d252 8b3f
000003e0: a765 933f 577e 963f 1a0b 9d3f fc3b 953f
000003f0: 794f 953f c680 893f a5eb 933f 92c1 993f
1.060376 1.2322415 1.1050427 1.1733307 1.072872 1.4617212 1.1593771 1.0864931
1.2095233 1.1152238 1.1612978 1.2171118 1.0664289 1.0444801 1.1266261 1.1997952
1.3261769 1.267028 1.2856386 1.2178342 1.2413901 1.2311988 1.0966581 1.284948
1.1318604 1.0261271 1.0500642 1.2488632 1.0882901 1.1617713 1.2357386 1.0299027
1.2311686 1.1423911 1.1156421 1.0062762 1.0136257 1.213947 1.3065466 1.1272364
1.202974 1.1300712 1.2309102 1.1009517 1.1272455 1.1702781 1.1829323 1.2029334
1.0275414 1.1764706 1.1420963 1.0122442 1.202261 1.0867416 1.096084 1.2352
1.1510954 1.5008701 1.1245142 1.0683767 1.1880934 1.0903472 1.2774296 1.0898515
1.2070296 1.3371137 1.2736192 1.1023492 1.0365707 1.0703722 1.0689235 1.0328764
1.127036 1.174627 1.205335 1.1027058 1.3430773 1.120808 1.1589962 1.2569972
1.1079592 1.1121916 1.2960598 1.200934 1.0404464 1.1226189 1.0269455 1.0773396
1.1561949 1.112615 1.4244057 1.0737476 1.3123724 1.1228566 1.2731619 1.2518867
1.3109921 1.1482955 1.1098155 1.2571526 1.0983537 1.1231291 1.127471 1.2862287
1.2126702 1.3348225 0.926866 1.3188772 1.2135073 1.1500378 1.1909968 1.1970656
1.236236 1.1285385 1.2289715 1.1800405 1.265845 1.2028127 1.2485697 1.1653216
1.125671 1.2156132 1.1481264 1.0694325 1.4567573 1.0401586 1.204811 1.0713687
1.0636073 1.1698997 1.1295966 1.1074742 1.2454228 1.2439077 1.1662 1.4008799
1.1168705 1.13168 1.1879468 1.0914303 1.2509128 1.1444637 1.2208323 1.2075837
1.2626635 0.9963126 1.1099403 1.0500029 1.287073 1.1397548 1.2160163 1.2410625
1.3028116 1.1838659 1.082304 1.186213 1.15853 1.1868908 1.1589613 1.0374283
1.1149561 1.1888739 1.411673 1.0863112 1.3266572 1.1779836 1.2569654 1.2352821
1.0968795 1.3479667 1.1379197 1.2392908 1.360652 1.2038087 1.355303 1.2964473
1.0369716 1.2844423 1.0714009 1.167499 1.1808101 1.2967865 1.2352957 1.1287378
1.0783312 1.159638 1.2599282 1.221475 1.0579914 1.2119079 1.3169528 1.1304591
1.0565344 1.1137875 1.0921408 1.1028944 1.358868 1.0920485 1.277119 1.1675289
1.1240603 1.2009014 1.1250944 1.0614442 1.0652293 1.0370579 1.3031371 1.098111
1.0641195 1.2103271 1.1010818 1.1014545 1.1468003 1.1499974 1.1892761 1.2879909
1.266468 1.1112952 1.1139512 1.1366922 1.0126117 1.0723181 1.0967296 1.1251311
1.1694732 1.1388965 1.095995 1.1817406 1.0253586 1.2513452 1.2382907 0.96569574
1.0661103 1.1542618 1.4513178 1.197983 1.267597 1.1636711 1.1727147 1.1573613
1.1146991 1.2132816 1.2706317 1.1412598 1.4190582 1.0810391 1.2415559 1.088465
1.1515397 1.1757306 1.2269013 1.1658931 1.1664878 1.0742424 1.1556288 1.2012198

bn1.bias f4 [256]
00000000: 339a eebd 1d12 07be ca6b 5cbe 853a 0bbe
00000010: b536 70bc 9225 21be 25e9 6dbd c0eb 9f3d
00000020: 3986 babd eebd d53c 5051 cc3d a6ed 573d
00000030: 67b2 7fbd 3278 653d 4895 7e3d 0381 693d
00000040: e80a b5be bf34 3bbd 84ee 383c 6a80 953d
00000050: b9b4 963d 34df 37be 16c0 edbd 0196 5cbe
00000060: ae9e f3bb b699 813d 98f8 f9bd 70e5 dfbd
00000070: 53fa 44be 1f89 343d 8951 c0bd c7bf febd
00000080: 12cd fabd bde7 8bbe ec67 abbd cdf3 873d
00000090: 67e0 61bd 4e71 cdbd 5849 9bbd a647 c1bd
000000a0: 5c8c 2cbe 886c 96bc 3e08 c3bd a9d8 17bd
000000b0: c738 1ebe f058 67be 1cdc b43d 43c1 5fbd
000000c0: 796b 79bd 1c28 273d d74a d73d 9596 58be
000000d0: 8b2f debd c74a 473d 73d6 983d e95e fe3b
000000e0: c1d5 07bc 282b cbbd 6314 29be 0fd4 5ebc
000000f0: 48c9 82be 6541 2e3d 0f00 993b 6fc8 b7bc
00000100: 85d1 ecbd 9dbb 89bd 493d a7bd 6626 7cbd
00000110: edd4 9dbb f7d4 6cbe 22ae 1dbe bd86 833d
00000120: 27d4 acbd 78ae 03be 4c2d 4a3d d44b 27be
00000130: 532b 69be 629b 81be 717c f2bc 4ef4 a43d
00000140: 1def c43d b75c a8bc bd53 a0be 6ce7 0bbe
00000150: 434f a83c 3fd8 46be 450c 9dbd a265 55be
00000160: 0609 13bd 22ff f63c 67a9 a5bb a015 37be
00000170: 0b43 d13d af3b 023e 9001 0bbe 0c37 8fbd
00000180: 7111 05bd 061a 14be 969d 84be 3696 7dbe
00000190: 297d bfbc ba20 9bbd 36e9 1eba 4bcb 44be
000001a0: eb58 ecbd efb2 ffbd 270d 39be 32fb a13d
000001b0: 41ac fbbc 85d1 80bd 8137 35be a747 d2bd
000001c0: a368 4dbe b293 06be 6bac 23bc 2f36 32be
000001d0: 17cf 9dbe ad15 61be 898e f3bd 6914 59be
000001e0: c17b 9f3c cd5e 4abd d7e2 68bd d340 67be
000001f0: a0c8 3abe 2f74 bbbd 73bf 71bc 1c0e 11bd
00000200: a5db 163e 2f66 c43c 689e b8be b3b5 a43c
00000210: 40c1 b7bd 7c20 fdbd 8547 c2bd 4b0e f4bd
00000220: 6f4e 393d a579 2dbe 18a9 e43d bf32 ac3c
00000230: b86b 82be 29dd 1fbe 2d17 87be d045 08bd
00000240: 52b7 69bd e079 bd3b 8b1b 65bd 654f 50bc
00000250: 206f a4bd f625 52bb b1a8 c93c fb1e 10be
00000260: 9c52 b3be a5da c33c 65cf 323e a481 08be
00000270: 14e6 aabc 90e6 f8bd dcb0 173d 2237 e93d
00000280: 8d71 aa3c 5fe1 2ebe 6934 173e 966d bebd
00000290: d16e 8b3b 0262 b4be 6e71 b2be 4426 45be
000002a0: eb95 933d 61a7 b1be 2504 063c c30a 993d
000002b0: 3df6 a0be e8bc 0abe 8357 02be 88dd 0c3e
000002c0: b50a 193d a7c2 97bc 8b16 813d 5cb0 c6bd
000002d0: 7e45 03bd 38e2 0a3e 41a6 43be 83e0 f8bd
000002e0: 74e3 bcbd cc01 97bd 1607 c9bc b0c0 f43c
000002f0: ee87 873d 908c f4bd 052c d3bd 8b99 d3bd
00000300: fe39 6dbd bca6 6dbd d92c eebd c56b 2fbe
00000310: fff9 8c3d 3968 f8bd 36f8 8cbd ca31 bc3c
00000320: 530d 263e 6cca f13d 9a6c bd3b 4b64 bbbe
00000330: 7ea1 0dbe f913 26be 7be6 b3bd 3361 19be
00000340: 2396 3f3d 6934 33be f447 3fbe f43c 3cbd
00000350: 75f5 333e 3479 323d dec7 bebd 6dad f2bd
00000360: 55b0 02be db7c 1fbd 27f5 dc3c 9a72 66bc
00000370: cb67 33be 3ed6 8d3e 8092 17bd 4ae0 2ebe
00000380: b38e 34be b0cb 58be 1788 1bbe fe33 c2be
00000390: fdf2 103d 883f 45bc 3a6f ff3a 8695 95bc
000003a0: a0e2 ee3b 7ed0 aebd b1f5 6bbe 4d3a 3fbe
000003b0: 9cfc a63d 404d 4fbd 11c1 1e3e 45af 323e
000003c0: 2f87 84bd de12 683c 4b0c c63a 4fa5 52be
000003d0: e141 adbd c734 e9bd 78c5 16be 027b 6dbd
000003e0: 4c4f 0abe 4f7f 2bbe 450b 2cbe 05c5 d2bd
000003f0: 0055 41be 81a8 16be fd88 eebc 500f b73d
-0.11650505 -0.13190503 -0.21525493 -0.13596542 -0.014661481 -0.15736988 -0.058083672 0.078086376
-0.09107632 0.026091542 0.09976447 0.052716874 -0.062425997 0.05602283 0.062154084 0.0570078
-0.35359883 -0.0457046 0.011287335 0.07299884 0.07358689 -0.17956239 -0.11608903 -0.21541597
-0.0074346876 0.06328146 -0.122056186 -0.109324336 -0.19236116 0.04407608 -0.093905516 -0.124389224
-0.12246145 -0.2732524 -0.08369431 0.06638298 -0.055145647 -0.10031377 -0.075823486 -0.09437494
-0.16850418 -0.018362299 -0.095230564 -0.037071858 -0.15451346 -0.2259252 0.08831045 -0.054627668
-0.06089351 0.040809736 0.105123214 -0.21151192 -0.10848912 0.048655298 0.07462778 0.007762779
-0.008290709 -0.09920341 -0.16511683 -0.013600363 -0.2554419 0.042542834 0.0046691964 -0.022434441
-0.115634 -0.067252375 -0.08165986 -0.061560057 -0.0048166425 -0.23128115 -0.15398458 0.06422184
-0.08438902 -0.12859523 0.049359605 -0.1633752 -0.22770433 -0.2531386 -0.029600354 0.0805441
0.0961592 -0.020552022 -0.31313887 -0.13662499 0.020545607 -0.19418429 -0.07668356 -0.20839551
-0.035897277 0.030150954 -0.0050555947 -0.17879343 0.102178656 0.1271808 -0.13574815 -0.06992921
-0.032487337 -0.14463052 -0.2590148 -0.24764332 -0.02337511 -0.075746015 -0.0006061973 -0.19218175
-0.11540397 -0.12485301 -0.18071423 0.0790924 -0.030721786 -0.06289963 -0.17696954 -0.10267573
-0.20059447 -0.13142279 -0.009989838 -0.17403482 -0.3082206 -0.21980925 -0.11892421 -0.21199192
0.01946819 -0.049406815 -0.056856956 -0.22583322 -0.18240595 -0.0915302 -0.014755118 -0.035413846
0.14732225 0.023974506 -0.36058354 0.020106172 -0.089724064 -0.123597115 -0.094862975 -0.11916789
0.045240816 -0.16940935 0.111650646 0.021020291 -0.25472808 -0.1561171 -0.2638487 -0.033269703
-0.057059593 0.005782351 -0.05593447 -0.012714242 -0.08029008 -0.0032066084 0.024616571 -0.14074318
-0.35023963 0.023907969 0.17461927 -0.13330704 -0.020861663 -0.12153351 0.0370339 0.11387469
0.020806098 -0.1707816 0.14766087 -0.092982456 0.0042551537 -0.35231024 -0.34852165 -0.19252878
0.07206329 -0.34698012 0.008179699 0.07472756 -0.31437865 -0.13548625 -0.12728696 0.13756382
0.037363727 -0.018525435 0.06303128 -0.09701607 -0.032048695 0.13562858 -0.1910639 -0.12152197
-0.09223071 -0.073733896 -0.024539512 0.029877037 0.066177234 -0.11940873 -0.103111304 -0.1033202
-0.057916634 -0.05802034 -0.11629648 -0.17130955 0.068836205 -0.12129254 -0.0688328 0.02297296
0.1621602 0.11806187 0.0057807686 -0.36599955 -0.13831136 -0.16218556 -0.08784195 -0.14978485
0.04677404 -0.17500462 -0.18679792 -0.045956567 0.17574103 0.04357262 -0.093154654 -0.118494846
-0.12762578 -0.03893743 0.026972366 -0.014065409 -0.17520063 0.27702516 -0.037004948 -0.17077747
-0.1763256 -0.2117145 -0.15188633 -0.37930292 0.03538798 -0.012039073 0.0019488104 -0.018259775
0.0072901994 -0.085358605 -0.23042943 -0.18674584 0.0815365 -0.05061078 0.15503336 0.17449673
-0.06471097 0.014164655 0.0015109865 -0.20570873 -0.08459831 -0.113870196 -0.14723766 -0.057978638
-0.13506812 -0.16747783 -0.16801174 -0.10291485 -0.18880081 -0.14712717 -0.029118055 0.089384675

bn1.running_mean f4 [256]
00000000: ce61 ae3e 355e f63e 9a71 68bf 3b06 ed3e
00000010: 159f 21bd cc53 27be f2df 5cbe 1fa4 c43e
00000020: c055 313e 23e9 4d3d bc97 07bd b437 f53d
00000030: 3416 853e cb9f 103f 0290 333f 7996 6c3e
00000040: e7b1 c5be ca1b 21be 7f40 d23d cba4 0ebe
00000050: 0655 513e 6d2c 11be 1f3f fbbd 6e9d bdbd
00000060: 23df e63e f14d f93e 566d d23d eb72 643c
00000070: bb01 b0be 94e9 033e 16e6 383d c14d 953e
00000080: 75d2 efbe 462f 9bbe 0e72 8c3e 58ea c23e
00000090: 9d65 003f a1a8 4abe b4d3 b8be ab07 bf3d
000000a0: 9b3f cb3d 6264 dfbd a49c dfbd f2e0 853e
000000b0: 273a 01bf 054b 053f e85a 443e 19b3 af39
000000c0: 9163 fdbd 8318 583e 1140 fcbd 4504 9fbe
000000d0: 75b2 3dbe 4faa 123f 02e2 45bf 75e9 953e
000000e0: a189 2ebe 1cb1 9c3d 8821 eebd 6a5a 83be
000000f0: 3c91 bfbe 2a51 02be dcd8 94bd ae29 f1be
00000100: be35 24be 5506 1fbf 5572 03bb 1606 893e
00000110: 41b9 343f 46bb dfbc 6cff 043f fb29 613d
00000120: 5cfa 073e a0b9 973d 5901 17be e45c 7ebf
00000130: 2646 333d db39 3ebe 8c2d 743f 6afb e23b
00000140: 776e 243f d2ba f038 3fa4 633b a56b d83e
00000150: 672e 273e ff20 30bf 3b99 ae3d f712 9abe
00000160: 680f 2abf fe43 ae3e d2ad d63e 7b02 fe3e
00000170: 6c82 dd3c c134 f4bc b0ae 84bf 6492 83bd
00000180: 8970 113e 5248 b8be c0f0 c6be c220 653e
00000190: 1e1b a53e 4797 153f 35b8 6f3f f53a a0bd
000001a0: f649 a9bd 45b1 cdbc a5aa cbbd 677f b53e
000001b0: 5d21 dbbe e592 953e 5c4f f7bd cf53 8f3e
000001c0: 981b 3e3e fadb a83e e067 b73e f0e8 a0bd
000001d0: 070f c3bd 8fb9 acbd 6b4a 9d3c b2ce 9dbf
000001e0: 8db2 603e 42ca 9cbe 8d63 3a3d 7082 14bf
000001f0: 760b 82bd 14da 64be 22ec c93e 96cf 713f
00000200: e041 9abc 09a3 553f 220d 18bf 0192 61be
00000210: 7cde 8dbe ca44 253e db79 b93d f8b4 5f3e
00000220: 45ad 023e feac 63be 1c88 9bbd 6233 023e
00000230: 3e07 61be c0fc 303e 0a21 bfbe 1c32 86bf
00000240: c94d 433e b68f 40be 5250 0d3f 571f 2abf
00000250: 8ec7 203e bf93 1f3f d644 6f3e 35c1 89be
00000260: 644e 93be 81fd 023f bcb6 bd3e c893 553d
00000270: bf86 043f c7ae 353c 6dc5 e03c 1b9a 243d
00000280: 1fbb f03c 3734 0a3e a362 a3bd 779a ebbe
00000290: ed58 5b3c 72c2 84be 179b 4cbe df13 6dbd
000002a0: efa9 183e f05d 4abe a940 8ebd f066 193e
000002b0: c397 1c3f 5dcd 77be 05c8 493d 937e a83d
000002c0: 3b15 233f 73c9 283c 796c 903e 0830 673e
000002d0: 8bd4 e4bd 6b2c ab3e c1ef 6c3e 2fad e03e
000002e0: e19f 0d3e e47b 2b3e 466d 9dbe 43ab 0a3e
000002f0: 31fa e7bb ed87 e63e 5026 26be 0efb cd3e
00000300: 8eaa 92bc b304 ef3e ae58 163f 7f64 86bf
00000310: b966 ef3e 9255 883e 0370 9a3d d5cc 69be
00000320: 240b 433f bcb9 c73e c379 bbbe 39a3 99be
00000330: 3d92 623d 05e5 90be c83d 5dbe fade 8ebd
00000340: a0a2 b2bc a8fe 8a3e 38b3 cb3e e470 073f
00000350: 6a8e 473f 7b84 01be faca e63e e1f0 393e
00000360: e0be 193c 3d35 1abe ee94 adbe a3a4 033f
00000370: d453 20bf 8159 e13e 9d26 06be 99eb 5c3e
00000380: 668b d73e 6b29 323c 6cee 59be 2c18 563f
00000390: 7cd4 c63e 4c5b 01be 8ec8 963e b92e 9a3e
000003a0: cba5 bb3e beaa 933e ff58 e6bd d050 abbe
000003b0: ad58 193f 4e53 4abe 917e d3bd 4f7f a33d
000003c0: 16ba e8bd 8c95 fcbd 2a69 f83c 6e66 52be
000003d0: a65e 753d 0f89 07be 55f8 a0be c95d 11be
000003e0: a7af 2abf 0883 60be 0106 f63d 54ab 61be
000003f0: 1c34 2ebe 8644 a43e 3bc6 733f 96f1 aa3e
0.34058994 0.4811875 -0.9079834 0.46293816 -0.039458353 -0.1634056 -0.21569803 0.38406464
0.17317867 0.050271165 -0.03310369 0.11973515 0.25993502 0.56493825 0.70141613 0.23104276
-0.3861229 -0.15733257 0.10266208 -0.13930051 0.2044259 -0.14177103 -0.12267899 -0.09258543
0.45092115 0.48692277 0.102747604 0.013943414 -0.3437632 0.12882072 0.045141302 0.29160884
-0.46840253 -0.30309504 0.27430767 0.38069415 0.5015505 -0.1979089 -0.36099017 0.093276344
0.09924241 -0.109078184 -0.10918549 0.26148182 -0.5047936 0.52067596 0.19175303 0.0003351204
-0.123725064 0.211031 -0.12316907 -0.31057945 -0.18525107 0.5729112 -0.77297986 0.29279676
-0.17044689 0.076509684 -0.11627489 -0.25654918 -0.37415493 -0.12726274 -0.07267925 -0.47102112
-0.16036126 -0.62119037 -0.002005716 0.26762456 0.70595175 -0.027310979 0.5195224 0.054971676
0.13279098 0.07408452 -0.14746608 -0.9936049 0.04376807 -0.18576758 0.95382 0.0069269435
0.64231056 0.0001147889 0.003473535 0.42269626 0.16326295 -0.6880035 0.0852532 -0.30092594
-0.6642976 0.3403625 0.4192949 0.49611267 0.027039729 -0.029810311 -1.036581 -0.06424406
0.14203085 -0.35992676 -0.38855553 0.22375777 0.3224725 0.58433956 0.9364045 -0.07823745
-0.0826606 -0.025108943 -0.09944657 0.35448763 -0.42798892 0.29213634 -0.120756835 0.27993628
0.18565214 0.3298033 0.35821438 -0.07856929 -0.095243506 -0.0843383 0.019200524 -1.2328703
0.21943112 -0.3062306 0.045505095 -0.5801153 -0.06349842 -0.22348815 0.39437968 0.94457376
-0.01883024 0.83451897 -0.5939504 -0.22028352 -0.27708805 0.16139522 0.09056445 0.21846378
0.1276141 -0.2223396 -0.0759432 0.12714913 -0.21975419 0.17283916 -0.37329894 -1.0484042
0.19072641 -0.18804821 0.55200684 -0.6645407 0.15701124 0.6233482 0.23366103 -0.26905218
-0.28770745 0.51168066 0.37053478 0.05214289 0.51768106 0.011089033 0.02743789 0.04018603
0.029386101 0.13496481 -0.07977798 -0.46016285 0.013387901 -0.259296 -0.19981037 -0.05788028
0.14908575 -0.19762397 -0.06945927 0.14980674 0.6116907 -0.24199434 0.04926302 0.08227267
0.6370427 0.0103019355 0.28207758 0.22576916 -0.11173352 0.33432326 0.23138334 0.4388213
0.1383052 0.1674648 -0.30747432 0.13541894 -0.0070793857 0.45025578 -0.16225553 0.40230602
-0.017903592 0.46683273 0.58729064 -1.0499419 0.4675806 0.26627785 0.07540896 -0.22832043
0.76188874 0.39008892 -0.36616334 -0.30007342 0.055315245 -0.28299728 -0.21605599 -0.06976123
-0.021806061 0.27147412 0.3978517 0.5290663 0.7795168 -0.12648194 0.45076734 0.18158294
0.009383887 -0.15059371 -0.33902687 0.5142309 -0.6262791 0.440136 -0.13100667 0.21574248
0.4209854 0.010874133 -0.21282357 0.83630633 0.38833988 -0.12632483 0.29449886 0.30113772
0.36649927 0.28841203 -0.112474434 -0.33460093 0.59900934 -0.1975834 -0.10326875 0.079832666
-0.11363618 -0.12333211 0.030323584 -0.20546886 0.059904717 -0.13235877 -0.31439462 -0.14195932
-0.66674274 -0.21924984 0.12012864 -0.22038013 -0.17012066 0.3208353 0.9522435 0.3338744

bn1.running_var f4 [256]
00000000: ee9b e03e 2eb5 213e 43e9 1e3f 33f9 8c3e
00000010: 2f4c d13d b6b5 143e 642d 2e3f 55cd ff3e
00000020: 1681 fc3e 02bb c13e 0feb e53e 19ed 943d
00000030: f09d d63e f12a 973e aae2 fb3e 1a47 b33e
00000040: 315f 843e cd6f 263d 5d2e ee3d 10fb 273e
00000050: f863 df3d 3e3b a43f fc9c 2a3f f5d9 923d
00000060: 3bfe 3f3f 2e31 583f 2fe1 2a3f 8fb7 a23e
00000070: af6d 5a3f bd4e 0a3f e51b d33d 6b2a 493e
00000080: d75b 4d3d 030d 303e 43a5 b53e 8fbb 123f
00000090: 43ae 723f 0fc5 083e 53bf 963e c001 f33d
000000a0: 15bc 1a3f 1802 1a3f 5778 383e 0e49 5c3f
000000b0: 71e3 7d3d 90b1 643e 513c f13e 8e9a e93e
000000c0: a2cf 0d3e 21ee a13e 1044 523f 0d35 533e
000000d0: 76c7 1d3e 6602 933f 9793 683f 3140 013e
000000e0: 8a66 bc3e 0df0 073e ebe8 373e 5a1b 593f
000000f0: f149 4c3e 37b2 963e 3d07 d33e a8cd 923e
00000100: a0e1 283e e3d3 c53e e9a3 8d3e 7238 3a3e
00000110: e153 523f 5daf a23e fe66 843e f438 8f3f
00000120: 9e0e 2e3f 9b6d 0c3f d99d 173f 8c4d 3d3e
00000130: 23c5 563e 2534 253f 91c7 1f3e 1120 dd3e
00000140: 3f4a d83e f063 e83e 8cc8 703e 7043 a33f
00000150: cc70 a43e 8c61 233f 5ed3 8c3f 6428 e33d
00000160: 864e 9e3e 5d1e 933e a44a cd3d 31dd ac3e
00000170: e6bd 1e3e 4dd9 023f 7989 573e 60df 793e
00000180: 8cb2 c03d 3a2b e43e 783a 3f3e 08b7 3e3f
00000190: 8210 e73e 1a96 973e b41e 163f c28b 4e3e
000001a0: 62b0 8f3d 8cd7 db3e 9094 b53e 02df 363e
000001b0: a9e5 283e 87c8 9e3f 6cfa a93e a23e 2f3e
000001c0: 39b4 873f a9b1 cd3e 342a 3a3e 4d37 433f
000001d0: e5f8 1c3d ecd2 b43f 90f2 0e3e 9d2b 5c3e
000001e0: 1e25 043f 19b0 863e a514 7c3f da6f 033e
000001f0: cc48 203e 4b82 2d3f 3ae9 c83f 2556 403f
00000200: cfe5 1c3f 34cb 4b3f 1485 113e 6a4a 3e3f
00000210: 7767 f13e 6456 013f 0da4 9c3d e629 663e
00000220: 3a73 993e 9ef9 343f 6ed9 143f 469b 603e
00000230: 10db 803d 70fd b03f 53bf 523e 08e7 863e
00000240: c8fa d63d 9f24 f13e 24b0 f63e e673 af3f
00000250: b64a d93e 944d 8b3e f80c 123e 787d c33d
00000260: c13a 263e 752f 6b3e 2aaf 8c3f 7079 fd3e
00000270: 0133 d93e 5e79 a33e 2b18 923e 9679 0040
00000280: 4542 103e af10 d33e 734b 793e bfc6 763e
00000290: f5e6 d23d 334e 8b3d 67d1 513e 98a9 c83e
000002a0: 3e81 d03e 43c2 a03d a4ee 323f 0f7a 023e
000002b0: 3eac 693f 6a16 913d 1edd 723e 2b55 c13e
000002c0: 65fa 333f 1924 bd3d 671f e73e 2ca4 783e
000002d0: fe21 ce3d 41cb c93d fa79 c03e 4ab7 3d3e
000002e0: bc0f d13e 476a ac3e 16f5 263e 0fde bf3d
000002f0: c922 bb3e 0afa f03e 7294 203d cc91 493f
00000300: 2751 323f e862 113f 46e7 fb3e f69a a83e
00000310: 8d27 e23d 1d99 613f 88a8 103f 4db6 963e
00000320: 140f e53e 4ba1 293f b00e 673e 4883 593e
00000330: 4460 ec3e 765a b93e 068e df3d 84f8 4b3f
00000340: 08c7 af3e 0e35 803e b195 953e 9301 f63d
00000350: 0444 7a3e 0e66 b73e b91c bb3e f560 9c3e
00000360: 2823 a63c a0b2 943e 0790 213f 67bd c93e
00000370: 8e61 9b3e 88c0 843f e065 303d f042 aa3f
00000380: 1d02 543f 6a5b 003e cc4b 223f 1d0b bc3e
00000390: bec8 0e3f e2a7 d13d 80d3 a23e 548d 703f
000003a0: f86d cb3e 571d 763e 6e93 633e 62ab 433e
000003b0: b847 233f 253d 233e eee4 233e 148d e03d
000003c0: 6d05 943e 1844 3e3f 84ba 923e c804 293d
000003d0: c03d b83e 6545 2f3f 60b9 dc3e 2c70 973e
000003e0: 2d56 453e 01e2 d13d 46fa 193e 046f c03e
000003f0: dc5f ef3d b6f7 a93e b690 7e3f 2e6e 753e
0.43868965 0.15791771 0.6207468 0.27533874 0.10219609 0.14522442 0.6803801 0.49961343
0.49317235 0.37837988 0.44905898 0.07271785 0.41917372 0.2952495 0.49196368 0.35015184
0.25853875 0.040633965 0.11629937 0.16404366 0.109077394 1.2830579 0.6664579 0.07170478
0.749973 0.8445004 0.6674985 0.3178067 0.85323614 0.54026395 0.10308055 0.19645087
0.050136413 0.17192464 0.35477647 0.5731744 0.9479715 0.13356422 0.29442844 0.11865568
0.6044324 0.60159445 0.18014656 0.8604897 0.061984483 0.2233336 0.4711633 0.45625728
0.13848737 0.3162699 0.82135105 0.20625706 0.1540812 1.1485107 0.90850204 0.12622143
0.3679698 0.13275166 0.17959945 0.8480736 0.19950081 0.29432842 0.4121646 0.28672528
0.16492319 0.3863822 0.27664116 0.18185595 0.8215924 0.31774417 0.25859827 1.1189256
0.67991054 0.54854745 0.5922523 0.18486613 0.20973639 0.6453269 0.15603472 0.43188527
0.42244145 0.45388746 0.23514003 1.2754955 0.32117307 0.6382072 1.1002004 0.11091688
0.30919284 0.28734103 0.10024002 0.33762506 0.15502128 0.51112825 0.21048535 0.24401617
0.09409055 0.4456423 0.18674648 0.74498034 0.45129782 0.29606706 0.586406 0.20170501
0.07016064 0.42937887 0.35464907 0.17858508 0.16493858 1.2404946 0.3319887 0.17113736
1.0601875 0.40174606 0.18180162 0.7625626 0.0383233 1.4126868 0.13959718 0.21501012
0.51619136 0.26306227 0.98469 0.12835637 0.1565277 0.67776936 1.5696175 0.75131446
0.6128816 0.7960694 0.14210922 0.74332297 0.4714925 0.50522447 0.07648478 0.2247692
0.29970723 0.70693386 0.5814427 0.21934232 0.06291783 1.3827343 0.20580797 0.26348138
0.104970515 0.47098252 0.4818126 1.3707244 0.42439812 0.27207625 0.1426276 0.09545416
0.1623335 0.22967322 1.0990956 0.49506712 0.42421725 0.31928533 0.28534064 2.007421
0.1408778 0.41223666 0.24345188 0.24099253 0.10297958 0.06802025 0.20490037 0.3919189
0.40723604 0.078495525 0.69895387 0.12741874 0.91278446 0.07084353 0.23717162 0.3776029
0.70303947 0.09235401 0.45141146 0.24281377 0.10065077 0.09853221 0.3759306 0.1852695
0.40832317 0.33674833 0.1630443 0.09368526 0.36549976 0.47065765 0.03920407 0.78738093
0.6965508 0.56791544 0.49199885 0.32930726 0.110427 0.8812426 0.5650716 0.2943596
0.44738066 0.6626174 0.22564197 0.21241486 0.46167195 0.3620183 0.10915761 0.7967608
0.34331536 0.25040478 0.29215768 0.12012019 0.24440008 0.3582005 0.3654535 0.30542722
0.020280436 0.2904253 0.63110393 0.39402315 0.30347866 1.0371256 0.043065906 1.3301678
0.82815725 0.12534872 0.63396907 0.3672723 0.5577506 0.10237099 0.31801987 0.9396565
0.39732337 0.2403463 0.22224209 0.19108346 0.6378131 0.15941294 0.16005298 0.109644085
0.2891039 0.7432265 0.28657925 0.041264325 0.35984612 0.6846526 0.4311018 0.29577768
0.19271155 0.10248185 0.15036878 0.37584698 0.116882056 0.331968 0.9943956 0.23967811

fc2.weight f4 [128, 256]
00000000: 7e3e c53c 2a73 5e3e acb1 e0bb 37f1 57bd
00000010: a979 51be cc6f d43d 65a8 193e e142 5c3e
00000020: 5537 e8bd 7b90 153e 99e2 983d 2d62 363d
00000030: 837e 693d 7500 cc3d 4fbc 713d 2aa5 27bd
00000040: ff72 d8bb 5967 203e 6531 c9bd 964f 7f3b
00000050: 7063 a0bd d455 ee3d ea2a b93d 7fdb 00be
00000060: e16e 89bd 84eb 133d 09b9 743c 0a7b 5d3d
00000070: 6cd6 54be 38db 173b 933d e93d 31c4 a23d
00000080: 7475 48be 053e f2ba c09e 62bc c747 533c
00000090: 0ac6 3e3e 4691 523d 62f6 9fbe 487f 39bd
000000a0: 05e9 a7bc c6a1 673e de5b 683d 3830 163e
000000b0: 7c7d 25be 5033 373e a4c3 843d 9bcf eb3a
000000c0: cc81 043e 1653 3ebd ca13 c03c a9a6 883d
000000d0: 2120 7c3e 5af6 c33d ad34 06bd 4ba2 c73d
000000e0: 0889 bcbd de13 c03e 129d 56bd e258 a0bd
000000f0: 7dab 223e 61c9 fb3d 408a c03d 870e 99bd
00000100: 6519 4ebe 44d2 49be 7ba7 88bd ef0c 063e
00000110: 754e 333d 7168 193e 824d 843d 9574 f63d
00000120: 1192 37bd 078b 6ebe 194a 04bd 4785 aa3e
00000130: f39d 893c f301 bfbd a609 5e3d 5d16 09be
00000140: ef70 c5bb b11a c43d d6e0 153e 5e4e 1dbe
00000150: 3e20 0c3e 0388 90be cf8d f9bd 9ba6 0b3e
00000160: f33d b03d b696 303e 5644 1abc 0d74 163d
00000170: b4dc 6fbd 8081 223e 511d 46bd 3bdf 34be
00000180: d9fd 48bd 31bc c93d 21be 20bc 8220 0ebe
00000190: a1d8 0d3e c1c2 863d 07d0 ddb9 b580 043e
000001a0: 720e 393d 17f1 00be 3a40 c0bd fca7 e93d
000001b0: 62d8 1dbe 0b2d c8bc 39f6 4d3d 59a9 f53d
000001c0: 4d1f 93bd c2bf fe3c 1dbe 393d bc22 fa3c
000001d0: 5f0e 8bbe ef71 8d3e 374e af3d b135 f3bd
000001e0: a6d4 0d3d 7f4e 393e aeb0 48be 62ea 183d
000001f0: 989a 193e 0903 e63d a0cd cebd 3b06 393e
00000200: 163d a53c 9136 bebc 74a5 64be 01f5 08be
00000210: 09d9 01be 8800 8dbe 669c 2ebe 873d 053f
00000220: 5cba 05bd b4a0 823d 86e5 fc3d 55e0 2f3c
00000230: 1388 fc3d c66c 06bc d30e a33d cfcf 0d3d
00000240: e826 953c 1b69 c33d 2e87 0f3d 16e9 4c3b
00000250: bdf2 cdbd 7cae 0e3e 6e95 e33d dcc2 0abd
00000260: 2799 33bd 72e3 743e 8b1d 47bd 0824 fbbd
00000270: d5b2 7b3d b918 11be c80e 69bc c866 92bc
00000280: 1762 273d 1c16 e03c dd7a 6a3e e938 223e
00000290: 256a 1dbd 8988 4c3d 6aac de3d 30de 20be
000002a0: 3787 a43d 6d4e a2be 39d9 e0bd 36fd b33b
000002b0: 04af eabe 95ec 12be 4553 4ebd 31ac e5bd
000002c0: 0c32 93bd 24f8 4c3c 8cf0 01be 5c80 90bd
000002d0: b58f 8fbd 6c45 5cbd e8e2 1bbe 052a 84bd
000002e0: cc0b 70bc bea1 0cbe 8a67 173e b945 253e
000002f0: b835 483d 24c3 1abd 84e3 de3e 51fb ff3d
00000300: 647f 013e 425f 9dbd f645 f6bd 6af2 9dbd
00000310: 1dce 063e 8ee4 0bbd b412 1cbd dc71 cabd
00000320: 2ce3 493d af3d b8bd 0862 d23d 5df3 8a3d
00000330: 2df7 b93d d384 0abd 24c3 44be 2b35 b1bd
00000340: 34d5 503d 155b 223d 8939 8d3e 8b27 023c
00000350: c3b6 4cbc 9049 e3bd ad5d 63be 9fc2 3fbc
00000360: da6d 22be 9d5e 9a3d 1f41 d4bd 37e9 a33d
00000370: 4664 ac3d b211 95bb 845e 0ebe 00b8 fbbb
00000380: 1611 f33d d584 a63d 1984 1b3d 80c6 6fbd
00000390: b737 22bd 5c26 833d bbb5 6e3d 3920 ed3d
000003a0: 5386 343e b10c 2d3e 8fb5 98be c71c 91be
000003b0: 7647 6bbd 96bd f03c 3f7f 923d 9389 17bd
000003c0: b6d7 94bd bd93 013c 87a2 a7bd de44 e6bd
000003d0: 4c52 9b3d 76cc a6bd b91d 53be 7e74 903c
000003e0: 2b6b e0bd 05da 22bd 40bb 693d ac38 8e3e
000003f0: 8b51 183d a6dc 003e 3be7 a63d 49aa 9dbc
0.02407765 0.21723619 -0.0068571176 -0.052720275 -0.20456566 0.10372886 0.15005644 0.21509887
-0.11338679 0.14605896 0.07465095 0.04452722 0.057005417 0.09961025 0.059017476 -0.040928997
-0.0066055055 0.15664424 -0.098238744 0.003895735 -0.07831466 0.11637464 0.09041388 -0.12583731
-0.067106016 0.036113277 0.014936694 0.054072417 -0.2078492 0.0023171436 0.113886975 0.07947577
-0.19576055 -0.0018481618 -0.013831794 0.012895531 0.18630233 0.051408075 -0.31242663 -0.0452874
-0.020496855 0.22620305 0.056728236 0.14666831 -0.1616115 0.17890668 0.06482628 0.0017990948
0.12940139 -0.046465956 0.023446936 0.06672413 0.24621631 0.09568472 -0.03276508 0.09747752
-0.09205824 0.37515157 -0.052395888 -0.07829453 0.1588573 0.12294269 0.09401369 -0.07473474
-0.20126875 -0.19709116 -0.06672569 0.13090871 0.043775994 0.14981247 0.06460096 0.12033955
-0.044817034 -0.23295222 -0.032297228 0.33304808 0.016798949 -0.09326544 0.05420842 -0.13387437
-0.0060254256 0.095754035 0.1463655 -0.15361926 0.13684174 -0.2822877 -0.12185251 0.13637774
0.08605566 0.17244992 -0.009415707 0.03673177 -0.05856009 0.15869713 -0.048367802 -0.1766328
-0.049070213 0.09850348 -0.009810955 -0.13879588 0.13852169 0.06580115 -0.00042307397 0.12939723
0.04517979 -0.12591968 -0.0938725 0.114089936 -0.15414575 -0.02443554 0.050283644 0.11995191
-0.071837045 0.031097297 0.04534732 0.03053414 -0.27159402 0.27625987 0.0855984 -0.11875475
0.034626625 0.1809635 -0.19598648 0.0373329 0.15000379 0.11231048 -0.100978136 0.18068783
0.02017073 -0.023219379 -0.2232874 -0.13374712 -0.12680449 -0.27539468 -0.17051849 0.5204701
-0.03264843 0.06378308 0.123484656 0.010734637 0.123306416 -0.008204645 0.07961812 0.03462201
0.018207029 0.09541532 0.035041027 0.003126686 -0.10056064 0.13933748 0.11112486 -0.03387724
-0.04384723 0.23914889 -0.04861216 -0.12262732 0.061449844 -0.14169587 -0.0142247155 -0.017871276
0.04086503 0.027354293 0.22898431 0.15842022 -0.038431305 0.049934898 0.10872729 -0.15709758
0.08033603 -0.3170046 -0.10978932 0.0054928316 -0.4583665 -0.14348061 -0.05037238 -0.112144835
-0.0718728 0.012510333 -0.12689418 -0.070557326 -0.07009832 -0.053777143 -0.15223277 -0.06453327
-0.01465125 -0.13733575 0.14785591 0.16139878 0.048879355 -0.037783757 0.43532956 0.12499107
0.12646252 -0.076841846 -0.12025063 -0.077122524 0.13164563 -0.034153514 -0.038103774 -0.09884998
0.049288914 -0.0899614 0.10272604 0.06784699 0.09080348 -0.033818077 -0.19215065 -0.08652719
0.050984576 0.039637644 0.27582958 0.007943998 -0.012494746 -0.11098015 -0.22203703 -0.011704116
-0.15862218 0.07537577 -0.10363983 0.080034666 0.08417563 -0.0045492286 -0.13903242 -0.0076818466
0.11868493 0.081308044 0.037967775 -0.058538914 -0.039603915 0.06403801 0.05827878 0.115784116
0.17629366 0.16899373 -0.29826018 -0.28342268 -0.057441197 0.029387277 0.071531765 -0.036996435
-0.07267706 0.007908759 -0.081852965 -0.11243604 0.07584056 -0.081444666 -0.20616807 0.017633673
-0.10957941 -0.0397587 0.05706334 0.27777612 0.03718714 0.1258417 0.081495725 -0.019246237

fc2.bias f4 [128]
00000000: f4e5 783d 930b ab3c 17fd 013e 2334 f4bd
00000010: 38d8 a0bd 790f a8bd 1ad7 6abd a51e 96bd
00000020: 61b4 b4bc 1fe5 1abd c741 d3bd 054a 9ebd
00000030: c41f 29be 2dfe 0d3d ecf6 303d 5c89 78bd
00000040: be1f 903d 3604 d53d 28ef 62be 9efd 9fbc
00000050: 1d59 f1bd 3d20 55bd b69f 7fbe 43d1 cebd
00000060: 6c62 7cbd 45bd 27be a003 14be ceed e4bd
00000070: ff1a a13b a6fa ccbd 82d3 ddbd a21f 88bd
00000080: f23a f8bd ea35 95bc 9486 7abc aae8 6cbc
00000090: 6a23 a8bc 1e32 da3c 731c 8abd 759b 4ebe
000000a0: 53cf 143d 3c88 f9bc f87f f8bc a518 8dbd
000000b0: c3b9 3bbd 5808 973c 24b2 97ba 8d43 f1bd
000000c0: 1e90 c73d 0d7f 0ebe f0f0 6bbd 04f5 e5bd
000000d0: 5d72 2fbd 0c89 d1bd 8b65 623d d9e1 9a3d
000000e0: 1670 b33c fdec bebc 5c1f 263c 1111 b9bd
000000f0: 4c26 f0bd cfb8 78bd 89d4 be3d febc edbc
00000100: e55f 15bd e86d 913d cd73 7bbd a27f 7bbd
00000110: bfb8 38be 669b 50bd e189 aa3a b929 2cbc
00000120: 9adc 35bd 6ac6 68be febd 27be f39d e8bc
00000130: 154f 24bd 1f83 813c 43d5 78bd 253a 57bd
00000140: ed19 27be 5193 c53b 49c7 2bbd 26c4 4e3c
00000150: 39bf d8b9 0fb1 28be 42c7 44bd e6c1 87bb
00000160: ea17 503c 6311 98bd 706c 13bc e482 1cbd
00000170: d053 263c 7ebd 62bd a5cb 8abc 093a 15be
00000180: 2e7e 2cbc 2e6b aabd af2a 52be 8219 aebd
00000190: 50ec 32bd d2d9 bfbd 4390 26bd 26f3 19be
000001a0: b462 84bd 7b81 a53b 809f debd b1de bf3c
000001b0: 5886 93bd ce79 abbd 55ee 0abe 054d 63bd
000001c0: 7ad7 2f3e ed9f 203c c7f7 a53b a591 94bd
000001d0: e884 8dbc e08a 0bbe 9ead 16be b0d7 efbd
000001e0: 4cda 18bd 7e80 f63d 405b 6f3d b8f7 0bbd
000001f0: 4254 4b3b 9c43 723c 7944 acbc 96d3 c7bd
0.060766175 0.020879542 0.12694202 -0.11924007 -0.078537405 -0.08206076 -0.057334043 -0.07330064
-0.022058668 -0.037816163 -0.103152804 -0.07728962 -0.16516024 0.03466623 0.043204233 -0.06067787
0.07037304 0.10401194 -0.22161543 -0.019530114 -0.11784575 -0.052032698 -0.24963269 -0.10098507
-0.0616173 -0.16380794 -0.14454508 -0.1117817 0.0049165483 -0.10008745 -0.108313575 -0.066466585
-0.12120618 -0.018214185 -0.015290875 -0.014459768 -0.0205247 0.026635226 -0.067437075 -0.2017649
0.036330532 -0.03046047 -0.030334458 -0.06889466 -0.045831453 0.018436596 -0.0011573476 -0.117804624
0.09744285 -0.13915654 -0.057602823 -0.11228374 -0.042833675 -0.10231218 0.05527262 0.07562608
0.021904033 -0.023306364 0.010139313 -0.09036458 -0.117260545 -0.060723122 0.093178816 -0.029020783
-0.036468405 0.07101041 -0.061389733 -0.061401017 -0.18039225 -0.05092945 0.0013011062 -0.010507994
-0.044399835 -0.22731939 -0.1638107 -0.028395629 -0.04011448 0.015809594 -0.060750257 -0.052545685
-0.16318484 0.0060295244 -0.0419381 0.012620008 -0.00041341202 -0.16473792 -0.04804159 -0.0041429875
0.012701014 -0.07425191 -0.0089980215 -0.038210765 0.010151818 -0.055356495 -0.016942808 -0.1457292
-0.01052813 -0.08321224 -0.20524095 -0.08500959 -0.043682396 -0.09367718 -0.040664922 -0.1503416
-0.064641386 0.0050508357 -0.10870266 0.023421617 -0.072033584 -0.08372842 -0.13567479 -0.055493373
0.17172042 0.009803754 0.0050649378 -0.07254342 -0.017275289 -0.13627195 -0.14714667 -0.11711061
-0.03731756 0.12036227 0.058436632 -0.03417179 0.0031025563 0.014786627 -0.021028744 -0.09757154
