checkpoint_actor.pth (torch, 550546 bytes, 10 tensors)

fc1.weight f4 [400, 33]
00000000: a9b7 1f3d f599 343d 0487 7b3c 3a81 a73d
00000010: 8699 643b b96f 7c3d 3736 a7bd bca2 6b3b
00000020: 06d4 26ba 4f6d de3c 0c5e b43c 79c4 a83c
00000030: deb7 893b c26b 593c 9ead b93d e890 e3bd
00000040: da80 92bd ff8e 84bc f291 0bbd 1d23 8abb
00000050: a21e 8bbc 2dc6 22bb c3f3 fc3c 8ea3 103d
00000060: e1bf c13c 3743 523b 8bf2 7b3d acca 98bc
00000070: 1192 1ebd c865 4b3d 9f76 753c b74f eabc
00000080: a512 d6bd e7ae 7abd 7f9f d2ba 5d41 1e3c
00000090: 8902 273d 870b 37bc 3ebc d83c 9e79 593a
000000a0: 1e59 70bb f051 203c fee3 01bd 06ed cd3c
000000b0: c3c5 2e3c f221 2dbd c214 863d a827 1bbd
000000c0: 704d 84bc f84d 24bd 2cf9 edbc 998e 4fbd
000000d0: 06b1 01bd f895 53bd c61d 043d ab0e fabc
000000e0: c092 cf3c eef5 243c 08b3 62bc 201b 683c
000000f0: 2f55 ae3c af60 88bd c3af 28bd 28aa a13c
00000100: ed03 3bbc a852 d03e a4c1 a53d b24a 363e
00000110: b87b 9cbd a889 23bd 603c c63d 53ee 513e
00000120: 5c66 8b3d b403 a6bd cc7f 04bd b9bc a8bc
00000130: 171b 133d 26fe ec3c 7764 853d c28d 0cbd
00000140: d964 153e b1d1 103d fd28 f93c 4a0b 00bd
00000150: 9ef0 4abd 222f cebc 6659 503c cccd 3a3d
00000160: 86c2 92bc 304e b03c ab9f bd3d 9226 493d
00000170: d79e cc3c 6b1d 0cbd 6a3a a8bc ebd4 0bbd
00000180: ed7c dfbc 2bb2 3c3d d626 0ebe 9ead 1ebe
00000190: 8b5c 1c3d 3e72 8dbc 8c61 603c 1437 a3bd
000001a0: 92ee 90bd 586f e2bb 0126 13bc fd7d 8fbd
000001b0: b08c c0bc 4f10 af3c 69fc a5bc 6632 a1bc
000001c0: 3f64 413d d936 523c 1344 783c d884 9cbd
000001d0: 8b6b 2c3d b6cb 8b3c ad07 98bc 899b 1fbc
000001e0: bc21 683c c125 32bc f9d8 e93c 8c13 9d3c
000001f0: 3a5a 953b 922b e2bc 5feb c2bc 6672 5fbd
00000200: 9a59 54b8 fd89 76bc 9a03 08ba 1573 b03e
00000210: eff5 e33d 4d37 793d 33dd c4bc a5bd e13c
00000220: d1b8 9c3d 0a0b f83d 6257 e53a 08fc f63c
00000230: 8f71 dd3b aeb6 8abc 190a 37bc a8cb 3b3c
00000240: 84c5 b43c e30a 69bd 504e 19bd b88f 423d
00000250: 7f5c 3f3d 1084 99bb 3723 24bd 5a3b 843c
00000260: ed28 013c 639e 323c 9fc3 8d3c 1e25 c5bb
00000270: 4abf 21bc a911 a73c 055f 09bc 5a98 5d3c
00000280: 2157 58bd e080 1bbd 2a9a 1fbd 67c4 19bc
00000290: 5fca d3be 96e4 87bb a6be 89bd 035e 0fbb
000002a0: 3b9d 55bd 72dd 913c ca7d 65bc 286a 9dbd
000002b0: 37c9 a9bc 193c 133d cd61 3f3d d170 c03c
000002c0: 59a7 773b 6f0e 7d3c 6230 c83b 53ae f03c
000002d0: 6166 b9bd 8182 39bb 2992 a7bd 50f1 2abd
000002e0: 2c7c bdbc bac4 edbc e340 343d 17d1 ff3a
000002f0: a44b 5c3d 3a90 0abd 18fd 23b7 beb6 17bc
00000300: fa71 ad3c 3713 533d 8827 403d 203a c93c
00000310: cd3e 713a f3ae bdbe 0c82 9e3c bfb1 533d
00000320: f69d 65bd 75a4 46bd 17c9 093b 258d d3bc
00000330: f198 443c 3fe8 2b3d 5579 413d 6baa f93c
00000340: 270e 023c 3d40 5a3c 0f94 9fbc f3ae 273c
00000350: 3623 54bb be0b 87bd ff39 51bd 647e 87bc
00000360: f951 59bd 3c20 eebc c390 843a 1ba4 4f3b
00000370: cd19 c4bc 9115 2a3d cad3 0dbc 740d 4dbc
00000380: c903 b23a 9647 c73c b5ef 8e3d 7f70 2fbd
00000390: d52e 39bd ade8 2c3c 0fac e3be 167f a2bd
000003a0: 715e 8e3d efe6 a8bd c6f9 db3c d531 81bd
000003b0: bce1 6bbd 62ce 88bd f545 333d 81f9 953d
000003c0: c935 183b 6445 013d acd3 23bd 4ef9 873d
000003d0: 8b7a 1b3d ab12 b8bd 7916 243d 2516 933d
000003e0: 85bc 48bc d608 d03d 14fc 9d3c 7ae2 cb3c
000003f0: a895 13bc e5ba 44bb 2b37 153d ee26 80bd
0.03899351 0.044092137 0.015352014 0.08178945 0.0034881546 0.061629985 -0.081646375 0.0035955152
-0.00063639914 0.027151732 0.022017501 0.020601498 0.004202827 0.01327032 0.09066318 -0.11111623
-0.07153483 -0.016181467 -0.03407473 -0.0042156116 -0.01698238 -0.002483736 0.030877953 0.035312228
0.023651065 0.003208352 0.061510604 -0.018651329 -0.03871352 0.049657613 0.014981895 -0.028602464
-0.10452775 -0.061201956 -0.0016069262 0.0096591385 0.040773902 -0.011172182 0.026456948 0.00082960154
-0.0036674212 0.00978516 -0.03171157 0.025137436 0.010667267 -0.0422687 0.06546928 -0.037879616
-0.016150206 -0.04011342 -0.029049478 -0.0506731 -0.031662963 -0.051656693 0.032254957 -0.030524572
0.02533853 0.0100684 -0.01383663 0.014166623 0.021280853 -0.06659066 -0.041183244 0.019734457
-0.01141451 0.40688062 0.08093575 0.17801932 -0.07640785 -0.0399262 0.09679484 0.2050107
0.06806633 -0.08106175 -0.03234844 -0.020597802 0.035914507 0.028929781 0.06513303 -0.03431488
0.14589252 0.035356227 0.030415053 -0.031260766 -0.049545877 -0.025168959 0.012716627 0.04560642
-0.017915022 0.021521658 0.0925897 0.04910905 0.024978084 -0.034207743 -0.020535666 -0.0341386
-0.027281249 0.04606835 -0.13882002 -0.15495917 0.038174193 -0.017266389 0.013695132 -0.0796949
-0.07076754 -0.006910246 -0.008981229 -0.07006452 -0.023504585 0.021370081 -0.02026196 -0.019677352
0.047214743 0.0128304595 0.015152949 -0.076425254 0.04209475 0.01706491 -0.018558348 -0.009741672
0.014168199 -0.010873259 0.028545843 0.01917436 0.004557875 -0.027608667 -0.023793874 -0.05455246
-5.0628187e-05 -0.015047547 -0.0005188525 0.344628 0.111308925 0.060843755 -0.024031257 0.02755625
0.076524384 0.121114805 0.0017497356 0.030149475 0.006757922 -0.016932812 -0.011171841 0.01146213
0.022066839 -0.056895148 -0.0374282 0.047500342 0.04671907 -0.0046849325 -0.040072646 0.016141582
0.007883293 0.01090202 0.017305193 -0.0060163876 -0.009872267 0.020394163 -0.008384471 0.013525093
-0.052817468 -0.0379647 -0.03896538 -0.009385205 -0.41365334 -0.0041471226 -0.067258164 -0.0021876104
-0.0521519 0.017805789 -0.014007041 -0.07686263 -0.02072583 0.035945985 0.04672413 0.023491295
0.0037788956 0.015445336 0.0061092833 0.02938 -0.0905273 -0.0028306546 -0.08182175 -0.04173404
-0.023130499 -0.02902447 0.044007193 0.001951727 0.053783074 -0.03382895 -9.774485e-06 -0.009259878
0.021172512 0.051531997 0.0469127 0.024563849 0.00092027785 -0.37047538 0.01934912 0.051683184
-0.056058846 -0.048496682 0.00210244 -0.025824139 0.011999355 0.041969534 0.047234852 0.03047677
0.0079379445 0.01332098 -0.01947978 0.010234582 -0.003236962 -0.065940365 -0.0510807 -0.01653976
-0.05305669 -0.029068105 0.0010113943 0.0031683508 -0.023938084 0.041524474 -0.0086564515 -0.0125154145
0.001358145 0.024326127 0.06979314 -0.042831894 -0.045210678 0.010553521 -0.44467208 -0.07934396
0.06951607 -0.08247172 0.0268525 -0.06308333 -0.057588324 -0.066799894 0.043767888 0.0732298
0.0023225418 0.031560317 -0.039996788 0.06639348 0.037958663 -0.08987936 0.040060494 0.07181958
-0.012251978 0.10157935 0.01928524 0.024888266 -0.009007849 -0.0030018624 0.036429565 -0.06257425

fc1.bias f4 [400]
00000000: 3b8a a4bd 7f25 93bd 8660 2d3e cbfe e13c
00000010: 5609 18be 7e4b 1ebe 15d1 19be a85e 01be
00000020: 2a3d d7bd f77f bdbd 538a 043e 7780 92bd
00000030: 58e4 233e 52fa 22bd 0c1a 10be 3fb4 82bd
00000040: be01 9fbd 5026 f5bd 31e0 25be 453a c43b
00000050: 97e3 09be df5d 4dbd b9e4 3abd fa9a cdbd
00000060: 0129 d7bb 8311 0abe 662a 68bd 4ed0 1d3e
00000070: deb6 243e cd39 723c ad51 253d a1a0 1e3e
00000080: 1562 2b3e defc a7bd c499 e03c 179b 10bd
00000090: 0500 f5bd 712c 1e3e ae4e 0d3e 53d3 fe3b
000000a0: 07a5 133e 9ea7 3e3d 85a3 eb3d a8e1 963d
000000b0: e4bd a83d aba9 7d3d 60ee b23d 264a 1c3e
000000c0: c934 8c3d f66e e3bd 5f24 833d 33d7 313e
000000d0: 62de 133e a26a e03d 8320 88bd 8229 303e
000000e0: 7887 013d 5e58 c0bd 5d51 d4bb 4c81 013e
000000f0: d1d0 23be c796 22bd 17d7 043e 6add 42bd
00000100: 6ec6 8fbd 6e8e 41bd 3c9c 693d 828d 09be
00000110: 1f84 b33c f09e 373d 3b5b 3c3d 4426 70bb
00000120: 0a9d af3d 29de 29bc 3c00 0a3e 122c ec3d
00000130: adf7 f5bd 7e1e 0cbd b295 0a3e 8c88 8fbc
00000140: 7da6 59bd 54b7 32bc 8b90 23bd d2dc 79bd
00000150: 841c 1e3d 7846 163e 27b6 ce3c 39c0 c83d
00000160: 929a 093e 6faf e7bd f574 fdbd 4227 d2bc
00000170: 0048 543d 1ef2 acbc 481f a7bd eb83 f5bd
00000180: de54 9c3b aa97 043e 9c36 fc3b ffdf 293e
00000190: d710 a9bd 42a3 243e 81b1 e4bd b568 0d3e
000001a0: 99e2 9b3c e82b 313e 5ebd 293e 4c9b 72bd
000001b0: 278f 52bc 9761 41bd 2b75 1f3d 82db afbd
000001c0: a646 26bd de0b d8bd 38ff d83d 6cba 0c3e
000001d0: 589e 9d3c d91d b7bb 46c2 05be 465f 22be
000001e0: 8596 09be bcda 03be f0d6 12be aef8 a63d
000001f0: 64d5 07be 283f aa3d 4438 ed3d b77c 4aba
00000200: f93a 293d a243 de3d 3ae4 21be d7d9 193e
00000210: b489 2f3e 31df 293e 4241 8bbd e3f2 da3d
00000220: 2810 83bd 12c5 dd3c 3026 153e 3e12 163d
00000230: 260c 823d a94c 3dbd 1d3b a9bd 2f9a 113e
00000240: 7b02 21be 01a0 f93c 745b 89bc 28c6 48bd
00000250: b5d9 2dbe 437a d3bd ab6e cbbd b837 d63c
00000260: af39 8b3d 181d 22be 6f16 89bd accd 29be
00000270: 62b9 f33d 70c6 23be 291c bfbc be58 cbbc
00000280: edba c3bd 420f 003e 1192 983d a0c9 b93d
00000290: 9416 fb3d 1ac1 b2bd b192 ac3d 2718 103e
000002a0: dba1 23bd fb87 72bc 7b99 863c 1212 2fbe
000002b0: ca97 97bc fc44 abbc 2eb3 01be fa75 023e
000002c0: c4d9 1cbe 7ba5 8dbd c1a9 d13d db92 dd3c
000002d0: 2720 913d a52e f23b fc80 25be ebc5 ffbd
000002e0: 7cc5 71bd c572 efbd 4e0e debd 33c6 65bd
000002f0: f2b2 1e3e 5a4a 0a3e 9453 0f3d 94dc e4bd
00000300: ca7e d6bd 414e 2e3e 0c5d b03c 12df 9f3c
00000310: 1b2b cabd 42c6 b5bd 823f af3d 08ba 74bc
00000320: d692 94bc 42f5 afbd 2f19 04be 1dd0 e5bd
00000330: f425 30be 4165 233e 6297 d13c 469a c53c
00000340: 34da 053e 72f2 b23d 8cab d0bc f7b8 dc3d
00000350: d706 463b dffc 2dbe 5e4b 103e 94a1 d2bd
00000360: 94b6 06be b04b 24bd fcd8 2d3d e259 0c3e
00000370: 7468 30be 38da 26be 1262 edbd 2d4a d0bd
00000380: dc3f 2f3e 5af7 1bbb 025e 013e 27b6 493d
00000390: 564c d03d c94d b8bd 06f6 9a3d 7374 803d
000003a0: 1e9e 753d d305 06be 73dd 74bd 6f62 173e
000003b0: d928 1cbd 3b6b 01be dae0 16be 94f7 0fbd
000003c0: 905b a53d a58e 52bd 4b00 fe3d 95c8 973d
000003d0: 2a8d 0ebe e3ca 003b 8f7f 223e 128c dd3d
000003e0: dd35 80bd 813f 04be 4dda 373d b436 ab3d
000003f0: 1daa 12bd 61f6 17be bb36 2c3e 0828 ac3d
-0.08034178 -0.07184886 0.16931352 0.027587315 -0.14847311 -0.15458485 -0.15021165 -0.12633765
-0.10509713 -0.09252923 0.12943392 -0.07153409 0.16005075 -0.039789505 -0.14072436 -0.063820355
-0.07764004 -0.11970198 -0.16198803 0.0059883916 -0.13465725 -0.05013835 -0.045628283 -0.10039325
-0.0065661673 -0.13483243 -0.05668106 0.15411493 0.16085383 0.014784289 0.040361095 0.15490963
0.16736634 -0.082025275 0.027417071 -0.035304155 -0.11962894 0.1544664 0.13799545 0.0077766567
0.14418422 0.04654657 0.11505798 0.07367259 0.08239344 0.061929386 0.08736873 0.1526266
0.068460055 -0.111051485 0.064034216 0.17367248 0.14440301 0.109578386 -0.06646826 0.17203334
0.031623334 -0.09391855 -0.006479426 0.12646979 -0.15997626 -0.039694574 0.12972675 -0.04757444
-0.07020269 -0.047254972 0.057033762 -0.13432887 0.021913586 0.04482931 0.04598544 -0.0036643902
0.08574875 -0.0103679085 0.13476652 0.11531843 -0.12010131 -0.034208767 0.13533667 -0.017521165
-0.05313729 -0.010907967 -0.03993277 -0.061001606 0.038601413 0.14675319 0.025233341 0.098022886
0.1343787 -0.11312758 -0.123758234 -0.025653485 0.051826477 -0.021111544 -0.08160263 -0.11988052
0.004770859 0.1294848 0.0076969396 0.16589354 -0.08255165 0.16077903 -0.11166669 0.13809474
0.019028949 0.17301905 0.16576144 -0.059230134 -0.012851513 -0.04721221 0.0389301 -0.0858679
-0.04059472 -0.105491385 0.10595554 0.1374299 0.019240543 -0.005588275 -0.1306239 -0.15856656
-0.13436325 -0.1287641 -0.14339805 0.08152901 -0.13264996 0.08312827 0.115829974 -0.00077242724
0.041316006 0.10852744 -0.15809718 0.15024506 0.17142373 0.16589047 -0.06799556 0.10690858
-0.06399566 0.02707151 0.14565349 0.03663849 0.063499734 -0.046215687 -0.08263228 0.14218973
-0.15723602 0.030471804 -0.016767241 -0.0490171 -0.1697758 -0.10326054 -0.099332176 0.026149616
0.06798112 -0.15831411 -0.06693732 -0.16582364 0.11900593 -0.15993667 -0.023328857 -0.024822589
-0.09557138 0.1250582 0.07449735 0.0907166 0.12260166 -0.087282375 0.08426417 0.14071713
-0.03994928 -0.014802928 0.016430607 -0.17096737 -0.018504996 -0.020906918 -0.12666008 0.12740317
-0.15317446 -0.069163285 0.10237456 0.027047565 0.07086211 0.0073908144 -0.16162485 -0.12488922
-0.059026226 -0.116918124 -0.10842572 -0.05609722 0.1549795 0.13504925 0.034991816 -0.111748844
-0.10473402 0.17022039 0.021528743 0.019515548 -0.09871503 -0.08875705 0.08557035 -0.014936931
-0.018136423 -0.08591701 -0.12900232 -0.11221335 -0.17201978 0.15956594 0.02558488 0.024121415
0.13071519 0.08737649 -0.025472425 0.10777467 0.003021648 -0.16990994 0.1409125 -0.10284725
-0.13155586 -0.040111244 0.04244326 0.13706163 -0.17227346 -0.16294181 -0.11590971 -0.10170398
0.17114204 -0.0023798556 0.12633517 0.04924598 0.1017081 -0.08999211 0.075664565 0.06272211
0.059965245 -0.1308816 -0.059781503 0.14783643 -0.038124893 -0.12638561 -0.14734212 -0.03514822
0.08074105 -0.051405568 0.124024 0.07411305 -0.13921037 0.001965218 0.15868972 0.10817732
-0.062602736 -0.1291485 0.044885922 0.08360043 -0.035806764 -0.1484008 0.16817753 0.08406073

bn1.weight f4 [400]
00000000: b6ac 7d3f d270 a53f eee1 8a3f 6b23 9c3f
00000010: 9bf5 a43f eef0 a33f 7be9 a83f 23cf 893f
00000020: 6084 903f ed4e 8c3f 2626 823f 1036 8c3f
00000030: 2da1 8f3f abb9 8c3f 40a4 b03f 4169 873f
00000040: 5e8c 8d3f a17e 8d3f f044 9d3f 4d4a 933f
00000050: 3d67 a63f 352a 7b3f 43cd 9c3f 8772 8c3f
00000060: 086e 8c3f f21e 983f 91e6 ac3f 5581 843f
00000070: 41bb 9d3f d28c 983f dd89 ab3f 76fa 853f
00000080: b512 903f 370a 853f 9dbe 943f fdca 993f
00000090: 362e 993f 1080 863f 54c1 873f c658 973f
000000a0: 99b3 9b3f 856f 8b3f 3929 9a3f c5a5 8d3f
000000b0: fa9f 953f 7292 8e3f eacc 993f f96d 9f3f
000000c0: e7f1 a83f 8313 843f e6a5 933f 46c0 9a3f
000000d0: c4f1 913f 6e23 9e3f 83c5 973f d5d6 973f
000000e0: 62a6 a83f f9cc 9d3f f37e 8d3f 5abf 8f3f
000000f0: 3fb2 943f 3f10 ae3f b72f 833f 0fab 9f3f
00000100: de5c 923f a3e2 8b3f 5259 8f3f 0ed5 9a3f
00000110: 915b 973f ffe9 8f3f 3dde 8c3f e82d a23f
00000120: db32 913f 9507 863f 591b 8d3f a294 9d3f
00000130: 93aa a03f 1108 8d3f b7aa 8c3f 1f11 b83f
00000140: db0a a83f 179a 8f3f c23d 873f e3ed 963f
00000150: b080 8f3f bf9d a23f 4f83 813f 496e 8d3f
00000160: abdd 813f da9b c43f b3a6 8f3f 166b 8f3f
00000170: e2db 973f 020f 8a3f 166c 8c3f dc98 8d3f
00000180: 4ca6 8f3f 0fff 823f 124b 833f b534 a13f
00000190: 00f7 913f 1ad1 953f dafa 873f 2399 b13f
000001a0: 6639 8c3f 33a3 943f 5dcb 893f 1a42 9b3f
000001b0: 6b48 b13f 8cbc 863f da42 973f aa17 8f3f
000001c0: 0834 803f b73f 883f 85e0 8a3f a1f4 843f
000001d0: 146f 8b3f 9cad 983f e497 903f c7aa 823f
000001e0: 81ac 813f 39ef ab3f 4dd1 993f 5560 843f
000001f0: 5ebf 853f fdd7 a53f 4f4e 8a3f e60b 973f
00000200: 50b0 a83f 7a36 8e3f b90f a93f b116 8d3f
00000210: 4af1 963f 21c8 a63f 9ea5 763f 0216 963f
00000220: cf1f 973f 12f7 823f 8edb 913f 15d7 b03f
00000230: f680 963f 0eee 993f 3094 973f c683 8d3f
00000240: 689e 933f d70a 9a3f c761 8c3f 5f16 893f
00000250: ef42 8c3f 070f 8c3f d13f 883f af17 813f
00000260: e27a aa3f 5877 983f a8b5 713f 65dc 8d3f
00000270: 0a86 a13f 0aa2 883f 0ab5 943f ee59 953f
00000280: d526 8d3f 4177 8a3f e361 913f 84f9 893f
00000290: aa72 8c3f e094 963f 4a8f 863f 8b1f 883f
000002a0: 9871 873f e0cc 993f a4fd 913f 8581 873f
000002b0: 34a9 913f daf7 9d3f de19 973f f897 8a3f
000002c0: 89d1 973f 988b 9e3f 833b 913f b0f1 813f
000002d0: 253d 953f b7ac 933f acbd a13f 4769 8e3f
000002e0: df29 923f 0534 963f 5e82 973f 6fdc 883f
000002f0: 2eea 8f3f c13a a23f c8fc 953f 4a07 923f
00000300: b0e3 913f bdb6 883f a2fe 893f df01 9f3f
00000310: 1075 9e3f 3790 9c3f 51a7 893f 8044 883f
00000320: ad95 8c3f 6278 9b3f b2e9 893f 5eaf a83f
00000330: e9d2 913f 8c1f 9c3f 5fed 833f ec31 ab3f
00000340: 5028 873f 183a 913f 01a3 883f 6b78 893f
00000350: 5f65 9d3f 0514 923f 3395 a73f 91ad 9a3f
00000360: c4e9 8b3f 1cda 953f 8820 973f f6e2 933f
00000370: 0ea6 953f b68e a43f 4032 943f 040c 883f
00000380: 186b 993f 208d a13f 0532 843f 78d1 7e3f
00000390: 463a 953f ad62 a13f 088e aa3f 2f5e 903f
000003a0: 1024 9d3f 86e8 8e3f 598b 8c3f 066e 883f
000003b0: b146 8a3f 42d0 933f fbe3 993f 1cfd 8e3f
000003c0: 31b4 943f c98d 8c3f 385f 9d3f 54fa 8c3f
000003d0: c64e 9f3f efd3 a23f 599a 8e3f 3994 8a3f
000003e0: d835 903f b5c7 8e3f 636b 973f d84b 9c3f
000003f0: fd97 973f 1361 953f 1ea4 923f 34d6 973f
0.9909166 1.2925055 1.0850198 1.2198309 1.2887453 1.2807901 1.3196253 1.0766338
1.1290398 1.0961586 1.0167892 1.0953999 1.1221062 1.0994161 1.3800125 1.0578996
1.1058462 1.1054269 1.2286663 1.150705 1.3000256 0.9811128 1.2250141 1.0972451
1.0971079 1.1884444 1.3507863 1.0351969 1.232277 1.1917975 1.3401448 1.046706
1.1255709 1.0393742 1.162067 1.2015072 1.1967227 1.0507832 1.0605874 1.1823967
1.2164184 1.0893408 1.204383 1.1066214 1.1689446 1.1138442 1.201566 1.2455436
1.3198823 1.0318455 1.1535003 1.2089927 1.1401906 1.2354562 1.1857151 1.1862437
1.3175776 1.2328178 1.1054367 1.1230271 1.1616896 1.3598708 1.0248936 1.2474078
1.1434591 1.0928539 1.1199133 1.2096269 1.1824819 1.1243285 1.1005322 1.267026
1.1343645 1.0471064 1.1023971 1.2310984 1.2552055 1.1018087 1.0989598 1.4380225
1.3128313 1.12189 1.0565722 1.1791347 1.1211147 1.270439 1.0118197 1.1049281
1.0145773 1.5360062 1.1222748 1.1204555 1.1863978 1.078583 1.0970485 1.1062274
1.1222625 1.0234088 1.0257285 1.259421 1.1403503 1.1704438 1.0623429 1.3874859
1.0955017 1.1612304 1.0765187 1.2129548 1.3850225 1.052629 1.1817276 1.1179097
1.0015879 1.0644444 1.0849768 1.0387155 1.0893273 1.1927981 1.1296353 1.0208367
1.0130769 1.343238 1.2016999 1.0341898 1.0449026 1.2956539 1.0805148 1.1800506
1.3178806 1.1110375 1.3207923 1.102255 1.1792386 1.3029824 0.9634646 1.1725466
1.1806582 1.023165 1.1395128 1.3815638 1.1758106 1.2025774 1.1842098 1.1055839
1.1532717 1.2034558 1.0967339 1.0709952 1.0957927 1.0942086 1.0644475 1.0085353
1.3318751 1.1911421 0.9441781 1.1082884 1.261903 1.067445 1.1617749 1.1668069
1.1027476 1.0817643 1.1357998 1.0779271 1.0972493 1.1764183 1.0512478 1.0634626
1.0581541 1.2015648 1.140553 1.0586401 1.1379762 1.2341263 1.1804769 1.0827627
1.186082 1.2386351 1.1346287 1.0151882 1.1659285 1.1537083 1.2636008 1.1125878
1.1419028 1.1734625 1.183666 1.0692271 1.1243341 1.267418 1.1717768 1.1408474
1.139761 1.0680767 1.0780833 1.2422446 1.2379475 1.2231511 1.0754186 1.0645905
1.0983177 1.2146113 1.0774443 1.3178518 1.139249 1.2197127 1.0306815 1.337461
1.0559177 1.1345854 1.0674745 1.0739874 1.2296561 1.141236 1.3092407 1.2084218
1.0930715 1.1707187 1.1806803 1.1553638 1.1691301 1.2856052 1.1577835 1.0628667
1.1985807 1.2621193 1.0327765 0.99538374 1.1658409 1.2608238 1.3324594 1.1278743
1.227663 1.116471 1.0980026 1.0658576 1.0802823 1.154793 1.2022699 1.1170993
1.161749 1.0980769 1.2294683 1.1013894 1.2445915 1.2720927 1.1140853 1.0826484
1.1266432 1.1154696 1.1829647 1.2210646 1.1843258 1.167025 1.1456335 1.1862245

bn1.bias f4 [400]
00000000: 19d6 d7bd 3227 e93d 729b a5be 28fc ee3d
00000010: 0495 acbd 136c d03d 603e 46be 823c 97be
00000020: 315d 1fbe 6864 43be f99a 54be ed83 02be
00000030: 77a3 b0be 7876 873d 29f3 113a 0be6 4e3d
00000040: 5b02 4dbe 9b4c 86be 0e77 08be 6b21 0cbe
00000050: 4bf8 26bd 41a1 42bd 49a6 38be a656 6fbe
00000060: 9f07 073e 04be 04be 8a0d 473c 66f2 10be
00000070: 66ae 31be 31a4 38be 61ce 033e fca9 14be
00000080: 784d 94bd 5095 71bc 8ee3 29bd f373 a9be
00000090: aefc 2b3e a410 1fbe 5323 49be 6d44 0e3d
000000a0: 0189 d7bd 2a12 c5bd 8177 8abd 3708 83be
000000b0: 037a 29be a455 a4bd 7a75 92bc b4cb 62bd
000000c0: 5c27 48be fead 2abe 1315 3dbe 41ad 123e
000000d0: 937f 0b3e 208e 99bd aeeb 7a3c 165d 32be
000000e0: 283f 11bd 57b4 b13d ce4b d2bd 8f9d 1abe
000000f0: dc64 943e a5ad 69be b036 b4be 00c7 2abd
00000100: 4f13 17be 4d6b 04be f0c5 dcbd 94b8 02bd
00000110: 4bb2 a53d beb7 a3bc bce4 70bd 8d7c 1bbe
00000120: c6c4 25be 9c8d bebc 6d8d 0ebe 1e88 6dbe
00000130: 95ea 59bd c967 afbc f142 9dbd 5606 e0bb
00000140: 9c11 09bd f7d9 a4bd 787b 89be a39f 2abd
00000150: c5c1 8fbe 3e90 8c3d 77ff 3a3c 4e93 44be
00000160: f91a 1dbe c31b 42bd 988e b2bb 92ed 2bbd
00000170: b672 dd3c 68b3 c8bd af47 2abe ac98 f4bd
00000180: 5c3f 9d3d f020 443b e412 41be 1683 d139
00000190: ac3c 42be 3a16 c5bd 5299 903c cb70 af3b
000001a0: 24cc 44be 10b3 93bd 3421 ac3c 9464 dbbd
000001b0: 1f90 30be 4107 66be 5ee9 80be d132 0fbe
000001c0: 4a87 e13d e953 fd3b f1c1 acbe ff31 e0bd
000001d0: 9bca cebd 79f4 a9bc c224 01be 375c 52be
000001e0: 91af e23d 4eb1 0bbd af51 d0bd 9b0d 7fbe
000001f0: b0df 05be 4ae2 14be 6ce9 93be 467e ae3c
00000200: dc39 afbd d9fc 8fbd 59fd 62be 0779 aebd
00000210: a0e4 0b3b 986c afbd 1d22 94be 8616 113e
00000220: 3f71 50be 6443 233e 1296 92bd ef44 a63d
00000230: 993a 06bd cbb9 64be 908a 51be e08d 3ebd
00000240: 91a2 d4bd b5e3 1cbe 4fe5 213d 08ac d63d
00000250: aad3 9dbd 986b 60bc 9171 45be e15e d9bd
00000260: 6fb4 9abd 5523 8e3d a2fb 4bbd 0545 89bd
00000270: c4af b7bd 21fb ee3c ddd7 bd3d dfd0 59be
00000280: f2a6 5dbd b5ce d9bd 682b 11bd 9d36 02be
00000290: 6217 a03d f6b8 85bd ac3a 6fbe 0075 67be
000002a0: 4458 0bbd e063 72be 5bce cdbd b63d 1cbe
000002b0: dce5 983d 0f89 3bbd cb12 42be 6c34 2abe
000002c0: 2272 35be 2ae3 f83c f827 2f3e b4ce 66be
000002d0: f8d8 383d d0e5 72be 3944 b0bd a07b 21bd
000002e0: 42c5 84be 957b 2cbe 9bf3 d6bd a4e2 dcbd
000002f0: 8366 48be ef08 053e 3a57 843d 5999 3c3e
00000300: b65b 1ebe 4b0a 3abe e5f8 9ebc 56f1 b9bd
00000310: 5903 acbe acd8 91bd 0bce 95bd 3a91 aebd
00000320: c345 91be e479 b5bd 4674 6e3c 8ba9 1c3d
00000330: 9162 34bd a9ed 73bd c517 33be 4d55 d7bd
00000340: fd41 1cbe e971 77be a3ba 78be 9815 f7bd
00000350: 9035 17be b038 51be 7761 ae3d 47f4 dfbd
00000360: 238e 08be f6d3 17be 47c2 31be 8ff9 5bbd
00000370: 6565 82bd feb7 1fbe 9627 80bd b44c f33c
00000380: 44ee 01be cbd2 91bd 552d 7bbe e3a7 89bd
00000390: bee3 b03d 9d51 143e dcf0 6abe f92b 4e3d
000003a0: 87f6 793c fac1 1bbe 0494 00be 2a46 493d
000003b0: b76a 83be 71db 94bd f802 07bd 96dd d0bd
000003c0: 07c2 04bd d3a7 3ebe 978a e43d 6d80 1abd
000003d0: fbae ffbd 139f c1bc dbfe 67be f8b2 52be
000003e0: 0e0a b4bd fccc 94be 9276 da3c 81a9 cbbd
000003f0: 4585 39be 6f85 dfbd afae 813c 763e d1bd
-0.10538883 0.11384429 -0.32345158 0.11669189 -0.0842686 0.101768635 -0.19359732 -0.2953835
-0.15562893 -0.1908127 -0.20762242 -0.12745638 -0.34499714 0.06614393 0.0005567545 0.050512355
-0.2002043 -0.2623032 -0.13326666 -0.13684623 -0.040764134 -0.047517065 -0.18032183 -0.23372898
0.13186501 -0.1296311 0.012149224 -0.14154968 -0.17351684 -0.18031384 0.12871696 -0.14517969
-0.072413385 -0.0147450715 -0.04147678 -0.33096275 0.16795608 -0.15533692 -0.19642381 0.034733225
-0.10524178 -0.09622605 -0.06761075 -0.25592205 -0.1655045 -0.08024147 -0.017878283 -0.055370048
-0.19546264 -0.16667935 -0.1846507 0.14323904 0.13622884 -0.07497811 0.0153149795 -0.17418322
-0.03546062 0.08676975 -0.10268365 -0.15099166 0.289832 -0.22820146 -0.35197973 -0.041693687
-0.1475346 -0.12931557 -0.10779941 -0.03191431 0.08090647 -0.019985076 -0.058811888 -0.15184231
-0.16188344 -0.023260884 -0.13921137 -0.23196456 -0.05320223 -0.021411793 -0.07678784 -0.006836693
-0.03346406 -0.08049386 -0.26852012 -0.041656148 -0.28077522 0.068634495 0.011413447 -0.19196817
-0.1534232 -0.047389757 -0.0054491274 -0.04197461 0.027032237 -0.09799844 -0.16628908 -0.11943182
0.076781005 0.002992686 -0.18854862 0.00039961253 -0.18968457 -0.0962338 0.017651234 0.005354022
-0.19218498 -0.07211888 0.021011926 -0.10712543 -0.17242478 -0.22463705 -0.25178045 -0.13984229
0.110121325 0.00773095 -0.33741716 -0.10947036 -0.10097238 -0.020746456 -0.12611678 -0.2054299
0.11068643 -0.034104638 -0.1017183 -0.24907534 -0.13073611 -0.14539447 -0.28889024 0.021300446
-0.08555958 -0.07030649 -0.22166957 -0.08519178 0.0021345988 -0.085656345 -0.28932276 0.14168748
-0.203557 0.15943676 -0.0715753 0.08118617 -0.032770727 -0.223365 -0.20463014 -0.04652202
-0.103825696 -0.15321238 0.039525326 0.10482031 -0.07706387 -0.013697527 -0.19281603 -0.106138
-0.07553946 0.06940333 -0.049800523 -0.067026176 -0.089690715 0.029172482 0.09269688 -0.21271084
-0.05411429 -0.10635129 -0.035441786 -0.12716146 0.0781696 -0.06529419 -0.23362225 -0.22603226
-0.034019724 -0.23670912 -0.10049125 -0.15257916 0.07465717 -0.045785006 -0.18952481 -0.1662156
-0.1771932 0.030381758 0.1710509 -0.22539788 0.045128793 -0.23720479 -0.086067624 -0.03942454
-0.25931746 -0.16844018 -0.10495683 -0.10785416 -0.19570355 0.12991689 0.0646195 0.18417872
-0.15464672 -0.18167989 -0.019405792 -0.09079234 -0.33596304 -0.07121405 -0.0731469 -0.085237935
-0.28373536 -0.088611394 0.014554089 0.038247626 -0.044039313 -0.059552822 -0.17489536 -0.10514317
-0.15259548 -0.24164547 -0.24289946 -0.120646656 -0.14766526 -0.20431781 0.08514684 -0.10935264
-0.13335471 -0.1482695 -0.17359267 -0.053704794 -0.06366996 -0.15597531 -0.062575504 0.02969966
-0.12688547 -0.07120284 -0.24529012 -0.06721475 0.086371884 0.14484258 -0.22943443 0.050334904
0.015256531 -0.15210715 -0.12556463 0.04913918 -0.25667354 -0.072684176 -0.032961816 -0.10198514
-0.0324116 -0.18618707 0.111592464 -0.037720133 -0.12484547 -0.023635423 -0.22655813 -0.20576084
-0.0879098 -0.2906264 0.026667867 -0.0994444 -0.18117245 -0.10914122 0.015830366 -0.102169916

bn1.running_mean f4 [400]
00000000: 9aeb e2be 3a3f f33d d280 64bf f2b5 bfbd
00000010: d55f 83be 2f25 05be 3c0a e3be e598 863b
00000020: bc8c de3e 2359 5bbe 7856 3d3f 115e af3f
00000030: fa5d e9be bd61 ca3e 8795 92be 5c14 333e
00000040: dd15 94be a131 dc3e e644 abbe 6ff7 0c3f
00000050: 9c2e 5bbd 7d7e 3f3f 90cb 69be c681 cebe
00000060: 8c9f bc3e 999c d1be b419 ebbc 8bf6 b93e
00000070: abd9 edbd 364c 06bf f6a8 2d3e 7e76 013f
00000080: fad8 b23e 800f 8b3e a8e2 0abf 57cd 34bf
00000090: b123 a9bc dac1 703f b7d9 b53e 64ef e5bd
000000a0: 09e9 653e bf32 c0bb 2766 63bd 8b01 143d
000000b0: 7c19 933e 499a 313d c632 42be 0086 29bf
000000c0: e359 023f e85e 46bf 84fd dcbe 5af0 b53e
000000d0: 0c1d 283f 8629 813e 38e8 e7bc aee5 6c3f
000000e0: be07 46bd 165e ec3d 0d57 453f d254 1f3f
000000f0: 0e90 373f 50bc ec3e 1d15 ca3e d2c1 06be
00000100: c3f7 d4be caa5 debe 55a5 debc bf8e 093e
00000110: 63db 233f 429f 64bd 18ab 63bf 9537 bcbe
00000120: 2747 febc f067 9c3e 4cb9 373e b2ce 583e
00000130: 4299 6dbe cae6 483e 7229 55bf 62a3 eebd
00000140: e782 d7bd 3d9f 33be 36c3 59bd 9891 143e
00000150: 45db 87bf 0c82 e23e 5a04 493e 94ce dfbe
00000160: 7c34 44be 0d99 6bbe 2996 a23d e35d 77bd
00000170: b513 193f cd11 b5be 57e0 46bd 5485 57be
00000180: 160a 923e a714 d33e 4ff7 6bbf 348e 143f
00000190: 24da 38bf ed0e 903e 6fa3 c6bc 3674 a63d
000001a0: 1b36 133f f872 c03d 3b78 f93e fc2a 2a3e
000001b0: 1b03 25be dd05 b43d 4b8b eb3e 8411 67bf
000001c0: 2b41 ee3e d4fc ca3e 9924 3abd 3718 9f3e
000001d0: e979 343f f90c 85be 878e 2fbf b967 ef3e
000001e0: 2e5a d83c 4ec4 39be edc7 edbd 926b 0dbf
000001f0: 3e4a 513e 5bfe fb3e a87c dc3d bfa6 b03e
00000200: abde b03d 221e 1a3f 4f84 4fbe 3a36 963e
00000210: 3653 313f c277 c6bd 5a33 043f db81 d73e
00000220: fb52 a0be 2f8a 573e 9895 85bd ced4 653e
00000230: 73ed e33e f8c9 28be 92e1 003e cfde 673f
00000240: b1bf 00bf 98d4 903e 2d77 fabd 4089 ed3d
00000250: 9115 7cbf 9be3 603e f459 2b3d e586 17bf
00000260: 2cbb 983e d515 48be 65ba 73be 4582 36be
00000270: ac98 90be b44c 82be 8f87 403f cbde 8ebf
00000280: 4f96 fd3e 658a 233f 3768 473e ec92 9dbd
00000290: 0a21 183f 0239 6a3e 3480 303e 96d6 5e3e
000002a0: 5a5e 19bb e996 75be 7287 8e3e 95cc c23d
000002b0: 0e0e 7a3e 5869 443e c49d cabe f989 823e
000002c0: 3332 3abe ff6c 893d ee18 c03d e379 813e
000002d0: b3cd cd3d 900d 083e 7b68 edbe e7b5 d2be
000002e0: 28b8 e2bd 9424 f2be d88e f2be 2cc3 953d
000002f0: b601 b43e d619 d33e fa7c bfbd 513f 2c3f
00000300: 79d1 22bf b7ef fa3e 3006 023f 068f bf3d
00000310: e4a3 0f3d eb77 3fbd c879 5e3c 0bf9 1e3d
00000320: 409d bd3e 19a1 a83b 1666 153e 5850 52be
00000330: 1cc7 37bf 6343 d1ba 265f cc3d 9596 2abe
00000340: 4237 e2be 940e 0abf fa67 a4bd c704 2bbd
00000350: 809a 6d3e 35c6 93bd 6992 6dbd d795 04bf
00000360: b2cb a4be 5634 083b 620b c83e 5e11 2b3f
00000370: 2388 8dbe bc65 4bbc 2aa9 873d 36ce 19be
00000380: 51d8 92bd de4b 693b 261d 053e 43a3 11bf
00000390: d6a7 b83e 1857 9f3e f0a6 833e 6b94 163e
000003a0: cac0 71be c389 08be c0ab 10bf 83fa a83f
000003b0: 4902 c13a ea6d 55bf 353f 03bf 8e16 183f
000003c0: a7bc 0d3f bc0f c0be 9eeb ec3e f334 4a3f
000003d0: fb5a 923d c68d 6ebe eed1 24bf f0ab c6be
000003e0: 0a11 05be cb0b b0be 8f41 4dbe 4e6d c23d
000003f0: 1423 3bbe 2cc3 08be 7c81 d63e 83e3 953d
-0.44320375 0.11877294 -0.89259064 -0.09360875 -0.25659052 -0.13002466 -0.44343746 0.004107582
0.43466747 -0.21420722 0.73960066 1.3700582 -0.4557951 0.39527693 -0.28629705 0.17488235
-0.2892293 0.43006614 -0.33451003 0.55065054 -0.053511247 0.7480238 -0.22831559 -0.40333384
0.36840475 -0.40939787 -0.02869878 0.3632091 -0.116137825 -0.5246004 0.16958985 0.5057143
0.34931165 0.27160263 -0.542521 -0.70625824 -0.020646902 0.94045794 0.35517666 -0.11227301
0.22452177 -0.0058654244 -0.055517342 0.036134284 0.2873038 0.04336003 -0.18964681 -0.6622009
0.50918406 -0.77488565 -0.43162167 0.35534936 0.6566932 0.25226992 -0.028308973 0.92537963
-0.048347227 0.11541383 0.77085954 0.622388 0.71704185 0.4623742 0.39469233 -0.13159874
-0.41595277 -0.43485862 -0.027178446 0.1343336 0.6400663 -0.055815943 -0.88932943 -0.36761156
-0.031039787 0.30548048 0.17941779 0.21172598 -0.23202994 0.19619289 -0.83266366 -0.116522565
-0.105230145 -0.17541213 -0.053164683 0.14508665 -1.0613791 0.44239843 0.19630566 -0.43712294
-0.19160646 -0.23007603 0.07938797 -0.06039227 0.59795696 -0.35365143 -0.04855379 -0.21046954
0.2852332 0.41226694 -0.9217424 0.58029485 -0.72207856 0.28136387 -0.024247853 0.08127634
0.57504433 0.093969285 0.4872454 0.1661796 -0.16114466 0.08790181 0.4600471 -0.902611
0.46534094 0.39646018 -0.04544506 0.31073162 0.7049852 -0.2598646 -0.68576854 0.46758822
0.026410189 -0.1814129 -0.116103984 -0.55242264 0.20438477 0.49217495 0.10765964 0.34502217
0.086362205 0.6020223 -0.20265315 0.29338247 0.69267595 -0.09690811 0.51640856 0.4209126
-0.3131331 0.21048807 -0.06522673 0.2244446 0.44517097 -0.16483295 0.12586048 0.90574354
-0.502925 0.28287196 -0.12229762 0.11598444 -0.9847041 0.21961825 0.041833833 -0.5919021
0.298303 -0.19539578 -0.23801573 -0.17823131 -0.2824148 -0.25449145 0.75206846 -1.1161741
0.4952874 0.6388305 0.19473349 -0.07694039 0.59425414 0.22873309 0.17236406 0.21761546
-0.0023402185 -0.23983349 0.27837712 0.09511677 0.24419424 0.1918081 -0.3957349 0.2549589
-0.18183212 0.067102425 0.09379755 0.25288305 0.10049 0.13286424 -0.46368775 -0.41154405
-0.11070281 -0.47293532 -0.47374606 0.07312617 0.35157555 0.4123065 -0.09350009 0.67284113
-0.6360088 0.49011013 0.5079069 0.093534514 0.035068408 -0.046745222 0.01357884 0.038811725
0.37034035 0.0051461575 0.14589724 -0.20538461 -0.7178819 -0.0015965517 0.099790856 -0.16659005
-0.44182783 -0.53928494 -0.080276445 -0.041752603 0.23203468 -0.07215539 -0.058000956 -0.5179114
-0.32186657 0.0020783148 0.39071184 0.66823375 -0.27642927 -0.012414392 0.06624062 -0.1502007
-0.07170165 0.00355982 0.129994 -0.5688974 0.3606555 0.31121135 0.257133 0.14705054
-0.236087 -0.13333802 -0.5651207 1.320145 0.0014725412 -0.8337084 -0.5126832 0.59409416
0.55365986 -0.37512004 0.46273512 0.78987044 0.071462594 -0.2329627 -0.6438283 -0.38803053
-0.12994781 -0.34383997 -0.2004454 0.094935045 -0.182751 -0.13355702 0.41895664 0.07318785

bn1.running_var f4 [400]
00000000: b0a0 353f cdf4 ad3e 3dcd 293e ae3e 183e
00000010: fd5d d73d c402 e73d 431d c93d b319 9b3e
00000020: 0f48 c03e 24dd a93e c3b7 cb3e 6324 073e
00000030: 504c a93d a4fe af3d 5804 953d 9224 973e
00000040: 859c db3d 89c3 9f3e 30e5 ed3d c0eb 493e
00000050: ed18 883d b17a 8c3e 54f0 fa3d d65e 423e
00000060: 64f1 dc3e 6cb7 d83c bc81 183e 3f40 9a3e
00000070: dd86 c13d c8bb 083d 08fd 8f3e d6c0 223e
00000080: 968b 1c3d 697e f13e 2ba0 ba3e b782 c33d
00000090: ecbf 083d a19f 083f c404 153e c03a f83d
000000a0: 7211 233e 0215 8c3e 27c7 4e3e 3596 1e3e
000000b0: b106 973d e079 7c3d 8787 d33d 632a 453e
000000c0: 7aa9 0a3e 028d 873e de47 993e 541f 323d
000000d0: 5933 b23e b9fc 913e d374 db3c df5e d73d
000000e0: 543b 8e3d 5b8d 473e 5155 333e fb40 833e
000000f0: 2bf4 b33d f77f ff3d 5ad8 af3e 8f56 cc3e
00000100: 3a84 533e ed30 883d c882 f73d 137d 053e
00000110: d411 6f3e 99d9 2d3e 47f0 833e d513 3f3d
00000120: f358 483e 8316 113e 3ce4 8a3d 7f5c c93d
00000130: fefc f13d aa22 be3e b158 0b3e bc18 c53d
00000140: 69e5 273e 0bc8 313d 34b5 df3d 4255 163e
00000150: 1327 ce3d 542d 253e a71a 243f 32c2 b13d
00000160: 98e9 a43e 4815 4a3e 1319 283f e94c 093e
00000170: a15b 593e 135e 1a3e 5b50 4f3e 013b 153d
00000180: 07c2 483e b744 b93e ee8b 523e f98c c33d
00000190: b985 453e e914 9a3d e9ba 013e 6e43 433e
000001a0: 1cee e53e 691b e23d c16a 3a3e 70af 493d
000001b0: 5881 973e bc82 013f 05a0 b13d 97da 223e
000001c0: ec5f af3d 7d47 283e 9846 793e 6124 933e
000001d0: ff65 a33e 2622 4a3d aa55 003f 479a a03e
000001e0: f160 2a3e 5d71 253e 6698 a73e c99b 193e
000001f0: 29b4 a33d 7b4c 0f3e a092 583e 3cc1 f93d
00000200: b735 9c3e 2ab0 283e 0475 7c3d 94c1 133e
00000210: 816a 6e3d 4921 de3e 1435 263e d640 8d3d
00000220: d6e2 eb3d f397 ef3e fbcd 023e 9d0c 893e
00000230: 51aa 833d de6a 653d 19cc d33d f1b4 593e
00000240: 88b6 c63e 1019 2c3e 08c3 093f a36f 1c3e
00000250: 02da b03d 723d ec3e a7a6 b23e c8c6 223e
00000260: 1def 413e 37c4 633d 4ef0 f93e 18af 203e
00000270: 660d 5a3e 49ae 523f 6750 e13d 2fde 143e
00000280: 1e8e 1b3e 0126 673e 9620 8d3e 6004 4c3e
00000290: 0d75 a33e 1a4e fc3d 4aca c23e b6a8 593e
000002a0: 04b1 713e 490e cb3d 81af cd3e 61cc 463f
000002b0: 1569 363e 5f01 323e 2385 073f b41d 433e
000002c0: 86f4 843e 1d56 913d 3b39 313d 751b 9a3e
000002d0: 5d69 f23d 84a5 fa3d 2794 8e3e 219b 823e
000002e0: 3ee5 e13d 2d83 833e 966d 263e 85e1 803d
000002f0: 0280 4d3e 468c af3e 3559 f53e 6e1f 9e3e
00000300: 0d86 763d 0acc 8b3d abce 803e 9723 4d3d
00000310: c5de 763d 6c8d 1a3e de55 d93e e9ba 4b3f
00000320: 2d63 273e a215 c43d 92f2 e33d 241a d33e
00000330: adae e13d ef0d 823d 97ed 253e c4bb a83d
00000340: 4b65 553e 99f1 993e 4f34 673e 4506 9b3e
00000350: 0680 5f3e 98ce 243e afd0 973d 01c2 403e
00000360: a3b2 9d3e dc37 f73d fb50 1c3e b5b4 503e
00000370: 6d9a 3d3e 9757 bc3d 31bd fd3e 89e1 2e3f
00000380: ca87 2b3e e4a9 0c3e ce5b 133e 6103 bd3d
00000390: 57bf 0e3f efd6 f03c 0b7b 2d3e 7da6 803d
000003a0: 6067 103e b105 7f3e 6109 1c3e 7edf f73d
000003b0: 771a c13e fee4 d03d 3fd4 2d3e ef18 963d
000003c0: b723 903e 7ad4 953d 54c4 823e d46c c83e
000003d0: 5bc8 863e d2f5 7f3d 85b0 013e 026f 563e
000003e0: 00be d43d 2f5f 183e 21cc 343d 989a 013e
000003f0: 7391 de3d 608f 203e f74e 063e f792 6c3e
0.70948315 0.3397583 0.16582198 0.1486766 0.10515974 0.112798244 0.09820034 0.30293044
0.37554976 0.3317653 0.39788637 0.13197474 0.082665086 0.08593491 0.07276219 0.29520088
0.10723213 0.3120387 0.1161598 0.19718838 0.06645379 0.27437356 0.1225287 0.1898149
0.43152916 0.02645465 0.1489324 0.3012714 0.09449551 0.033382207 0.28122735 0.15893874
0.038219057 0.47166756 0.36450323 0.09546416 0.033386156 0.53368574 0.14552599 0.12120581
0.15924624 0.27359778 0.20193158 0.15486987 0.07374323 0.061639667 0.10328584 0.1925445
0.13541213 0.26474768 0.29937643 0.043486908 0.348048 0.28513125 0.026789105 0.10516142
0.0694491 0.19487517 0.17513014 0.25635514 0.08786806 0.12475579 0.3434475 0.3990979
0.20655909 0.06649957 0.120854914 0.13035993 0.23346645 0.16977538 0.25769255 0.046649773
0.19565181 0.14168744 0.067818135 0.09832095 0.118158326 0.37135822 0.13608052 0.09623858
0.16396107 0.043403666 0.10923234 0.14680961 0.100660466 0.16130573 0.6410317 0.08679618
0.32209468 0.1973468 0.6566326 0.13408245 0.2122636 0.15074949 0.20245497 0.036433224
0.19605266 0.36185238 0.20561191 0.09548373 0.19289292 0.075235195 0.12668957 0.19068691
0.44908226 0.11040384 0.18204786 0.049239576 0.2959087 0.5059011 0.086730994 0.15903698
0.085632175 0.1643352 0.24343336 0.28738692 0.31913754 0.049348973 0.50130713 0.31367704
0.16638543 0.16156526 0.32733458 0.15000834 0.07993347 0.13994019 0.21149683 0.1219506
0.3050973 0.16473451 0.061635032 0.14429313 0.05820704 0.4338477 0.16231185 0.06897132
0.11517875 0.46795616 0.12773888 0.26767436 0.0642897 0.05601012 0.10341663 0.2126043
0.38811135 0.16806436 0.5381322 0.15276961 0.08635332 0.4614063 0.3489277 0.15896142
0.1893887 0.055607047 0.4881615 0.15691793 0.21294174 0.8229719 0.11001664 0.14537881
0.15190932 0.22573091 0.27563924 0.19923544 0.3192524 0.12319584 0.3804496 0.21255764
0.23602682 0.09914834 0.4017296 0.7765561 0.17813523 0.17383336 0.52937526 0.190543
0.25967807 0.07096503 0.04326747 0.30099073 0.11836503 0.12238601 0.27847406 0.2550898
0.110300526 0.25686017 0.16252741 0.062930144 0.20068362 0.34286708 0.47919622 0.30883354
0.060186435 0.06826027 0.25157675 0.05008277 0.060271043 0.1509301 0.42448324 0.7958208
0.16346426 0.09574439 0.11130251 0.4123088 0.11019645 0.06350314 0.16203915 0.082389385
0.20839421 0.30067137 0.22578548 0.3027822 0.21826181 0.16094434 0.0741285 0.18824007
0.30800352 0.12071201 0.15265267 0.20381434 0.1851594 0.09196394 0.49558404 0.6831289
0.16751018 0.13736683 0.1439049 0.0922916 0.5576071 0.029399363 0.16941468 0.06281755
0.14101934 0.24904515 0.15237953 0.121031746 0.37715504 0.10199927 0.16975497 0.073289745
0.28152248 0.07315917 0.2554041 0.3914553 0.26324734 0.062490292 0.12664993 0.20940784
0.10387802 0.1488006 0.044139985 0.12656629 0.10867586 0.15679693 0.1311606 0.23102938

fc2.weight f4 [300, 400]
00000000: f078 563c 3916 3e3d bfb1 4e3d 8b8d 7dbe
00000010: 286b c93d 658d c5bc c5c0 82bc 24c4 0b3c
00000020: bfea a33d b411 723d 8c76 413c 8d89 48bd
00000030: aa7f 9d3c ed2c 6a3d 28f2 95bd 58de 223c
00000040: 88dc 093e 7634 dc3c e9cb 87bc 84a7 333d
00000050: 8f6c 183e f1a8 6cbd 0076 1f39 2a28 b93d
00000060: a67a ee3c 0079 9cbd 9730 c83d 8dd5 b73d
00000070: f0b9 84bd e616 e93d 3909 1d3d 8071 44be
00000080: 6950 15bd fa34 d03b 69be 1e3d 2f9c 0bbe
00000090: 59a5 f53d 00ab 0ebd 56ee 10bd 9e7c fe3c
000000a0: 330e 093e 3150 a33d 6b28 4dbe 97ca b9bd
000000b0: 1679 6f3d feb1 493e 30a6 cd3d 20f0 3fbe
000000c0: f314 18be d2df ffbc b5c8 3d3d f904 06bd
000000d0: 7f1c 7ebc 5043 eebc 211a 9f3c 3e64 a03d
000000e0: 0b3d e1bc 1f13 d03d 1129 8bbd 32b6 a7bc
000000f0: 7b42 2f3c a34d 49be 0b87 4abd 92d0 f73d
00000100: 8c98 28be ad5b 173d 96f4 673d ae67 083d
00000110: fbd5 b43c b701 54bd 7a3e 203c 775c 733d
00000120: c8d4 a83d 420a 943d 9b1b 6bbd 8839 3d3d
00000130: e988 1fbe 6a69 753d 2e00 ae3c 0c58 90be
00000140: 2c35 c53c 7f6e 4bbc 7138 ed3c 6c1a b03d
00000150: 8129 953d f5c3 4b3d 3d2e 643d 50a0 e73d
00000160: a5db c53c be08 563d 8ac8 1c3d 1263 1cbc
00000170: b5f3 e33d a550 52bd 4ede 5bbd d84a 963c
00000180: 0101 25bd 766f bc3d 8d0a ae3a e12c 3cbe
00000190: 1a18 b7bd a2c0 7ebd ed77 d4bc 736f 3e3e
000001a0: 4a60 d5bb 96d7 b33d 54b2 fd3b 251f 483e
000001b0: fc88 613e 5da7 3b3c 6c48 5fbe d1a0 eabd
000001c0: 8375 23bd c796 0d3e 6b69 44be a420 cfbd
000001d0: 6f00 743d dfd2 a9ba 3aaf da3d 40d7 43bc
000001e0: ddf6 86bd 4f63 82be 61bd 393e 636b 623d
000001f0: 7464 f0bd 27df 61bc c77e f73d f7da 05bc
00000200: feb8 663d 48e8 623d 7992 98bc 216b 603c
00000210: fe58 7b3d 55ff cf3c 80cd a3bd 2e74 89bd
00000220: 638a 16be bd67 283e 19d4 5ebc 16e5 4f3d
00000230: 7aa0 9e3c 9cc4 083e 1589 85bc f226 e7ba
00000240: b6fd c1bd f769 80bd 79ad af3c 27cb ab3c
00000250: b869 bcbd e3e9 c8bd e4ae f93c d83f 593d
00000260: 4fdd ecbc ae50 d6bb 5978 cb3d 7040 863d
00000270: 697c e2bb 1c04 9c3c 2c03 803d 8e4d 9cbc
00000280: 2c4e 1abd 5204 7a3d 8cd7 7dbc f6e2 9cbd
00000290: 8981 a1bc eb4f 0b3e 393f a93d dc5b d53a
000002a0: 66b7 823d 392d 85bd fa5d c7bd 5b15 2c3d
000002b0: 9808 e23c 2dc9 1bbe ea00 17be 0c4c 29bd
000002c0: d954 a33d aa60 133e bf7a c5bd ca8f ad3d
000002d0: feec 913d 58a3 843d e81d cf3d 18ed 1bbd
000002e0: 0b38 923d 6e2d 1dbe 9efd 913a 428c f4bc
000002f0: 9ea2 c53c 1039 7dbd 1ada e83d cff3 cd3c
00000300: 0ee9 b03d 13b7 04be 7d4b 813b 722b 9fbe
00000310: ef78 95bd 2eb0 c83d 2945 3e3d b720 303d
00000320: 21d5 10be 74e4 123e 455f fdbd db70 9fbd
00000330: f910 aabd 0573 d83d d36f f13c 27d3 4ebe
00000340: 025d 81bd 73af f7bc e4a2 193d f491 a43d
00000350: 92a5 75bd 91b8 16bd a135 83bd 2c2e a73d
00000360: 572c 20bd 3c0e e23c cd78 a43d e753 a9bc
00000370: 44af 683d d4f6 3c3d 6872 04be 28d5 e83b
00000380: c643 ec3d 747e 033e 3ca4 9e3d d94b a63d
00000390: e012 75bc e035 d83d 270e 18be b07d 01bd
000003a0: 6446 9d3d d38e 3bbe ade1 e63d 9c0f 38bd
000003b0: 4733 923d 66a2 1ebe f4c6 cb3d a855 843d
000003c0: 6a00 193d fbd0 a23a 87e8 9f3d 92d0 9a3d
000003d0: 066e 03be 7c9f 27be 9bba 69bd 94bd 6a3d
000003e0: b1a1 543d eeb4 8e3d 1216 47bc 169b 333e
000003f0: 9c26 ae3a 4735 413d 53c8 523d f174 ec3c
0.013090357 0.046407912 0.05046248 -0.24761026 0.098348916 -0.024115274 -0.01596106 0.00853065
0.08003759 0.059098914 0.011808049 -0.048959304 0.019225914 0.05717175 -0.07321578 0.009940706
0.13463032 0.026880484 -0.016576724 0.043860927 0.14885162 -0.057778303 0.0001520738 0.09040864
0.029111218 -0.076402664 0.09774893 0.089762785 -0.06480777 0.11381321 0.038338874 -0.19183922
-0.03645364 0.0063539715 0.038755808 -0.13633798 0.11994428 -0.034831047 -0.035383545 0.031065281
0.13384323 0.0797428 -0.2003495 -0.09071844 0.058465086 0.19696805 0.100414634 -0.18743944
-0.14851741 -0.031234656 0.046333987 -0.032719586 -0.015509724 -0.029084831 0.019421639 0.0783162
-0.027494928 0.10159897 -0.06794942 -0.02047262 0.0106970025 -0.19658522 -0.049445193 0.121003285
-0.16464442 0.036952663 0.05662974 0.033302 0.02207469 -0.051759448 0.009780521 0.059414353
0.0824371 0.07228519 -0.057399374 0.046197444 -0.15579571 0.059914984 0.02124032 -0.28192174
0.024073206 -0.012416481 0.028957577 0.085987896 0.07283307 0.049747426 0.05570816 0.11309874
0.024152586 0.05225443 0.038277186 -0.009545105 0.11130468 -0.05134644 -0.053678803 0.018346235
-0.04028416 0.09200947 0.0013278291 -0.18376495 -0.08940144 -0.062195428 -0.025936091 0.18597202
-0.0065117227 0.08781354 0.0077422056 0.1954313 0.22024912 0.011453477 -0.2180497 -0.114564545
-0.03990699 0.13827048 -0.19180839 -0.101136476 0.059570726 -0.0012956521 0.10677953 -0.011953175
-0.06590054 -0.2546639 0.18138649 0.055278193 -0.1173791 -0.013786114 0.12084728 -0.008169881
0.056328766 0.055397302 -0.018624531 0.0136974165 0.061364166 0.025390306 -0.079981804 -0.06711613
-0.14701228 0.16445823 -0.013600373 0.050755583 0.01936363 0.1335625 -0.016300717 -0.0017635508
-0.0947222 -0.06270211 0.021445023 0.020970894 -0.09199852 -0.09810235 0.030478902 0.0530394
-0.028914122 -0.0065403795 0.09935064 0.06555259 -0.0069118035 0.019044928 0.06250605 -0.01907995
-0.037672207 0.061039276 -0.015493285 -0.07660477 -0.019715087 0.13604705 0.08264012 0.0016277987
0.06382637 -0.06502766 -0.097347215 0.042012554 0.027591988 -0.15213461 -0.14746442 -0.04133229
0.07975168 0.14392343 -0.096425526 0.08474691 0.07125281 0.06476468 0.10113126 -0.038067907
0.071395956 -0.15349361 0.0011138206 -0.029852036 0.024125393 -0.061821997 0.113697246 0.025140671
0.08638202 -0.12960462 0.0039457665 -0.31087834 -0.07298457 0.097992286 0.046452675 0.04299995
-0.14143802 0.1434496 -0.12371687 -0.07785197 -0.083040185 0.10568813 0.029472267 -0.20197736
-0.06316568 -0.030235028 0.03750886 0.08035651 -0.059972353 -0.03679711 -0.06406713 0.081631035
-0.039104786 0.027594678 0.080308534 -0.02066989 0.05680777 0.04613383 -0.12934268 0.0071054883
0.11536364 0.12841207 0.07746169 0.081199355 -0.014958113 0.10557151 -0.14849149 -0.031614006
0.076794416 -0.18316202 0.11273513 -0.04493676 0.071386866 -0.15491638 0.09950057 0.0646165
0.03735391 0.00124219 0.07808023 0.07559313 -0.1283494 -0.16369432 -0.057062726 0.057309702
0.051912013 0.06968103 -0.012151258 0.1753963 0.0013286653 0.04716995 0.051460575 0.028864356

fc2.bias f4 [300]
00000000: 6045 4bbc f738 48ba b2b9 ad3d 122c d23d
00000010: 5e94 aebd dd33 a53d 3ddb a2bd 1061 11bc
00000020: 97f2 7fbc 664a 44bd 67bb 27be 4d50 5ebd
00000030: 2fe1 64be 5062 57bd 301b 90bc 26a1 33bd
00000040: af45 d4bd 8e96 0f3d 7dab 0b3e b307 12be
00000050: 9748 bdbd 23c8 8d3d c87c 40bd 47b5 4cbd
00000060: 4b97 113e 832d 03bd a470 44bd 92a8 e0bc
00000070: 6473 1c3d eb0c 903d 554c c73c bcb9 d6bc
00000080: d91a 98bd 6488 eebd 1189 05be aac0 1bbd
00000090: cb31 45bd 20fb d63d b390 843b 0da1 c8bb
000000a0: ae40 bc3d 5957 0e3d 3c49 b3bd eed9 55bd
000000b0: d25b 193e b8dd 28bd c787 d4bd 5b7e c7bd
000000c0: a885 e7bc 4d47 59bd d4a4 0b3d c902 00bd
000000d0: 154d ccbd 0af3 9a3d 6794 08be f41a 45be
000000e0: 2d86 b73d 73e3 923d 31d2 5fbe 76a1 85bd
000000f0: 1edf ae3c d407 403c 67bf cdbd 44a9 49bd
00000100: a755 553c 441c 20bd 316f c13c 3c37 37be
00000110: 2c96 ebbc 554c 9ebd ed43 043a 16e7 593c
00000120: c4e7 763c 33b1 8dbd 30b1 9e3d 5d11 a73c
00000130: 6ed7 7ebd fff1 123d 9dcb 0fba 8b61 13be
00000140: 18d2 77bd 8024 14be fc71 ecbd b249 13bc
00000150: c00a a5bd 40a0 d23d 072e be3c b0bc dbbc
00000160: 938a 0cbe 4dda f0bc 1ecb 1a3c 88b3 ed3c
00000170: 8158 fb3c 2ffc 0abe 6040 0fbd 0eaa df3d
00000180: 4594 11bd cdff 59bd 8cfe 02bd 4e64 2c3d
00000190: cf1e f5bc af00 b1bd dcc9 13be 2170 02bd
000001a0: 119a 0a3d 55c4 3bbe 1cd6 7e3d 2336 f4bc
000001b0: 148e 0b3e 90e9 0c3e 0765 cb3c c895 87bd
000001c0: 7ae2 573a 2064 323d 2241 ecbc fe40 9d3c
000001d0: b85d 063d f2bb 263d 62e3 7b3d 99cf e3bd
000001e0: 74e4 e63d 2560 843d e033 04bd ba55 a6bd
000001f0: 8add d6bc 4357 063c 6fee 1d3d 1559 053d
00000200: e665 a43b e4ee f3bd 87e2 4a3d c714 ddbc
00000210: 3207 be3d 4c48 27bd 9d1f bdbd a390 aebc
00000220: 9357 133a 89df c93d 7b13 17be 563b 80bd
00000230: 9930 22be 82bf bdbd 0d76 3dbd a8c5 59bd
00000240: e846 a03d 5e14 c93d 87ca 89bd 5d60 34bc
00000250: 9563 14be 627a 943d f988 9abd 9831 f03d
00000260: 7bc6 d2bd ee02 3abd 56a0 623d 43bd 08be
00000270: e0aa 24bd 6819 de3c a5f4 62be c1aa 893d
00000280: c7dc d9bc 8076 1f3d 9012 07bd f8a6 23be
00000290: b7fe dfbb b2ce 29be 59a9 30bd 5980 db3d
000002a0: e04d 0cbe 268f e3bd b2d4 8ebd c60d 85be
000002b0: 9195 4dbd e2c0 91bd bdb4 76bb d392 723d
000002c0: 575b e6bd d124 5cbd b4cf dcbd ebc1 65bd
000002d0: 50a0 283b aa46 8539 6628 223d 2ebc e7bd
000002e0: a268 00bd 8c59 da3c 1b2c ab3c 5490 913d
000002f0: 9580 2c3c 5bef 893d 7c2d 3c3d 1295 2e3d
00000300: 4527 e2bd ad71 1abc 0fa6 463d 3c37 a8bd
00000310: 76ca 92bb f0ac 803c 7ae1 15be ab96 983d
00000320: ff0d ba3b 3a61 83bd 5ed8 39bd 7bdb 8abd
00000330: 9971 a5bd 2369 253d 0339 2f3d 89bb 16bd
00000340: f856 06ba f3d4 40bd 7f5e 383c 6b64 463c
00000350: 9ad6 46bd 384f 5dbc 5eed 4bbe 0cee a33d
00000360: 9b2f dcbd b5c0 933d 3d50 62bd 2e8e 903d
00000370: f0e4 73bd a3b4 edbd ba3b 99bd 1ad9 8bbd
00000380: ef9c 96ba dd22 dbbc b9e0 603d e5d0 3ebd
00000390: e5f0 963b 392b fe3d b62b 8b3b 7693 8f3c
000003a0: e3d7 d3bd aa12 be3d 7a0d e13d f88d a8bd
000003b0: 5e63 5bbe e100 253b 0020 c63b 48d9 803c
000003c0: 8816 0fbc 98c9 8c3d 2c14 2f3b e755 52bd
000003d0: a49d 69bc bae8 40bc c747 1ebd bf31 b9bc
000003e0: d270 f2bd 0a7d f7bc 7913 11be bd60 833d
000003f0: 30b2 4cbd d56d 8bbd ec1a 90bd d4f5 1c3d
-0.012406677 -0.0007637883 0.08482684 0.10262312 -0.085243925 0.08066533 -0.07951973 -0.008873239
-0.015621803 -0.047922514 -0.16380082 -0.0542758 -0.22351526 -0.052583992 -0.017591089 -0.043854855
-0.103648536 0.03505569 0.13639636 -0.1426075 -0.09242361 0.06922939 -0.046994 -0.049977567
0.1421787 -0.032025825 -0.047958985 -0.02742413 0.038195983 0.07033714 0.02432839 -0.026211612
-0.07426996 -0.11647108 -0.13040568 -0.038025536 -0.04814319 0.10497117 0.00404557 -0.0061227144
0.09192024 0.03475127 -0.08754203 -0.052209787 0.14976433 -0.041227072 -0.1037746 -0.09740897
-0.028261974 -0.053046513 0.03409274 -0.031252656 -0.0997564 0.07565887 -0.13337861 -0.19248563
0.08961139 0.07172289 -0.21857525 -0.06524937 0.021346625 0.011720616 -0.10046273 -0.04923369
0.013020909 -0.039089456 0.02361259 -0.17892164 -0.028758131 -0.07729403 0.0005045522 0.013299724
0.015069906 -0.06918564 0.077486396 0.020394022 -0.06221717 0.035875317 -0.0005485358 -0.14392678
-0.060503095 -0.14467049 -0.11545178 -0.008989738 -0.08058691 0.102844715 0.023215307 -0.026823372
-0.13724737 -0.029400969 0.009447841 0.029016271 0.03068185 -0.13572763 -0.034973502 0.10921107
-0.03554179 -0.053222466 -0.031981036 0.042087846 -0.029921917 -0.086427085 -0.14432472 -0.031845216
0.033838335 -0.18336613 0.06221591 -0.02981097 0.13628417 0.13760972 0.024828447 -0.066203654
0.0008235347 0.043552518 -0.028839651 0.01919603 0.03280422 0.040706582 0.061496146 -0.111235805
0.11274043 0.064636506 -0.032276034 -0.0812182 -0.026228685 0.008199516 0.038557466 0.03255566
0.00501703 -0.11910799 0.04953244 -0.026987446 0.09278716 -0.040840432 -0.092345454 -0.021309203
0.00056206546 0.09857089 -0.14753525 -0.062613174 -0.15838851 -0.09265043 -0.04625516 -0.053167015
0.07826024 0.09818338 -0.06728082 -0.011009303 -0.14491113 0.07249905 -0.07545657 0.11728209
-0.102917634 -0.04541295 0.05532869 -0.13353448 -0.04020202 0.027111724 -0.22163637 0.06722022
-0.026594533 0.03893137 -0.032976687 -0.15981662 -0.0068357843 -0.16582754 -0.043130253 0.1071784
-0.13701582 -0.11111288 -0.06974162 -0.2598707 -0.050191466 -0.071168676 -0.003764435 0.059222054
-0.112478904 -0.05374605 -0.10781804 -0.056093138 0.002573032 0.00025420386 0.03958931 -0.11315189
-0.031349786 0.026654027 0.020895055 0.071076065 0.010528703 0.067351066 0.045941815 0.042622633
-0.11042646 -0.0094265165 0.04849821 -0.0821366 -0.0044797016 0.015707463 -0.14636794 0.07450613
0.005677938 -0.06415029 -0.04537236 -0.06780144 -0.08078308 0.04038347 0.04277898 -0.03679994
-0.00051246537 -0.047078084 0.011252998 0.012108902 -0.048544504 -0.013507657 -0.19914767 0.08004388
-0.107512675 0.0721449 -0.055252302 0.070583686 -0.059544504 -0.11606719 -0.07482095 -0.06828518
-0.0011490862 -0.026750023 0.054901812 -0.046585936 0.0046063536 0.12410588 0.004247154 0.01752637
-0.103439115 0.09280904 0.109888986 -0.082302034 -0.21424624 0.0025177526 0.006046295 0.015728608
-0.008733399 0.068743885 0.0026714904 -0.051351454 -0.014258776 -0.011774236 -0.03864267 -0.022606729
-0.11837925 -0.03021099 -0.14167584 0.06414936 -0.04997462 -0.06808058 -0.07036385 0.038320377
